<?xml version="1.0" ?>
<net name="torch-jit-export" version="11">
	<layers>
		<layer id="0" name="image" type="Parameter" version="opset1">
			<data shape="1,3,864,864" element_type="f32"/>
			<rt_info>
				<attribute name="fused_names" version="0" value="image"/>
			</rt_info>
			<output>
				<port id="0" precision="FP32" names="image">
					<dim>1</dim>
					<dim>3</dim>
					<dim>864</dim>
					<dim>864</dim>
				</port>
			</output>
		</layer>
		<layer id="1" name="Constant_6845" type="Const" version="opset1">
			<data element_type="f32" shape="1, 3, 1, 1" offset="0" size="12"/>
			<rt_info>
				<attribute name="fused_names" version="0" value="Constant_6845"/>
			</rt_info>
			<output>
				<port id="0" precision="FP32">
					<dim>1</dim>
					<dim>3</dim>
					<dim>1</dim>
					<dim>1</dim>
				</port>
			</output>
		</layer>
		<layer id="2" name="Subtract_6846" type="Subtract" version="opset1">
			<data auto_broadcast="numpy"/>
			<rt_info>
				<attribute name="fused_names" version="0" value="Subtract_6846"/>
				<attribute name="preprocessing" version="0"/>
			</rt_info>
			<input>
				<port id="0" precision="FP32">
					<dim>1</dim>
					<dim>3</dim>
					<dim>864</dim>
					<dim>864</dim>
				</port>
				<port id="1" precision="FP32">
					<dim>1</dim>
					<dim>3</dim>
					<dim>1</dim>
					<dim>1</dim>
				</port>
			</input>
			<output>
				<port id="2" precision="FP32">
					<dim>1</dim>
					<dim>3</dim>
					<dim>864</dim>
					<dim>864</dim>
				</port>
			</output>
		</layer>
		<layer id="3" name="Constant_20349" type="Const" version="opset1">
			<data element_type="f32" shape="1, 3, 1, 1" offset="12" size="12"/>
			<output>
				<port id="0" precision="FP32">
					<dim>1</dim>
					<dim>3</dim>
					<dim>1</dim>
					<dim>1</dim>
				</port>
			</output>
		</layer>
		<layer id="4" name="Divide_6848" type="Multiply" version="opset1">
			<data auto_broadcast="numpy"/>
			<rt_info>
				<attribute name="fused_names" version="0" value="Constant_6847, Divide_6848"/>
				<attribute name="preprocessing" version="0"/>
			</rt_info>
			<input>
				<port id="0" precision="FP32">
					<dim>1</dim>
					<dim>3</dim>
					<dim>864</dim>
					<dim>864</dim>
				</port>
				<port id="1" precision="FP32">
					<dim>1</dim>
					<dim>3</dim>
					<dim>1</dim>
					<dim>1</dim>
				</port>
			</input>
			<output>
				<port id="2" precision="FP32">
					<dim>1</dim>
					<dim>3</dim>
					<dim>864</dim>
					<dim>864</dim>
				</port>
			</output>
		</layer>
		<layer id="5" name="1289" type="Const" version="opset1">
			<data element_type="f32" shape="32, 3, 3, 3" offset="24" size="3456"/>
			<rt_info>
				<attribute name="fused_names" version="0" value="1289"/>
			</rt_info>
			<output>
				<port id="0" precision="FP32" names="1289">
					<dim>32</dim>
					<dim>3</dim>
					<dim>3</dim>
					<dim>3</dim>
				</port>
			</output>
		</layer>
		<layer id="6" name="Convolution_389" type="Convolution" version="opset1">
			<data strides="2, 2" dilations="1, 1" pads_begin="1, 1" pads_end="1, 1" auto_pad="explicit"/>
			<rt_info>
				<attribute name="fused_names" version="0" value="Convolution_389"/>
			</rt_info>
			<input>
				<port id="0" precision="FP32">
					<dim>1</dim>
					<dim>3</dim>
					<dim>864</dim>
					<dim>864</dim>
				</port>
				<port id="1" precision="FP32">
					<dim>32</dim>
					<dim>3</dim>
					<dim>3</dim>
					<dim>3</dim>
				</port>
			</input>
			<output>
				<port id="2" precision="FP32">
					<dim>1</dim>
					<dim>32</dim>
					<dim>432</dim>
					<dim>432</dim>
				</port>
			</output>
		</layer>
		<layer id="7" name="Reshape_409" type="Const" version="opset1">
			<data element_type="f32" shape="1, 32, 1, 1" offset="3480" size="128"/>
			<output>
				<port id="0" precision="FP32">
					<dim>1</dim>
					<dim>32</dim>
					<dim>1</dim>
					<dim>1</dim>
				</port>
			</output>
		</layer>
		<layer id="8" name="1288" type="Add" version="opset1">
			<data auto_broadcast="numpy"/>
			<rt_info>
				<attribute name="fused_names" version="0" value="1288, Concat_408, Reshape_409"/>
			</rt_info>
			<input>
				<port id="0" precision="FP32">
					<dim>1</dim>
					<dim>32</dim>
					<dim>432</dim>
					<dim>432</dim>
				</port>
				<port id="1" precision="FP32">
					<dim>1</dim>
					<dim>32</dim>
					<dim>1</dim>
					<dim>1</dim>
				</port>
			</input>
			<output>
				<port id="2" precision="FP32" names="1288">
					<dim>1</dim>
					<dim>32</dim>
					<dim>432</dim>
					<dim>432</dim>
				</port>
			</output>
		</layer>
		<layer id="9" name="359" type="Clamp" version="opset1">
			<data min="0" max="6"/>
			<rt_info>
				<attribute name="fused_names" version="0" value="359, Maximum_437"/>
			</rt_info>
			<input>
				<port id="0" precision="FP32">
					<dim>1</dim>
					<dim>32</dim>
					<dim>432</dim>
					<dim>432</dim>
				</port>
			</input>
			<output>
				<port id="1" precision="FP32" names="359">
					<dim>1</dim>
					<dim>32</dim>
					<dim>432</dim>
					<dim>432</dim>
				</port>
			</output>
		</layer>
		<layer id="10" name="1292" type="Const" version="opset1">
			<data element_type="f32" shape="32, 32, 1, 1" offset="3608" size="4096"/>
			<rt_info>
				<attribute name="fused_names" version="0" value="1292"/>
			</rt_info>
			<output>
				<port id="0" precision="FP32" names="1292">
					<dim>32</dim>
					<dim>32</dim>
					<dim>1</dim>
					<dim>1</dim>
				</port>
			</output>
		</layer>
		<layer id="11" name="Convolution_439" type="Convolution" version="opset1">
			<data strides="1, 1" dilations="1, 1" pads_begin="0, 0" pads_end="0, 0" auto_pad="explicit"/>
			<rt_info>
				<attribute name="fused_names" version="0" value="Convolution_439"/>
			</rt_info>
			<input>
				<port id="0" precision="FP32">
					<dim>1</dim>
					<dim>32</dim>
					<dim>432</dim>
					<dim>432</dim>
				</port>
				<port id="1" precision="FP32">
					<dim>32</dim>
					<dim>32</dim>
					<dim>1</dim>
					<dim>1</dim>
				</port>
			</input>
			<output>
				<port id="2" precision="FP32">
					<dim>1</dim>
					<dim>32</dim>
					<dim>432</dim>
					<dim>432</dim>
				</port>
			</output>
		</layer>
		<layer id="12" name="Reshape_459" type="Const" version="opset1">
			<data element_type="f32" shape="1, 32, 1, 1" offset="7704" size="128"/>
			<output>
				<port id="0" precision="FP32">
					<dim>1</dim>
					<dim>32</dim>
					<dim>1</dim>
					<dim>1</dim>
				</port>
			</output>
		</layer>
		<layer id="13" name="1291" type="Add" version="opset1">
			<data auto_broadcast="numpy"/>
			<rt_info>
				<attribute name="fused_names" version="0" value="1291, Concat_458, Reshape_459"/>
			</rt_info>
			<input>
				<port id="0" precision="FP32">
					<dim>1</dim>
					<dim>32</dim>
					<dim>432</dim>
					<dim>432</dim>
				</port>
				<port id="1" precision="FP32">
					<dim>1</dim>
					<dim>32</dim>
					<dim>1</dim>
					<dim>1</dim>
				</port>
			</input>
			<output>
				<port id="2" precision="FP32" names="1291">
					<dim>1</dim>
					<dim>32</dim>
					<dim>432</dim>
					<dim>432</dim>
				</port>
			</output>
		</layer>
		<layer id="14" name="364" type="Clamp" version="opset1">
			<data min="0" max="6"/>
			<rt_info>
				<attribute name="fused_names" version="0" value="364, Maximum_487"/>
			</rt_info>
			<input>
				<port id="0" precision="FP32">
					<dim>1</dim>
					<dim>32</dim>
					<dim>432</dim>
					<dim>432</dim>
				</port>
			</input>
			<output>
				<port id="1" precision="FP32" names="364">
					<dim>1</dim>
					<dim>32</dim>
					<dim>432</dim>
					<dim>432</dim>
				</port>
			</output>
		</layer>
		<layer id="15" name="Reshape_496" type="Const" version="opset1">
			<data element_type="f32" shape="32, 1, 1, 3, 3" offset="7832" size="1152"/>
			<output>
				<port id="0" precision="FP32">
					<dim>32</dim>
					<dim>1</dim>
					<dim>1</dim>
					<dim>3</dim>
					<dim>3</dim>
				</port>
			</output>
		</layer>
		<layer id="16" name="GroupConvolution_562" type="GroupConvolution" version="opset1">
			<data strides="1, 1" pads_begin="1, 1" pads_end="1, 1" dilations="1, 1" auto_pad="explicit"/>
			<rt_info>
				<attribute name="fused_names" version="0" value="GroupConvolution_562, Reshape_496"/>
			</rt_info>
			<input>
				<port id="0" precision="FP32">
					<dim>1</dim>
					<dim>32</dim>
					<dim>432</dim>
					<dim>432</dim>
				</port>
				<port id="1" precision="FP32">
					<dim>32</dim>
					<dim>1</dim>
					<dim>1</dim>
					<dim>3</dim>
					<dim>3</dim>
				</port>
			</input>
			<output>
				<port id="2" precision="FP32">
					<dim>1</dim>
					<dim>32</dim>
					<dim>432</dim>
					<dim>432</dim>
				</port>
			</output>
		</layer>
		<layer id="17" name="Reshape_582" type="Const" version="opset1">
			<data element_type="f32" shape="1, 32, 1, 1" offset="8984" size="128"/>
			<output>
				<port id="0" precision="FP32">
					<dim>1</dim>
					<dim>32</dim>
					<dim>1</dim>
					<dim>1</dim>
				</port>
			</output>
		</layer>
		<layer id="18" name="1294" type="Add" version="opset1">
			<data auto_broadcast="numpy"/>
			<rt_info>
				<attribute name="fused_names" version="0" value="1294, Concat_581, Reshape_582"/>
			</rt_info>
			<input>
				<port id="0" precision="FP32">
					<dim>1</dim>
					<dim>32</dim>
					<dim>432</dim>
					<dim>432</dim>
				</port>
				<port id="1" precision="FP32">
					<dim>1</dim>
					<dim>32</dim>
					<dim>1</dim>
					<dim>1</dim>
				</port>
			</input>
			<output>
				<port id="2" precision="FP32" names="1294">
					<dim>1</dim>
					<dim>32</dim>
					<dim>432</dim>
					<dim>432</dim>
				</port>
			</output>
		</layer>
		<layer id="19" name="369" type="Clamp" version="opset1">
			<data min="0" max="6"/>
			<rt_info>
				<attribute name="fused_names" version="0" value="369, Maximum_610"/>
			</rt_info>
			<input>
				<port id="0" precision="FP32">
					<dim>1</dim>
					<dim>32</dim>
					<dim>432</dim>
					<dim>432</dim>
				</port>
			</input>
			<output>
				<port id="1" precision="FP32" names="369">
					<dim>1</dim>
					<dim>32</dim>
					<dim>432</dim>
					<dim>432</dim>
				</port>
			</output>
		</layer>
		<layer id="20" name="1298" type="Const" version="opset1">
			<data element_type="f32" shape="16, 32, 1, 1" offset="9112" size="2048"/>
			<rt_info>
				<attribute name="fused_names" version="0" value="1298"/>
			</rt_info>
			<output>
				<port id="0" precision="FP32" names="1298">
					<dim>16</dim>
					<dim>32</dim>
					<dim>1</dim>
					<dim>1</dim>
				</port>
			</output>
		</layer>
		<layer id="21" name="Convolution_612" type="Convolution" version="opset1">
			<data strides="1, 1" dilations="1, 1" pads_begin="0, 0" pads_end="0, 0" auto_pad="explicit"/>
			<rt_info>
				<attribute name="fused_names" version="0" value="Convolution_612"/>
			</rt_info>
			<input>
				<port id="0" precision="FP32">
					<dim>1</dim>
					<dim>32</dim>
					<dim>432</dim>
					<dim>432</dim>
				</port>
				<port id="1" precision="FP32">
					<dim>16</dim>
					<dim>32</dim>
					<dim>1</dim>
					<dim>1</dim>
				</port>
			</input>
			<output>
				<port id="2" precision="FP32">
					<dim>1</dim>
					<dim>16</dim>
					<dim>432</dim>
					<dim>432</dim>
				</port>
			</output>
		</layer>
		<layer id="22" name="Reshape_632" type="Const" version="opset1">
			<data element_type="f32" shape="1, 16, 1, 1" offset="11160" size="64"/>
			<output>
				<port id="0" precision="FP32">
					<dim>1</dim>
					<dim>16</dim>
					<dim>1</dim>
					<dim>1</dim>
				</port>
			</output>
		</layer>
		<layer id="23" name="1297" type="Add" version="opset1">
			<data auto_broadcast="numpy"/>
			<rt_info>
				<attribute name="fused_names" version="0" value="1297, Concat_631, Reshape_632"/>
			</rt_info>
			<input>
				<port id="0" precision="FP32">
					<dim>1</dim>
					<dim>16</dim>
					<dim>432</dim>
					<dim>432</dim>
				</port>
				<port id="1" precision="FP32">
					<dim>1</dim>
					<dim>16</dim>
					<dim>1</dim>
					<dim>1</dim>
				</port>
			</input>
			<output>
				<port id="2" precision="FP32" names="1297">
					<dim>1</dim>
					<dim>16</dim>
					<dim>432</dim>
					<dim>432</dim>
				</port>
			</output>
		</layer>
		<layer id="24" name="1301" type="Const" version="opset1">
			<data element_type="f32" shape="96, 16, 1, 1" offset="11224" size="6144"/>
			<rt_info>
				<attribute name="fused_names" version="0" value="1301"/>
			</rt_info>
			<output>
				<port id="0" precision="FP32" names="1301">
					<dim>96</dim>
					<dim>16</dim>
					<dim>1</dim>
					<dim>1</dim>
				</port>
			</output>
		</layer>
		<layer id="25" name="Convolution_660" type="Convolution" version="opset1">
			<data strides="1, 1" dilations="1, 1" pads_begin="0, 0" pads_end="0, 0" auto_pad="explicit"/>
			<rt_info>
				<attribute name="fused_names" version="0" value="Convolution_660"/>
			</rt_info>
			<input>
				<port id="0" precision="FP32">
					<dim>1</dim>
					<dim>16</dim>
					<dim>432</dim>
					<dim>432</dim>
				</port>
				<port id="1" precision="FP32">
					<dim>96</dim>
					<dim>16</dim>
					<dim>1</dim>
					<dim>1</dim>
				</port>
			</input>
			<output>
				<port id="2" precision="FP32">
					<dim>1</dim>
					<dim>96</dim>
					<dim>432</dim>
					<dim>432</dim>
				</port>
			</output>
		</layer>
		<layer id="26" name="Reshape_680" type="Const" version="opset1">
			<data element_type="f32" shape="1, 96, 1, 1" offset="17368" size="384"/>
			<output>
				<port id="0" precision="FP32">
					<dim>1</dim>
					<dim>96</dim>
					<dim>1</dim>
					<dim>1</dim>
				</port>
			</output>
		</layer>
		<layer id="27" name="1300" type="Add" version="opset1">
			<data auto_broadcast="numpy"/>
			<rt_info>
				<attribute name="fused_names" version="0" value="1300, Concat_679, Reshape_680"/>
			</rt_info>
			<input>
				<port id="0" precision="FP32">
					<dim>1</dim>
					<dim>96</dim>
					<dim>432</dim>
					<dim>432</dim>
				</port>
				<port id="1" precision="FP32">
					<dim>1</dim>
					<dim>96</dim>
					<dim>1</dim>
					<dim>1</dim>
				</port>
			</input>
			<output>
				<port id="2" precision="FP32" names="1300">
					<dim>1</dim>
					<dim>96</dim>
					<dim>432</dim>
					<dim>432</dim>
				</port>
			</output>
		</layer>
		<layer id="28" name="376" type="Clamp" version="opset1">
			<data min="0" max="6"/>
			<rt_info>
				<attribute name="fused_names" version="0" value="376, Maximum_708"/>
			</rt_info>
			<input>
				<port id="0" precision="FP32">
					<dim>1</dim>
					<dim>96</dim>
					<dim>432</dim>
					<dim>432</dim>
				</port>
			</input>
			<output>
				<port id="1" precision="FP32" names="376">
					<dim>1</dim>
					<dim>96</dim>
					<dim>432</dim>
					<dim>432</dim>
				</port>
			</output>
		</layer>
		<layer id="29" name="Reshape_717" type="Const" version="opset1">
			<data element_type="f32" shape="96, 1, 1, 3, 3" offset="17752" size="3456"/>
			<output>
				<port id="0" precision="FP32">
					<dim>96</dim>
					<dim>1</dim>
					<dim>1</dim>
					<dim>3</dim>
					<dim>3</dim>
				</port>
			</output>
		</layer>
		<layer id="30" name="GroupConvolution_783" type="GroupConvolution" version="opset1">
			<data strides="2, 2" pads_begin="1, 1" pads_end="1, 1" dilations="1, 1" auto_pad="explicit"/>
			<rt_info>
				<attribute name="fused_names" version="0" value="GroupConvolution_783, Reshape_717"/>
			</rt_info>
			<input>
				<port id="0" precision="FP32">
					<dim>1</dim>
					<dim>96</dim>
					<dim>432</dim>
					<dim>432</dim>
				</port>
				<port id="1" precision="FP32">
					<dim>96</dim>
					<dim>1</dim>
					<dim>1</dim>
					<dim>3</dim>
					<dim>3</dim>
				</port>
			</input>
			<output>
				<port id="2" precision="FP32">
					<dim>1</dim>
					<dim>96</dim>
					<dim>216</dim>
					<dim>216</dim>
				</port>
			</output>
		</layer>
		<layer id="31" name="Reshape_803" type="Const" version="opset1">
			<data element_type="f32" shape="1, 96, 1, 1" offset="21208" size="384"/>
			<output>
				<port id="0" precision="FP32">
					<dim>1</dim>
					<dim>96</dim>
					<dim>1</dim>
					<dim>1</dim>
				</port>
			</output>
		</layer>
		<layer id="32" name="1303" type="Add" version="opset1">
			<data auto_broadcast="numpy"/>
			<rt_info>
				<attribute name="fused_names" version="0" value="1303, Concat_802, Reshape_803"/>
			</rt_info>
			<input>
				<port id="0" precision="FP32">
					<dim>1</dim>
					<dim>96</dim>
					<dim>216</dim>
					<dim>216</dim>
				</port>
				<port id="1" precision="FP32">
					<dim>1</dim>
					<dim>96</dim>
					<dim>1</dim>
					<dim>1</dim>
				</port>
			</input>
			<output>
				<port id="2" precision="FP32" names="1303">
					<dim>1</dim>
					<dim>96</dim>
					<dim>216</dim>
					<dim>216</dim>
				</port>
			</output>
		</layer>
		<layer id="33" name="381" type="Clamp" version="opset1">
			<data min="0" max="6"/>
			<rt_info>
				<attribute name="fused_names" version="0" value="381, Maximum_831"/>
			</rt_info>
			<input>
				<port id="0" precision="FP32">
					<dim>1</dim>
					<dim>96</dim>
					<dim>216</dim>
					<dim>216</dim>
				</port>
			</input>
			<output>
				<port id="1" precision="FP32" names="381">
					<dim>1</dim>
					<dim>96</dim>
					<dim>216</dim>
					<dim>216</dim>
				</port>
			</output>
		</layer>
		<layer id="34" name="1307" type="Const" version="opset1">
			<data element_type="f32" shape="24, 96, 1, 1" offset="21592" size="9216"/>
			<rt_info>
				<attribute name="fused_names" version="0" value="1307"/>
			</rt_info>
			<output>
				<port id="0" precision="FP32" names="1307">
					<dim>24</dim>
					<dim>96</dim>
					<dim>1</dim>
					<dim>1</dim>
				</port>
			</output>
		</layer>
		<layer id="35" name="Convolution_833" type="Convolution" version="opset1">
			<data strides="1, 1" dilations="1, 1" pads_begin="0, 0" pads_end="0, 0" auto_pad="explicit"/>
			<rt_info>
				<attribute name="fused_names" version="0" value="Convolution_833"/>
			</rt_info>
			<input>
				<port id="0" precision="FP32">
					<dim>1</dim>
					<dim>96</dim>
					<dim>216</dim>
					<dim>216</dim>
				</port>
				<port id="1" precision="FP32">
					<dim>24</dim>
					<dim>96</dim>
					<dim>1</dim>
					<dim>1</dim>
				</port>
			</input>
			<output>
				<port id="2" precision="FP32">
					<dim>1</dim>
					<dim>24</dim>
					<dim>216</dim>
					<dim>216</dim>
				</port>
			</output>
		</layer>
		<layer id="36" name="Reshape_853" type="Const" version="opset1">
			<data element_type="f32" shape="1, 24, 1, 1" offset="30808" size="96"/>
			<output>
				<port id="0" precision="FP32">
					<dim>1</dim>
					<dim>24</dim>
					<dim>1</dim>
					<dim>1</dim>
				</port>
			</output>
		</layer>
		<layer id="37" name="1306" type="Add" version="opset1">
			<data auto_broadcast="numpy"/>
			<rt_info>
				<attribute name="fused_names" version="0" value="1306, Concat_852, Reshape_853"/>
			</rt_info>
			<input>
				<port id="0" precision="FP32">
					<dim>1</dim>
					<dim>24</dim>
					<dim>216</dim>
					<dim>216</dim>
				</port>
				<port id="1" precision="FP32">
					<dim>1</dim>
					<dim>24</dim>
					<dim>1</dim>
					<dim>1</dim>
				</port>
			</input>
			<output>
				<port id="2" precision="FP32" names="1306">
					<dim>1</dim>
					<dim>24</dim>
					<dim>216</dim>
					<dim>216</dim>
				</port>
			</output>
		</layer>
		<layer id="38" name="1310" type="Const" version="opset1">
			<data element_type="f32" shape="144, 24, 1, 1" offset="30904" size="13824"/>
			<rt_info>
				<attribute name="fused_names" version="0" value="1310"/>
			</rt_info>
			<output>
				<port id="0" precision="FP32" names="1310">
					<dim>144</dim>
					<dim>24</dim>
					<dim>1</dim>
					<dim>1</dim>
				</port>
			</output>
		</layer>
		<layer id="39" name="Convolution_881" type="Convolution" version="opset1">
			<data strides="1, 1" dilations="1, 1" pads_begin="0, 0" pads_end="0, 0" auto_pad="explicit"/>
			<rt_info>
				<attribute name="fused_names" version="0" value="Convolution_881"/>
			</rt_info>
			<input>
				<port id="0" precision="FP32">
					<dim>1</dim>
					<dim>24</dim>
					<dim>216</dim>
					<dim>216</dim>
				</port>
				<port id="1" precision="FP32">
					<dim>144</dim>
					<dim>24</dim>
					<dim>1</dim>
					<dim>1</dim>
				</port>
			</input>
			<output>
				<port id="2" precision="FP32">
					<dim>1</dim>
					<dim>144</dim>
					<dim>216</dim>
					<dim>216</dim>
				</port>
			</output>
		</layer>
		<layer id="40" name="Reshape_901" type="Const" version="opset1">
			<data element_type="f32" shape="1, 144, 1, 1" offset="44728" size="576"/>
			<output>
				<port id="0" precision="FP32">
					<dim>1</dim>
					<dim>144</dim>
					<dim>1</dim>
					<dim>1</dim>
				</port>
			</output>
		</layer>
		<layer id="41" name="1309" type="Add" version="opset1">
			<data auto_broadcast="numpy"/>
			<rt_info>
				<attribute name="fused_names" version="0" value="1309, Concat_900, Reshape_901"/>
			</rt_info>
			<input>
				<port id="0" precision="FP32">
					<dim>1</dim>
					<dim>144</dim>
					<dim>216</dim>
					<dim>216</dim>
				</port>
				<port id="1" precision="FP32">
					<dim>1</dim>
					<dim>144</dim>
					<dim>1</dim>
					<dim>1</dim>
				</port>
			</input>
			<output>
				<port id="2" precision="FP32" names="1309">
					<dim>1</dim>
					<dim>144</dim>
					<dim>216</dim>
					<dim>216</dim>
				</port>
			</output>
		</layer>
		<layer id="42" name="388" type="Clamp" version="opset1">
			<data min="0" max="6"/>
			<rt_info>
				<attribute name="fused_names" version="0" value="388, Maximum_929"/>
			</rt_info>
			<input>
				<port id="0" precision="FP32">
					<dim>1</dim>
					<dim>144</dim>
					<dim>216</dim>
					<dim>216</dim>
				</port>
			</input>
			<output>
				<port id="1" precision="FP32" names="388">
					<dim>1</dim>
					<dim>144</dim>
					<dim>216</dim>
					<dim>216</dim>
				</port>
			</output>
		</layer>
		<layer id="43" name="Reshape_938" type="Const" version="opset1">
			<data element_type="f32" shape="144, 1, 1, 3, 3" offset="45304" size="5184"/>
			<output>
				<port id="0" precision="FP32">
					<dim>144</dim>
					<dim>1</dim>
					<dim>1</dim>
					<dim>3</dim>
					<dim>3</dim>
				</port>
			</output>
		</layer>
		<layer id="44" name="GroupConvolution_1004" type="GroupConvolution" version="opset1">
			<data strides="1, 1" pads_begin="1, 1" pads_end="1, 1" dilations="1, 1" auto_pad="explicit"/>
			<rt_info>
				<attribute name="fused_names" version="0" value="GroupConvolution_1004, Reshape_938"/>
			</rt_info>
			<input>
				<port id="0" precision="FP32">
					<dim>1</dim>
					<dim>144</dim>
					<dim>216</dim>
					<dim>216</dim>
				</port>
				<port id="1" precision="FP32">
					<dim>144</dim>
					<dim>1</dim>
					<dim>1</dim>
					<dim>3</dim>
					<dim>3</dim>
				</port>
			</input>
			<output>
				<port id="2" precision="FP32">
					<dim>1</dim>
					<dim>144</dim>
					<dim>216</dim>
					<dim>216</dim>
				</port>
			</output>
		</layer>
		<layer id="45" name="Reshape_1024" type="Const" version="opset1">
			<data element_type="f32" shape="1, 144, 1, 1" offset="50488" size="576"/>
			<output>
				<port id="0" precision="FP32">
					<dim>1</dim>
					<dim>144</dim>
					<dim>1</dim>
					<dim>1</dim>
				</port>
			</output>
		</layer>
		<layer id="46" name="1312" type="Add" version="opset1">
			<data auto_broadcast="numpy"/>
			<rt_info>
				<attribute name="fused_names" version="0" value="1312, Concat_1023, Reshape_1024"/>
			</rt_info>
			<input>
				<port id="0" precision="FP32">
					<dim>1</dim>
					<dim>144</dim>
					<dim>216</dim>
					<dim>216</dim>
				</port>
				<port id="1" precision="FP32">
					<dim>1</dim>
					<dim>144</dim>
					<dim>1</dim>
					<dim>1</dim>
				</port>
			</input>
			<output>
				<port id="2" precision="FP32" names="1312">
					<dim>1</dim>
					<dim>144</dim>
					<dim>216</dim>
					<dim>216</dim>
				</port>
			</output>
		</layer>
		<layer id="47" name="393" type="Clamp" version="opset1">
			<data min="0" max="6"/>
			<rt_info>
				<attribute name="fused_names" version="0" value="393, Maximum_1052"/>
			</rt_info>
			<input>
				<port id="0" precision="FP32">
					<dim>1</dim>
					<dim>144</dim>
					<dim>216</dim>
					<dim>216</dim>
				</port>
			</input>
			<output>
				<port id="1" precision="FP32" names="393">
					<dim>1</dim>
					<dim>144</dim>
					<dim>216</dim>
					<dim>216</dim>
				</port>
			</output>
		</layer>
		<layer id="48" name="1316" type="Const" version="opset1">
			<data element_type="f32" shape="24, 144, 1, 1" offset="51064" size="13824"/>
			<rt_info>
				<attribute name="fused_names" version="0" value="1316"/>
			</rt_info>
			<output>
				<port id="0" precision="FP32" names="1316">
					<dim>24</dim>
					<dim>144</dim>
					<dim>1</dim>
					<dim>1</dim>
				</port>
			</output>
		</layer>
		<layer id="49" name="Convolution_1054" type="Convolution" version="opset1">
			<data strides="1, 1" dilations="1, 1" pads_begin="0, 0" pads_end="0, 0" auto_pad="explicit"/>
			<rt_info>
				<attribute name="fused_names" version="0" value="Convolution_1054"/>
			</rt_info>
			<input>
				<port id="0" precision="FP32">
					<dim>1</dim>
					<dim>144</dim>
					<dim>216</dim>
					<dim>216</dim>
				</port>
				<port id="1" precision="FP32">
					<dim>24</dim>
					<dim>144</dim>
					<dim>1</dim>
					<dim>1</dim>
				</port>
			</input>
			<output>
				<port id="2" precision="FP32">
					<dim>1</dim>
					<dim>24</dim>
					<dim>216</dim>
					<dim>216</dim>
				</port>
			</output>
		</layer>
		<layer id="50" name="Reshape_1074" type="Const" version="opset1">
			<data element_type="f32" shape="1, 24, 1, 1" offset="64888" size="96"/>
			<output>
				<port id="0" precision="FP32">
					<dim>1</dim>
					<dim>24</dim>
					<dim>1</dim>
					<dim>1</dim>
				</port>
			</output>
		</layer>
		<layer id="51" name="1315" type="Add" version="opset1">
			<data auto_broadcast="numpy"/>
			<rt_info>
				<attribute name="fused_names" version="0" value="1315, Concat_1073, Reshape_1074"/>
			</rt_info>
			<input>
				<port id="0" precision="FP32">
					<dim>1</dim>
					<dim>24</dim>
					<dim>216</dim>
					<dim>216</dim>
				</port>
				<port id="1" precision="FP32">
					<dim>1</dim>
					<dim>24</dim>
					<dim>1</dim>
					<dim>1</dim>
				</port>
			</input>
			<output>
				<port id="2" precision="FP32" names="1315">
					<dim>1</dim>
					<dim>24</dim>
					<dim>216</dim>
					<dim>216</dim>
				</port>
			</output>
		</layer>
		<layer id="52" name="396" type="Add" version="opset1">
			<data auto_broadcast="numpy"/>
			<rt_info>
				<attribute name="fused_names" version="0" value="396"/>
			</rt_info>
			<input>
				<port id="0" precision="FP32">
					<dim>1</dim>
					<dim>24</dim>
					<dim>216</dim>
					<dim>216</dim>
				</port>
				<port id="1" precision="FP32">
					<dim>1</dim>
					<dim>24</dim>
					<dim>216</dim>
					<dim>216</dim>
				</port>
			</input>
			<output>
				<port id="2" precision="FP32" names="396">
					<dim>1</dim>
					<dim>24</dim>
					<dim>216</dim>
					<dim>216</dim>
				</port>
			</output>
		</layer>
		<layer id="53" name="1319" type="Const" version="opset1">
			<data element_type="f32" shape="144, 24, 1, 1" offset="64984" size="13824"/>
			<rt_info>
				<attribute name="fused_names" version="0" value="1319"/>
			</rt_info>
			<output>
				<port id="0" precision="FP32" names="1319">
					<dim>144</dim>
					<dim>24</dim>
					<dim>1</dim>
					<dim>1</dim>
				</port>
			</output>
		</layer>
		<layer id="54" name="Convolution_1103" type="Convolution" version="opset1">
			<data strides="1, 1" dilations="1, 1" pads_begin="0, 0" pads_end="0, 0" auto_pad="explicit"/>
			<rt_info>
				<attribute name="fused_names" version="0" value="Convolution_1103"/>
			</rt_info>
			<input>
				<port id="0" precision="FP32">
					<dim>1</dim>
					<dim>24</dim>
					<dim>216</dim>
					<dim>216</dim>
				</port>
				<port id="1" precision="FP32">
					<dim>144</dim>
					<dim>24</dim>
					<dim>1</dim>
					<dim>1</dim>
				</port>
			</input>
			<output>
				<port id="2" precision="FP32">
					<dim>1</dim>
					<dim>144</dim>
					<dim>216</dim>
					<dim>216</dim>
				</port>
			</output>
		</layer>
		<layer id="55" name="Reshape_1123" type="Const" version="opset1">
			<data element_type="f32" shape="1, 144, 1, 1" offset="78808" size="576"/>
			<output>
				<port id="0" precision="FP32">
					<dim>1</dim>
					<dim>144</dim>
					<dim>1</dim>
					<dim>1</dim>
				</port>
			</output>
		</layer>
		<layer id="56" name="1318" type="Add" version="opset1">
			<data auto_broadcast="numpy"/>
			<rt_info>
				<attribute name="fused_names" version="0" value="1318, Concat_1122, Reshape_1123"/>
			</rt_info>
			<input>
				<port id="0" precision="FP32">
					<dim>1</dim>
					<dim>144</dim>
					<dim>216</dim>
					<dim>216</dim>
				</port>
				<port id="1" precision="FP32">
					<dim>1</dim>
					<dim>144</dim>
					<dim>1</dim>
					<dim>1</dim>
				</port>
			</input>
			<output>
				<port id="2" precision="FP32" names="1318">
					<dim>1</dim>
					<dim>144</dim>
					<dim>216</dim>
					<dim>216</dim>
				</port>
			</output>
		</layer>
		<layer id="57" name="401" type="Clamp" version="opset1">
			<data min="0" max="6"/>
			<rt_info>
				<attribute name="fused_names" version="0" value="401, Maximum_1151"/>
			</rt_info>
			<input>
				<port id="0" precision="FP32">
					<dim>1</dim>
					<dim>144</dim>
					<dim>216</dim>
					<dim>216</dim>
				</port>
			</input>
			<output>
				<port id="1" precision="FP32" names="401">
					<dim>1</dim>
					<dim>144</dim>
					<dim>216</dim>
					<dim>216</dim>
				</port>
			</output>
		</layer>
		<layer id="58" name="Reshape_1160" type="Const" version="opset1">
			<data element_type="f32" shape="144, 1, 1, 3, 3" offset="79384" size="5184"/>
			<output>
				<port id="0" precision="FP32">
					<dim>144</dim>
					<dim>1</dim>
					<dim>1</dim>
					<dim>3</dim>
					<dim>3</dim>
				</port>
			</output>
		</layer>
		<layer id="59" name="GroupConvolution_1226" type="GroupConvolution" version="opset1">
			<data strides="2, 2" pads_begin="1, 1" pads_end="1, 1" dilations="1, 1" auto_pad="explicit"/>
			<rt_info>
				<attribute name="fused_names" version="0" value="GroupConvolution_1226, Reshape_1160"/>
			</rt_info>
			<input>
				<port id="0" precision="FP32">
					<dim>1</dim>
					<dim>144</dim>
					<dim>216</dim>
					<dim>216</dim>
				</port>
				<port id="1" precision="FP32">
					<dim>144</dim>
					<dim>1</dim>
					<dim>1</dim>
					<dim>3</dim>
					<dim>3</dim>
				</port>
			</input>
			<output>
				<port id="2" precision="FP32">
					<dim>1</dim>
					<dim>144</dim>
					<dim>108</dim>
					<dim>108</dim>
				</port>
			</output>
		</layer>
		<layer id="60" name="Reshape_1246" type="Const" version="opset1">
			<data element_type="f32" shape="1, 144, 1, 1" offset="84568" size="576"/>
			<output>
				<port id="0" precision="FP32">
					<dim>1</dim>
					<dim>144</dim>
					<dim>1</dim>
					<dim>1</dim>
				</port>
			</output>
		</layer>
		<layer id="61" name="1321" type="Add" version="opset1">
			<data auto_broadcast="numpy"/>
			<rt_info>
				<attribute name="fused_names" version="0" value="1321, Concat_1245, Reshape_1246"/>
			</rt_info>
			<input>
				<port id="0" precision="FP32">
					<dim>1</dim>
					<dim>144</dim>
					<dim>108</dim>
					<dim>108</dim>
				</port>
				<port id="1" precision="FP32">
					<dim>1</dim>
					<dim>144</dim>
					<dim>1</dim>
					<dim>1</dim>
				</port>
			</input>
			<output>
				<port id="2" precision="FP32" names="1321">
					<dim>1</dim>
					<dim>144</dim>
					<dim>108</dim>
					<dim>108</dim>
				</port>
			</output>
		</layer>
		<layer id="62" name="406" type="Clamp" version="opset1">
			<data min="0" max="6"/>
			<rt_info>
				<attribute name="fused_names" version="0" value="406, Maximum_1274"/>
			</rt_info>
			<input>
				<port id="0" precision="FP32">
					<dim>1</dim>
					<dim>144</dim>
					<dim>108</dim>
					<dim>108</dim>
				</port>
			</input>
			<output>
				<port id="1" precision="FP32" names="406">
					<dim>1</dim>
					<dim>144</dim>
					<dim>108</dim>
					<dim>108</dim>
				</port>
			</output>
		</layer>
		<layer id="63" name="1325" type="Const" version="opset1">
			<data element_type="f32" shape="32, 144, 1, 1" offset="85144" size="18432"/>
			<rt_info>
				<attribute name="fused_names" version="0" value="1325"/>
			</rt_info>
			<output>
				<port id="0" precision="FP32" names="1325">
					<dim>32</dim>
					<dim>144</dim>
					<dim>1</dim>
					<dim>1</dim>
				</port>
			</output>
		</layer>
		<layer id="64" name="Convolution_1276" type="Convolution" version="opset1">
			<data strides="1, 1" dilations="1, 1" pads_begin="0, 0" pads_end="0, 0" auto_pad="explicit"/>
			<rt_info>
				<attribute name="fused_names" version="0" value="Convolution_1276"/>
			</rt_info>
			<input>
				<port id="0" precision="FP32">
					<dim>1</dim>
					<dim>144</dim>
					<dim>108</dim>
					<dim>108</dim>
				</port>
				<port id="1" precision="FP32">
					<dim>32</dim>
					<dim>144</dim>
					<dim>1</dim>
					<dim>1</dim>
				</port>
			</input>
			<output>
				<port id="2" precision="FP32">
					<dim>1</dim>
					<dim>32</dim>
					<dim>108</dim>
					<dim>108</dim>
				</port>
			</output>
		</layer>
		<layer id="65" name="Reshape_1296" type="Const" version="opset1">
			<data element_type="f32" shape="1, 32, 1, 1" offset="103576" size="128"/>
			<output>
				<port id="0" precision="FP32">
					<dim>1</dim>
					<dim>32</dim>
					<dim>1</dim>
					<dim>1</dim>
				</port>
			</output>
		</layer>
		<layer id="66" name="1324" type="Add" version="opset1">
			<data auto_broadcast="numpy"/>
			<rt_info>
				<attribute name="fused_names" version="0" value="1324, Concat_1295, Reshape_1296"/>
			</rt_info>
			<input>
				<port id="0" precision="FP32">
					<dim>1</dim>
					<dim>32</dim>
					<dim>108</dim>
					<dim>108</dim>
				</port>
				<port id="1" precision="FP32">
					<dim>1</dim>
					<dim>32</dim>
					<dim>1</dim>
					<dim>1</dim>
				</port>
			</input>
			<output>
				<port id="2" precision="FP32" names="1324">
					<dim>1</dim>
					<dim>32</dim>
					<dim>108</dim>
					<dim>108</dim>
				</port>
			</output>
		</layer>
		<layer id="67" name="1328" type="Const" version="opset1">
			<data element_type="f32" shape="192, 32, 1, 1" offset="103704" size="24576"/>
			<rt_info>
				<attribute name="fused_names" version="0" value="1328"/>
			</rt_info>
			<output>
				<port id="0" precision="FP32" names="1328">
					<dim>192</dim>
					<dim>32</dim>
					<dim>1</dim>
					<dim>1</dim>
				</port>
			</output>
		</layer>
		<layer id="68" name="Convolution_1324" type="Convolution" version="opset1">
			<data strides="1, 1" dilations="1, 1" pads_begin="0, 0" pads_end="0, 0" auto_pad="explicit"/>
			<rt_info>
				<attribute name="fused_names" version="0" value="Convolution_1324"/>
			</rt_info>
			<input>
				<port id="0" precision="FP32">
					<dim>1</dim>
					<dim>32</dim>
					<dim>108</dim>
					<dim>108</dim>
				</port>
				<port id="1" precision="FP32">
					<dim>192</dim>
					<dim>32</dim>
					<dim>1</dim>
					<dim>1</dim>
				</port>
			</input>
			<output>
				<port id="2" precision="FP32">
					<dim>1</dim>
					<dim>192</dim>
					<dim>108</dim>
					<dim>108</dim>
				</port>
			</output>
		</layer>
		<layer id="69" name="Reshape_1344" type="Const" version="opset1">
			<data element_type="f32" shape="1, 192, 1, 1" offset="128280" size="768"/>
			<output>
				<port id="0" precision="FP32">
					<dim>1</dim>
					<dim>192</dim>
					<dim>1</dim>
					<dim>1</dim>
				</port>
			</output>
		</layer>
		<layer id="70" name="1327" type="Add" version="opset1">
			<data auto_broadcast="numpy"/>
			<rt_info>
				<attribute name="fused_names" version="0" value="1327, Concat_1343, Reshape_1344"/>
			</rt_info>
			<input>
				<port id="0" precision="FP32">
					<dim>1</dim>
					<dim>192</dim>
					<dim>108</dim>
					<dim>108</dim>
				</port>
				<port id="1" precision="FP32">
					<dim>1</dim>
					<dim>192</dim>
					<dim>1</dim>
					<dim>1</dim>
				</port>
			</input>
			<output>
				<port id="2" precision="FP32" names="1327">
					<dim>1</dim>
					<dim>192</dim>
					<dim>108</dim>
					<dim>108</dim>
				</port>
			</output>
		</layer>
		<layer id="71" name="413" type="Clamp" version="opset1">
			<data min="0" max="6"/>
			<rt_info>
				<attribute name="fused_names" version="0" value="413, Maximum_1372"/>
			</rt_info>
			<input>
				<port id="0" precision="FP32">
					<dim>1</dim>
					<dim>192</dim>
					<dim>108</dim>
					<dim>108</dim>
				</port>
			</input>
			<output>
				<port id="1" precision="FP32" names="413">
					<dim>1</dim>
					<dim>192</dim>
					<dim>108</dim>
					<dim>108</dim>
				</port>
			</output>
		</layer>
		<layer id="72" name="Reshape_1381" type="Const" version="opset1">
			<data element_type="f32" shape="192, 1, 1, 3, 3" offset="129048" size="6912"/>
			<output>
				<port id="0" precision="FP32">
					<dim>192</dim>
					<dim>1</dim>
					<dim>1</dim>
					<dim>3</dim>
					<dim>3</dim>
				</port>
			</output>
		</layer>
		<layer id="73" name="GroupConvolution_1447" type="GroupConvolution" version="opset1">
			<data strides="1, 1" pads_begin="1, 1" pads_end="1, 1" dilations="1, 1" auto_pad="explicit"/>
			<rt_info>
				<attribute name="fused_names" version="0" value="GroupConvolution_1447, Reshape_1381"/>
			</rt_info>
			<input>
				<port id="0" precision="FP32">
					<dim>1</dim>
					<dim>192</dim>
					<dim>108</dim>
					<dim>108</dim>
				</port>
				<port id="1" precision="FP32">
					<dim>192</dim>
					<dim>1</dim>
					<dim>1</dim>
					<dim>3</dim>
					<dim>3</dim>
				</port>
			</input>
			<output>
				<port id="2" precision="FP32">
					<dim>1</dim>
					<dim>192</dim>
					<dim>108</dim>
					<dim>108</dim>
				</port>
			</output>
		</layer>
		<layer id="74" name="Reshape_1467" type="Const" version="opset1">
			<data element_type="f32" shape="1, 192, 1, 1" offset="135960" size="768"/>
			<output>
				<port id="0" precision="FP32">
					<dim>1</dim>
					<dim>192</dim>
					<dim>1</dim>
					<dim>1</dim>
				</port>
			</output>
		</layer>
		<layer id="75" name="1330" type="Add" version="opset1">
			<data auto_broadcast="numpy"/>
			<rt_info>
				<attribute name="fused_names" version="0" value="1330, Concat_1466, Reshape_1467"/>
			</rt_info>
			<input>
				<port id="0" precision="FP32">
					<dim>1</dim>
					<dim>192</dim>
					<dim>108</dim>
					<dim>108</dim>
				</port>
				<port id="1" precision="FP32">
					<dim>1</dim>
					<dim>192</dim>
					<dim>1</dim>
					<dim>1</dim>
				</port>
			</input>
			<output>
				<port id="2" precision="FP32" names="1330">
					<dim>1</dim>
					<dim>192</dim>
					<dim>108</dim>
					<dim>108</dim>
				</port>
			</output>
		</layer>
		<layer id="76" name="418" type="Clamp" version="opset1">
			<data min="0" max="6"/>
			<rt_info>
				<attribute name="fused_names" version="0" value="418, Maximum_1495"/>
			</rt_info>
			<input>
				<port id="0" precision="FP32">
					<dim>1</dim>
					<dim>192</dim>
					<dim>108</dim>
					<dim>108</dim>
				</port>
			</input>
			<output>
				<port id="1" precision="FP32" names="418">
					<dim>1</dim>
					<dim>192</dim>
					<dim>108</dim>
					<dim>108</dim>
				</port>
			</output>
		</layer>
		<layer id="77" name="1334" type="Const" version="opset1">
			<data element_type="f32" shape="32, 192, 1, 1" offset="136728" size="24576"/>
			<rt_info>
				<attribute name="fused_names" version="0" value="1334"/>
			</rt_info>
			<output>
				<port id="0" precision="FP32" names="1334">
					<dim>32</dim>
					<dim>192</dim>
					<dim>1</dim>
					<dim>1</dim>
				</port>
			</output>
		</layer>
		<layer id="78" name="Convolution_1497" type="Convolution" version="opset1">
			<data strides="1, 1" dilations="1, 1" pads_begin="0, 0" pads_end="0, 0" auto_pad="explicit"/>
			<rt_info>
				<attribute name="fused_names" version="0" value="Convolution_1497"/>
			</rt_info>
			<input>
				<port id="0" precision="FP32">
					<dim>1</dim>
					<dim>192</dim>
					<dim>108</dim>
					<dim>108</dim>
				</port>
				<port id="1" precision="FP32">
					<dim>32</dim>
					<dim>192</dim>
					<dim>1</dim>
					<dim>1</dim>
				</port>
			</input>
			<output>
				<port id="2" precision="FP32">
					<dim>1</dim>
					<dim>32</dim>
					<dim>108</dim>
					<dim>108</dim>
				</port>
			</output>
		</layer>
		<layer id="79" name="Reshape_1517" type="Const" version="opset1">
			<data element_type="f32" shape="1, 32, 1, 1" offset="161304" size="128"/>
			<output>
				<port id="0" precision="FP32">
					<dim>1</dim>
					<dim>32</dim>
					<dim>1</dim>
					<dim>1</dim>
				</port>
			</output>
		</layer>
		<layer id="80" name="1333" type="Add" version="opset1">
			<data auto_broadcast="numpy"/>
			<rt_info>
				<attribute name="fused_names" version="0" value="1333, Concat_1516, Reshape_1517"/>
			</rt_info>
			<input>
				<port id="0" precision="FP32">
					<dim>1</dim>
					<dim>32</dim>
					<dim>108</dim>
					<dim>108</dim>
				</port>
				<port id="1" precision="FP32">
					<dim>1</dim>
					<dim>32</dim>
					<dim>1</dim>
					<dim>1</dim>
				</port>
			</input>
			<output>
				<port id="2" precision="FP32" names="1333">
					<dim>1</dim>
					<dim>32</dim>
					<dim>108</dim>
					<dim>108</dim>
				</port>
			</output>
		</layer>
		<layer id="81" name="421" type="Add" version="opset1">
			<data auto_broadcast="numpy"/>
			<rt_info>
				<attribute name="fused_names" version="0" value="421"/>
			</rt_info>
			<input>
				<port id="0" precision="FP32">
					<dim>1</dim>
					<dim>32</dim>
					<dim>108</dim>
					<dim>108</dim>
				</port>
				<port id="1" precision="FP32">
					<dim>1</dim>
					<dim>32</dim>
					<dim>108</dim>
					<dim>108</dim>
				</port>
			</input>
			<output>
				<port id="2" precision="FP32" names="421">
					<dim>1</dim>
					<dim>32</dim>
					<dim>108</dim>
					<dim>108</dim>
				</port>
			</output>
		</layer>
		<layer id="82" name="1337" type="Const" version="opset1">
			<data element_type="f32" shape="192, 32, 1, 1" offset="161432" size="24576"/>
			<rt_info>
				<attribute name="fused_names" version="0" value="1337"/>
			</rt_info>
			<output>
				<port id="0" precision="FP32" names="1337">
					<dim>192</dim>
					<dim>32</dim>
					<dim>1</dim>
					<dim>1</dim>
				</port>
			</output>
		</layer>
		<layer id="83" name="Convolution_1546" type="Convolution" version="opset1">
			<data strides="1, 1" dilations="1, 1" pads_begin="0, 0" pads_end="0, 0" auto_pad="explicit"/>
			<rt_info>
				<attribute name="fused_names" version="0" value="Convolution_1546"/>
			</rt_info>
			<input>
				<port id="0" precision="FP32">
					<dim>1</dim>
					<dim>32</dim>
					<dim>108</dim>
					<dim>108</dim>
				</port>
				<port id="1" precision="FP32">
					<dim>192</dim>
					<dim>32</dim>
					<dim>1</dim>
					<dim>1</dim>
				</port>
			</input>
			<output>
				<port id="2" precision="FP32">
					<dim>1</dim>
					<dim>192</dim>
					<dim>108</dim>
					<dim>108</dim>
				</port>
			</output>
		</layer>
		<layer id="84" name="Reshape_1566" type="Const" version="opset1">
			<data element_type="f32" shape="1, 192, 1, 1" offset="186008" size="768"/>
			<output>
				<port id="0" precision="FP32">
					<dim>1</dim>
					<dim>192</dim>
					<dim>1</dim>
					<dim>1</dim>
				</port>
			</output>
		</layer>
		<layer id="85" name="1336" type="Add" version="opset1">
			<data auto_broadcast="numpy"/>
			<rt_info>
				<attribute name="fused_names" version="0" value="1336, Concat_1565, Reshape_1566"/>
			</rt_info>
			<input>
				<port id="0" precision="FP32">
					<dim>1</dim>
					<dim>192</dim>
					<dim>108</dim>
					<dim>108</dim>
				</port>
				<port id="1" precision="FP32">
					<dim>1</dim>
					<dim>192</dim>
					<dim>1</dim>
					<dim>1</dim>
				</port>
			</input>
			<output>
				<port id="2" precision="FP32" names="1336">
					<dim>1</dim>
					<dim>192</dim>
					<dim>108</dim>
					<dim>108</dim>
				</port>
			</output>
		</layer>
		<layer id="86" name="426" type="Clamp" version="opset1">
			<data min="0" max="6"/>
			<rt_info>
				<attribute name="fused_names" version="0" value="426, Maximum_1594"/>
			</rt_info>
			<input>
				<port id="0" precision="FP32">
					<dim>1</dim>
					<dim>192</dim>
					<dim>108</dim>
					<dim>108</dim>
				</port>
			</input>
			<output>
				<port id="1" precision="FP32" names="426">
					<dim>1</dim>
					<dim>192</dim>
					<dim>108</dim>
					<dim>108</dim>
				</port>
			</output>
		</layer>
		<layer id="87" name="Reshape_1603" type="Const" version="opset1">
			<data element_type="f32" shape="192, 1, 1, 3, 3" offset="186776" size="6912"/>
			<output>
				<port id="0" precision="FP32">
					<dim>192</dim>
					<dim>1</dim>
					<dim>1</dim>
					<dim>3</dim>
					<dim>3</dim>
				</port>
			</output>
		</layer>
		<layer id="88" name="GroupConvolution_1669" type="GroupConvolution" version="opset1">
			<data strides="1, 1" pads_begin="1, 1" pads_end="1, 1" dilations="1, 1" auto_pad="explicit"/>
			<rt_info>
				<attribute name="fused_names" version="0" value="GroupConvolution_1669, Reshape_1603"/>
			</rt_info>
			<input>
				<port id="0" precision="FP32">
					<dim>1</dim>
					<dim>192</dim>
					<dim>108</dim>
					<dim>108</dim>
				</port>
				<port id="1" precision="FP32">
					<dim>192</dim>
					<dim>1</dim>
					<dim>1</dim>
					<dim>3</dim>
					<dim>3</dim>
				</port>
			</input>
			<output>
				<port id="2" precision="FP32">
					<dim>1</dim>
					<dim>192</dim>
					<dim>108</dim>
					<dim>108</dim>
				</port>
			</output>
		</layer>
		<layer id="89" name="Reshape_1689" type="Const" version="opset1">
			<data element_type="f32" shape="1, 192, 1, 1" offset="193688" size="768"/>
			<output>
				<port id="0" precision="FP32">
					<dim>1</dim>
					<dim>192</dim>
					<dim>1</dim>
					<dim>1</dim>
				</port>
			</output>
		</layer>
		<layer id="90" name="1339" type="Add" version="opset1">
			<data auto_broadcast="numpy"/>
			<rt_info>
				<attribute name="fused_names" version="0" value="1339, Concat_1688, Reshape_1689"/>
			</rt_info>
			<input>
				<port id="0" precision="FP32">
					<dim>1</dim>
					<dim>192</dim>
					<dim>108</dim>
					<dim>108</dim>
				</port>
				<port id="1" precision="FP32">
					<dim>1</dim>
					<dim>192</dim>
					<dim>1</dim>
					<dim>1</dim>
				</port>
			</input>
			<output>
				<port id="2" precision="FP32" names="1339">
					<dim>1</dim>
					<dim>192</dim>
					<dim>108</dim>
					<dim>108</dim>
				</port>
			</output>
		</layer>
		<layer id="91" name="431" type="Clamp" version="opset1">
			<data min="0" max="6"/>
			<rt_info>
				<attribute name="fused_names" version="0" value="431, Maximum_1717"/>
			</rt_info>
			<input>
				<port id="0" precision="FP32">
					<dim>1</dim>
					<dim>192</dim>
					<dim>108</dim>
					<dim>108</dim>
				</port>
			</input>
			<output>
				<port id="1" precision="FP32" names="431">
					<dim>1</dim>
					<dim>192</dim>
					<dim>108</dim>
					<dim>108</dim>
				</port>
			</output>
		</layer>
		<layer id="92" name="1343" type="Const" version="opset1">
			<data element_type="f32" shape="32, 192, 1, 1" offset="194456" size="24576"/>
			<rt_info>
				<attribute name="fused_names" version="0" value="1343"/>
			</rt_info>
			<output>
				<port id="0" precision="FP32" names="1343">
					<dim>32</dim>
					<dim>192</dim>
					<dim>1</dim>
					<dim>1</dim>
				</port>
			</output>
		</layer>
		<layer id="93" name="Convolution_1719" type="Convolution" version="opset1">
			<data strides="1, 1" dilations="1, 1" pads_begin="0, 0" pads_end="0, 0" auto_pad="explicit"/>
			<rt_info>
				<attribute name="fused_names" version="0" value="Convolution_1719"/>
			</rt_info>
			<input>
				<port id="0" precision="FP32">
					<dim>1</dim>
					<dim>192</dim>
					<dim>108</dim>
					<dim>108</dim>
				</port>
				<port id="1" precision="FP32">
					<dim>32</dim>
					<dim>192</dim>
					<dim>1</dim>
					<dim>1</dim>
				</port>
			</input>
			<output>
				<port id="2" precision="FP32">
					<dim>1</dim>
					<dim>32</dim>
					<dim>108</dim>
					<dim>108</dim>
				</port>
			</output>
		</layer>
		<layer id="94" name="Reshape_1739" type="Const" version="opset1">
			<data element_type="f32" shape="1, 32, 1, 1" offset="219032" size="128"/>
			<output>
				<port id="0" precision="FP32">
					<dim>1</dim>
					<dim>32</dim>
					<dim>1</dim>
					<dim>1</dim>
				</port>
			</output>
		</layer>
		<layer id="95" name="1342" type="Add" version="opset1">
			<data auto_broadcast="numpy"/>
			<rt_info>
				<attribute name="fused_names" version="0" value="1342, Concat_1738, Reshape_1739"/>
			</rt_info>
			<input>
				<port id="0" precision="FP32">
					<dim>1</dim>
					<dim>32</dim>
					<dim>108</dim>
					<dim>108</dim>
				</port>
				<port id="1" precision="FP32">
					<dim>1</dim>
					<dim>32</dim>
					<dim>1</dim>
					<dim>1</dim>
				</port>
			</input>
			<output>
				<port id="2" precision="FP32" names="1342">
					<dim>1</dim>
					<dim>32</dim>
					<dim>108</dim>
					<dim>108</dim>
				</port>
			</output>
		</layer>
		<layer id="96" name="434" type="Add" version="opset1">
			<data auto_broadcast="numpy"/>
			<rt_info>
				<attribute name="fused_names" version="0" value="434"/>
			</rt_info>
			<input>
				<port id="0" precision="FP32">
					<dim>1</dim>
					<dim>32</dim>
					<dim>108</dim>
					<dim>108</dim>
				</port>
				<port id="1" precision="FP32">
					<dim>1</dim>
					<dim>32</dim>
					<dim>108</dim>
					<dim>108</dim>
				</port>
			</input>
			<output>
				<port id="2" precision="FP32" names="434">
					<dim>1</dim>
					<dim>32</dim>
					<dim>108</dim>
					<dim>108</dim>
				</port>
			</output>
		</layer>
		<layer id="97" name="1346" type="Const" version="opset1">
			<data element_type="f32" shape="192, 32, 1, 1" offset="219160" size="24576"/>
			<rt_info>
				<attribute name="fused_names" version="0" value="1346"/>
			</rt_info>
			<output>
				<port id="0" precision="FP32" names="1346">
					<dim>192</dim>
					<dim>32</dim>
					<dim>1</dim>
					<dim>1</dim>
				</port>
			</output>
		</layer>
		<layer id="98" name="Convolution_1768" type="Convolution" version="opset1">
			<data strides="1, 1" dilations="1, 1" pads_begin="0, 0" pads_end="0, 0" auto_pad="explicit"/>
			<rt_info>
				<attribute name="fused_names" version="0" value="Convolution_1768"/>
			</rt_info>
			<input>
				<port id="0" precision="FP32">
					<dim>1</dim>
					<dim>32</dim>
					<dim>108</dim>
					<dim>108</dim>
				</port>
				<port id="1" precision="FP32">
					<dim>192</dim>
					<dim>32</dim>
					<dim>1</dim>
					<dim>1</dim>
				</port>
			</input>
			<output>
				<port id="2" precision="FP32">
					<dim>1</dim>
					<dim>192</dim>
					<dim>108</dim>
					<dim>108</dim>
				</port>
			</output>
		</layer>
		<layer id="99" name="Reshape_1788" type="Const" version="opset1">
			<data element_type="f32" shape="1, 192, 1, 1" offset="243736" size="768"/>
			<output>
				<port id="0" precision="FP32">
					<dim>1</dim>
					<dim>192</dim>
					<dim>1</dim>
					<dim>1</dim>
				</port>
			</output>
		</layer>
		<layer id="100" name="1345" type="Add" version="opset1">
			<data auto_broadcast="numpy"/>
			<rt_info>
				<attribute name="fused_names" version="0" value="1345, Concat_1787, Reshape_1788"/>
			</rt_info>
			<input>
				<port id="0" precision="FP32">
					<dim>1</dim>
					<dim>192</dim>
					<dim>108</dim>
					<dim>108</dim>
				</port>
				<port id="1" precision="FP32">
					<dim>1</dim>
					<dim>192</dim>
					<dim>1</dim>
					<dim>1</dim>
				</port>
			</input>
			<output>
				<port id="2" precision="FP32" names="1345">
					<dim>1</dim>
					<dim>192</dim>
					<dim>108</dim>
					<dim>108</dim>
				</port>
			</output>
		</layer>
		<layer id="101" name="439" type="Clamp" version="opset1">
			<data min="0" max="6"/>
			<rt_info>
				<attribute name="fused_names" version="0" value="439, Maximum_1816"/>
			</rt_info>
			<input>
				<port id="0" precision="FP32">
					<dim>1</dim>
					<dim>192</dim>
					<dim>108</dim>
					<dim>108</dim>
				</port>
			</input>
			<output>
				<port id="1" precision="FP32" names="439">
					<dim>1</dim>
					<dim>192</dim>
					<dim>108</dim>
					<dim>108</dim>
				</port>
			</output>
		</layer>
		<layer id="102" name="Reshape_1825" type="Const" version="opset1">
			<data element_type="f32" shape="192, 1, 1, 3, 3" offset="244504" size="6912"/>
			<output>
				<port id="0" precision="FP32">
					<dim>192</dim>
					<dim>1</dim>
					<dim>1</dim>
					<dim>3</dim>
					<dim>3</dim>
				</port>
			</output>
		</layer>
		<layer id="103" name="GroupConvolution_1891" type="GroupConvolution" version="opset1">
			<data strides="2, 2" pads_begin="1, 1" pads_end="1, 1" dilations="1, 1" auto_pad="explicit"/>
			<rt_info>
				<attribute name="fused_names" version="0" value="GroupConvolution_1891, Reshape_1825"/>
			</rt_info>
			<input>
				<port id="0" precision="FP32">
					<dim>1</dim>
					<dim>192</dim>
					<dim>108</dim>
					<dim>108</dim>
				</port>
				<port id="1" precision="FP32">
					<dim>192</dim>
					<dim>1</dim>
					<dim>1</dim>
					<dim>3</dim>
					<dim>3</dim>
				</port>
			</input>
			<output>
				<port id="2" precision="FP32">
					<dim>1</dim>
					<dim>192</dim>
					<dim>54</dim>
					<dim>54</dim>
				</port>
			</output>
		</layer>
		<layer id="104" name="Reshape_1911" type="Const" version="opset1">
			<data element_type="f32" shape="1, 192, 1, 1" offset="251416" size="768"/>
			<output>
				<port id="0" precision="FP32">
					<dim>1</dim>
					<dim>192</dim>
					<dim>1</dim>
					<dim>1</dim>
				</port>
			</output>
		</layer>
		<layer id="105" name="1348" type="Add" version="opset1">
			<data auto_broadcast="numpy"/>
			<rt_info>
				<attribute name="fused_names" version="0" value="1348, Concat_1910, Reshape_1911"/>
			</rt_info>
			<input>
				<port id="0" precision="FP32">
					<dim>1</dim>
					<dim>192</dim>
					<dim>54</dim>
					<dim>54</dim>
				</port>
				<port id="1" precision="FP32">
					<dim>1</dim>
					<dim>192</dim>
					<dim>1</dim>
					<dim>1</dim>
				</port>
			</input>
			<output>
				<port id="2" precision="FP32" names="1348">
					<dim>1</dim>
					<dim>192</dim>
					<dim>54</dim>
					<dim>54</dim>
				</port>
			</output>
		</layer>
		<layer id="106" name="444" type="Clamp" version="opset1">
			<data min="0" max="6"/>
			<rt_info>
				<attribute name="fused_names" version="0" value="444, Maximum_1939"/>
			</rt_info>
			<input>
				<port id="0" precision="FP32">
					<dim>1</dim>
					<dim>192</dim>
					<dim>54</dim>
					<dim>54</dim>
				</port>
			</input>
			<output>
				<port id="1" precision="FP32" names="444">
					<dim>1</dim>
					<dim>192</dim>
					<dim>54</dim>
					<dim>54</dim>
				</port>
			</output>
		</layer>
		<layer id="107" name="1352" type="Const" version="opset1">
			<data element_type="f32" shape="64, 192, 1, 1" offset="252184" size="49152"/>
			<rt_info>
				<attribute name="fused_names" version="0" value="1352"/>
			</rt_info>
			<output>
				<port id="0" precision="FP32" names="1352">
					<dim>64</dim>
					<dim>192</dim>
					<dim>1</dim>
					<dim>1</dim>
				</port>
			</output>
		</layer>
		<layer id="108" name="Convolution_1941" type="Convolution" version="opset1">
			<data strides="1, 1" dilations="1, 1" pads_begin="0, 0" pads_end="0, 0" auto_pad="explicit"/>
			<rt_info>
				<attribute name="fused_names" version="0" value="Convolution_1941"/>
			</rt_info>
			<input>
				<port id="0" precision="FP32">
					<dim>1</dim>
					<dim>192</dim>
					<dim>54</dim>
					<dim>54</dim>
				</port>
				<port id="1" precision="FP32">
					<dim>64</dim>
					<dim>192</dim>
					<dim>1</dim>
					<dim>1</dim>
				</port>
			</input>
			<output>
				<port id="2" precision="FP32">
					<dim>1</dim>
					<dim>64</dim>
					<dim>54</dim>
					<dim>54</dim>
				</port>
			</output>
		</layer>
		<layer id="109" name="Reshape_1961" type="Const" version="opset1">
			<data element_type="f32" shape="1, 64, 1, 1" offset="301336" size="256"/>
			<output>
				<port id="0" precision="FP32">
					<dim>1</dim>
					<dim>64</dim>
					<dim>1</dim>
					<dim>1</dim>
				</port>
			</output>
		</layer>
		<layer id="110" name="1351" type="Add" version="opset1">
			<data auto_broadcast="numpy"/>
			<rt_info>
				<attribute name="fused_names" version="0" value="1351, Concat_1960, Reshape_1961"/>
			</rt_info>
			<input>
				<port id="0" precision="FP32">
					<dim>1</dim>
					<dim>64</dim>
					<dim>54</dim>
					<dim>54</dim>
				</port>
				<port id="1" precision="FP32">
					<dim>1</dim>
					<dim>64</dim>
					<dim>1</dim>
					<dim>1</dim>
				</port>
			</input>
			<output>
				<port id="2" precision="FP32" names="1351">
					<dim>1</dim>
					<dim>64</dim>
					<dim>54</dim>
					<dim>54</dim>
				</port>
			</output>
		</layer>
		<layer id="111" name="1355" type="Const" version="opset1">
			<data element_type="f32" shape="384, 64, 1, 1" offset="301592" size="98304"/>
			<rt_info>
				<attribute name="fused_names" version="0" value="1355"/>
			</rt_info>
			<output>
				<port id="0" precision="FP32" names="1355">
					<dim>384</dim>
					<dim>64</dim>
					<dim>1</dim>
					<dim>1</dim>
				</port>
			</output>
		</layer>
		<layer id="112" name="Convolution_1989" type="Convolution" version="opset1">
			<data strides="1, 1" dilations="1, 1" pads_begin="0, 0" pads_end="0, 0" auto_pad="explicit"/>
			<rt_info>
				<attribute name="fused_names" version="0" value="Convolution_1989"/>
			</rt_info>
			<input>
				<port id="0" precision="FP32">
					<dim>1</dim>
					<dim>64</dim>
					<dim>54</dim>
					<dim>54</dim>
				</port>
				<port id="1" precision="FP32">
					<dim>384</dim>
					<dim>64</dim>
					<dim>1</dim>
					<dim>1</dim>
				</port>
			</input>
			<output>
				<port id="2" precision="FP32">
					<dim>1</dim>
					<dim>384</dim>
					<dim>54</dim>
					<dim>54</dim>
				</port>
			</output>
		</layer>
		<layer id="113" name="Reshape_2009" type="Const" version="opset1">
			<data element_type="f32" shape="1, 384, 1, 1" offset="399896" size="1536"/>
			<output>
				<port id="0" precision="FP32">
					<dim>1</dim>
					<dim>384</dim>
					<dim>1</dim>
					<dim>1</dim>
				</port>
			</output>
		</layer>
		<layer id="114" name="1354" type="Add" version="opset1">
			<data auto_broadcast="numpy"/>
			<rt_info>
				<attribute name="fused_names" version="0" value="1354, Concat_2008, Reshape_2009"/>
			</rt_info>
			<input>
				<port id="0" precision="FP32">
					<dim>1</dim>
					<dim>384</dim>
					<dim>54</dim>
					<dim>54</dim>
				</port>
				<port id="1" precision="FP32">
					<dim>1</dim>
					<dim>384</dim>
					<dim>1</dim>
					<dim>1</dim>
				</port>
			</input>
			<output>
				<port id="2" precision="FP32" names="1354">
					<dim>1</dim>
					<dim>384</dim>
					<dim>54</dim>
					<dim>54</dim>
				</port>
			</output>
		</layer>
		<layer id="115" name="451" type="Clamp" version="opset1">
			<data min="0" max="6"/>
			<rt_info>
				<attribute name="fused_names" version="0" value="451, Maximum_2037"/>
			</rt_info>
			<input>
				<port id="0" precision="FP32">
					<dim>1</dim>
					<dim>384</dim>
					<dim>54</dim>
					<dim>54</dim>
				</port>
			</input>
			<output>
				<port id="1" precision="FP32" names="451">
					<dim>1</dim>
					<dim>384</dim>
					<dim>54</dim>
					<dim>54</dim>
				</port>
			</output>
		</layer>
		<layer id="116" name="Reshape_2046" type="Const" version="opset1">
			<data element_type="f32" shape="384, 1, 1, 3, 3" offset="401432" size="13824"/>
			<output>
				<port id="0" precision="FP32">
					<dim>384</dim>
					<dim>1</dim>
					<dim>1</dim>
					<dim>3</dim>
					<dim>3</dim>
				</port>
			</output>
		</layer>
		<layer id="117" name="GroupConvolution_2112" type="GroupConvolution" version="opset1">
			<data strides="1, 1" pads_begin="1, 1" pads_end="1, 1" dilations="1, 1" auto_pad="explicit"/>
			<rt_info>
				<attribute name="fused_names" version="0" value="GroupConvolution_2112, Reshape_2046"/>
			</rt_info>
			<input>
				<port id="0" precision="FP32">
					<dim>1</dim>
					<dim>384</dim>
					<dim>54</dim>
					<dim>54</dim>
				</port>
				<port id="1" precision="FP32">
					<dim>384</dim>
					<dim>1</dim>
					<dim>1</dim>
					<dim>3</dim>
					<dim>3</dim>
				</port>
			</input>
			<output>
				<port id="2" precision="FP32">
					<dim>1</dim>
					<dim>384</dim>
					<dim>54</dim>
					<dim>54</dim>
				</port>
			</output>
		</layer>
		<layer id="118" name="Reshape_2132" type="Const" version="opset1">
			<data element_type="f32" shape="1, 384, 1, 1" offset="415256" size="1536"/>
			<output>
				<port id="0" precision="FP32">
					<dim>1</dim>
					<dim>384</dim>
					<dim>1</dim>
					<dim>1</dim>
				</port>
			</output>
		</layer>
		<layer id="119" name="1357" type="Add" version="opset1">
			<data auto_broadcast="numpy"/>
			<rt_info>
				<attribute name="fused_names" version="0" value="1357, Concat_2131, Reshape_2132"/>
			</rt_info>
			<input>
				<port id="0" precision="FP32">
					<dim>1</dim>
					<dim>384</dim>
					<dim>54</dim>
					<dim>54</dim>
				</port>
				<port id="1" precision="FP32">
					<dim>1</dim>
					<dim>384</dim>
					<dim>1</dim>
					<dim>1</dim>
				</port>
			</input>
			<output>
				<port id="2" precision="FP32" names="1357">
					<dim>1</dim>
					<dim>384</dim>
					<dim>54</dim>
					<dim>54</dim>
				</port>
			</output>
		</layer>
		<layer id="120" name="456" type="Clamp" version="opset1">
			<data min="0" max="6"/>
			<rt_info>
				<attribute name="fused_names" version="0" value="456, Maximum_2160"/>
			</rt_info>
			<input>
				<port id="0" precision="FP32">
					<dim>1</dim>
					<dim>384</dim>
					<dim>54</dim>
					<dim>54</dim>
				</port>
			</input>
			<output>
				<port id="1" precision="FP32" names="456">
					<dim>1</dim>
					<dim>384</dim>
					<dim>54</dim>
					<dim>54</dim>
				</port>
			</output>
		</layer>
		<layer id="121" name="1361" type="Const" version="opset1">
			<data element_type="f32" shape="64, 384, 1, 1" offset="416792" size="98304"/>
			<rt_info>
				<attribute name="fused_names" version="0" value="1361"/>
			</rt_info>
			<output>
				<port id="0" precision="FP32" names="1361">
					<dim>64</dim>
					<dim>384</dim>
					<dim>1</dim>
					<dim>1</dim>
				</port>
			</output>
		</layer>
		<layer id="122" name="Convolution_2162" type="Convolution" version="opset1">
			<data strides="1, 1" dilations="1, 1" pads_begin="0, 0" pads_end="0, 0" auto_pad="explicit"/>
			<rt_info>
				<attribute name="fused_names" version="0" value="Convolution_2162"/>
			</rt_info>
			<input>
				<port id="0" precision="FP32">
					<dim>1</dim>
					<dim>384</dim>
					<dim>54</dim>
					<dim>54</dim>
				</port>
				<port id="1" precision="FP32">
					<dim>64</dim>
					<dim>384</dim>
					<dim>1</dim>
					<dim>1</dim>
				</port>
			</input>
			<output>
				<port id="2" precision="FP32">
					<dim>1</dim>
					<dim>64</dim>
					<dim>54</dim>
					<dim>54</dim>
				</port>
			</output>
		</layer>
		<layer id="123" name="Reshape_2182" type="Const" version="opset1">
			<data element_type="f32" shape="1, 64, 1, 1" offset="515096" size="256"/>
			<output>
				<port id="0" precision="FP32">
					<dim>1</dim>
					<dim>64</dim>
					<dim>1</dim>
					<dim>1</dim>
				</port>
			</output>
		</layer>
		<layer id="124" name="1360" type="Add" version="opset1">
			<data auto_broadcast="numpy"/>
			<rt_info>
				<attribute name="fused_names" version="0" value="1360, Concat_2181, Reshape_2182"/>
			</rt_info>
			<input>
				<port id="0" precision="FP32">
					<dim>1</dim>
					<dim>64</dim>
					<dim>54</dim>
					<dim>54</dim>
				</port>
				<port id="1" precision="FP32">
					<dim>1</dim>
					<dim>64</dim>
					<dim>1</dim>
					<dim>1</dim>
				</port>
			</input>
			<output>
				<port id="2" precision="FP32" names="1360">
					<dim>1</dim>
					<dim>64</dim>
					<dim>54</dim>
					<dim>54</dim>
				</port>
			</output>
		</layer>
		<layer id="125" name="459" type="Add" version="opset1">
			<data auto_broadcast="numpy"/>
			<rt_info>
				<attribute name="fused_names" version="0" value="459"/>
			</rt_info>
			<input>
				<port id="0" precision="FP32">
					<dim>1</dim>
					<dim>64</dim>
					<dim>54</dim>
					<dim>54</dim>
				</port>
				<port id="1" precision="FP32">
					<dim>1</dim>
					<dim>64</dim>
					<dim>54</dim>
					<dim>54</dim>
				</port>
			</input>
			<output>
				<port id="2" precision="FP32" names="459">
					<dim>1</dim>
					<dim>64</dim>
					<dim>54</dim>
					<dim>54</dim>
				</port>
			</output>
		</layer>
		<layer id="126" name="1364" type="Const" version="opset1">
			<data element_type="f32" shape="384, 64, 1, 1" offset="515352" size="98304"/>
			<rt_info>
				<attribute name="fused_names" version="0" value="1364"/>
			</rt_info>
			<output>
				<port id="0" precision="FP32" names="1364">
					<dim>384</dim>
					<dim>64</dim>
					<dim>1</dim>
					<dim>1</dim>
				</port>
			</output>
		</layer>
		<layer id="127" name="Convolution_2211" type="Convolution" version="opset1">
			<data strides="1, 1" dilations="1, 1" pads_begin="0, 0" pads_end="0, 0" auto_pad="explicit"/>
			<rt_info>
				<attribute name="fused_names" version="0" value="Convolution_2211"/>
			</rt_info>
			<input>
				<port id="0" precision="FP32">
					<dim>1</dim>
					<dim>64</dim>
					<dim>54</dim>
					<dim>54</dim>
				</port>
				<port id="1" precision="FP32">
					<dim>384</dim>
					<dim>64</dim>
					<dim>1</dim>
					<dim>1</dim>
				</port>
			</input>
			<output>
				<port id="2" precision="FP32">
					<dim>1</dim>
					<dim>384</dim>
					<dim>54</dim>
					<dim>54</dim>
				</port>
			</output>
		</layer>
		<layer id="128" name="Reshape_2231" type="Const" version="opset1">
			<data element_type="f32" shape="1, 384, 1, 1" offset="613656" size="1536"/>
			<output>
				<port id="0" precision="FP32">
					<dim>1</dim>
					<dim>384</dim>
					<dim>1</dim>
					<dim>1</dim>
				</port>
			</output>
		</layer>
		<layer id="129" name="1363" type="Add" version="opset1">
			<data auto_broadcast="numpy"/>
			<rt_info>
				<attribute name="fused_names" version="0" value="1363, Concat_2230, Reshape_2231"/>
			</rt_info>
			<input>
				<port id="0" precision="FP32">
					<dim>1</dim>
					<dim>384</dim>
					<dim>54</dim>
					<dim>54</dim>
				</port>
				<port id="1" precision="FP32">
					<dim>1</dim>
					<dim>384</dim>
					<dim>1</dim>
					<dim>1</dim>
				</port>
			</input>
			<output>
				<port id="2" precision="FP32" names="1363">
					<dim>1</dim>
					<dim>384</dim>
					<dim>54</dim>
					<dim>54</dim>
				</port>
			</output>
		</layer>
		<layer id="130" name="464" type="Clamp" version="opset1">
			<data min="0" max="6"/>
			<rt_info>
				<attribute name="fused_names" version="0" value="464, Maximum_2259"/>
			</rt_info>
			<input>
				<port id="0" precision="FP32">
					<dim>1</dim>
					<dim>384</dim>
					<dim>54</dim>
					<dim>54</dim>
				</port>
			</input>
			<output>
				<port id="1" precision="FP32" names="464">
					<dim>1</dim>
					<dim>384</dim>
					<dim>54</dim>
					<dim>54</dim>
				</port>
			</output>
		</layer>
		<layer id="131" name="Reshape_2268" type="Const" version="opset1">
			<data element_type="f32" shape="384, 1, 1, 3, 3" offset="615192" size="13824"/>
			<output>
				<port id="0" precision="FP32">
					<dim>384</dim>
					<dim>1</dim>
					<dim>1</dim>
					<dim>3</dim>
					<dim>3</dim>
				</port>
			</output>
		</layer>
		<layer id="132" name="GroupConvolution_2334" type="GroupConvolution" version="opset1">
			<data strides="1, 1" pads_begin="1, 1" pads_end="1, 1" dilations="1, 1" auto_pad="explicit"/>
			<rt_info>
				<attribute name="fused_names" version="0" value="GroupConvolution_2334, Reshape_2268"/>
			</rt_info>
			<input>
				<port id="0" precision="FP32">
					<dim>1</dim>
					<dim>384</dim>
					<dim>54</dim>
					<dim>54</dim>
				</port>
				<port id="1" precision="FP32">
					<dim>384</dim>
					<dim>1</dim>
					<dim>1</dim>
					<dim>3</dim>
					<dim>3</dim>
				</port>
			</input>
			<output>
				<port id="2" precision="FP32">
					<dim>1</dim>
					<dim>384</dim>
					<dim>54</dim>
					<dim>54</dim>
				</port>
			</output>
		</layer>
		<layer id="133" name="Reshape_2354" type="Const" version="opset1">
			<data element_type="f32" shape="1, 384, 1, 1" offset="629016" size="1536"/>
			<output>
				<port id="0" precision="FP32">
					<dim>1</dim>
					<dim>384</dim>
					<dim>1</dim>
					<dim>1</dim>
				</port>
			</output>
		</layer>
		<layer id="134" name="1366" type="Add" version="opset1">
			<data auto_broadcast="numpy"/>
			<rt_info>
				<attribute name="fused_names" version="0" value="1366, Concat_2353, Reshape_2354"/>
			</rt_info>
			<input>
				<port id="0" precision="FP32">
					<dim>1</dim>
					<dim>384</dim>
					<dim>54</dim>
					<dim>54</dim>
				</port>
				<port id="1" precision="FP32">
					<dim>1</dim>
					<dim>384</dim>
					<dim>1</dim>
					<dim>1</dim>
				</port>
			</input>
			<output>
				<port id="2" precision="FP32" names="1366">
					<dim>1</dim>
					<dim>384</dim>
					<dim>54</dim>
					<dim>54</dim>
				</port>
			</output>
		</layer>
		<layer id="135" name="469" type="Clamp" version="opset1">
			<data min="0" max="6"/>
			<rt_info>
				<attribute name="fused_names" version="0" value="469, Maximum_2382"/>
			</rt_info>
			<input>
				<port id="0" precision="FP32">
					<dim>1</dim>
					<dim>384</dim>
					<dim>54</dim>
					<dim>54</dim>
				</port>
			</input>
			<output>
				<port id="1" precision="FP32" names="469">
					<dim>1</dim>
					<dim>384</dim>
					<dim>54</dim>
					<dim>54</dim>
				</port>
			</output>
		</layer>
		<layer id="136" name="1370" type="Const" version="opset1">
			<data element_type="f32" shape="64, 384, 1, 1" offset="630552" size="98304"/>
			<rt_info>
				<attribute name="fused_names" version="0" value="1370"/>
			</rt_info>
			<output>
				<port id="0" precision="FP32" names="1370">
					<dim>64</dim>
					<dim>384</dim>
					<dim>1</dim>
					<dim>1</dim>
				</port>
			</output>
		</layer>
		<layer id="137" name="Convolution_2384" type="Convolution" version="opset1">
			<data strides="1, 1" dilations="1, 1" pads_begin="0, 0" pads_end="0, 0" auto_pad="explicit"/>
			<rt_info>
				<attribute name="fused_names" version="0" value="Convolution_2384"/>
			</rt_info>
			<input>
				<port id="0" precision="FP32">
					<dim>1</dim>
					<dim>384</dim>
					<dim>54</dim>
					<dim>54</dim>
				</port>
				<port id="1" precision="FP32">
					<dim>64</dim>
					<dim>384</dim>
					<dim>1</dim>
					<dim>1</dim>
				</port>
			</input>
			<output>
				<port id="2" precision="FP32">
					<dim>1</dim>
					<dim>64</dim>
					<dim>54</dim>
					<dim>54</dim>
				</port>
			</output>
		</layer>
		<layer id="138" name="Reshape_2404" type="Const" version="opset1">
			<data element_type="f32" shape="1, 64, 1, 1" offset="728856" size="256"/>
			<output>
				<port id="0" precision="FP32">
					<dim>1</dim>
					<dim>64</dim>
					<dim>1</dim>
					<dim>1</dim>
				</port>
			</output>
		</layer>
		<layer id="139" name="1369" type="Add" version="opset1">
			<data auto_broadcast="numpy"/>
			<rt_info>
				<attribute name="fused_names" version="0" value="1369, Concat_2403, Reshape_2404"/>
			</rt_info>
			<input>
				<port id="0" precision="FP32">
					<dim>1</dim>
					<dim>64</dim>
					<dim>54</dim>
					<dim>54</dim>
				</port>
				<port id="1" precision="FP32">
					<dim>1</dim>
					<dim>64</dim>
					<dim>1</dim>
					<dim>1</dim>
				</port>
			</input>
			<output>
				<port id="2" precision="FP32" names="1369">
					<dim>1</dim>
					<dim>64</dim>
					<dim>54</dim>
					<dim>54</dim>
				</port>
			</output>
		</layer>
		<layer id="140" name="472" type="Add" version="opset1">
			<data auto_broadcast="numpy"/>
			<rt_info>
				<attribute name="fused_names" version="0" value="472"/>
			</rt_info>
			<input>
				<port id="0" precision="FP32">
					<dim>1</dim>
					<dim>64</dim>
					<dim>54</dim>
					<dim>54</dim>
				</port>
				<port id="1" precision="FP32">
					<dim>1</dim>
					<dim>64</dim>
					<dim>54</dim>
					<dim>54</dim>
				</port>
			</input>
			<output>
				<port id="2" precision="FP32" names="472">
					<dim>1</dim>
					<dim>64</dim>
					<dim>54</dim>
					<dim>54</dim>
				</port>
			</output>
		</layer>
		<layer id="141" name="1373" type="Const" version="opset1">
			<data element_type="f32" shape="384, 64, 1, 1" offset="729112" size="98304"/>
			<rt_info>
				<attribute name="fused_names" version="0" value="1373"/>
			</rt_info>
			<output>
				<port id="0" precision="FP32" names="1373">
					<dim>384</dim>
					<dim>64</dim>
					<dim>1</dim>
					<dim>1</dim>
				</port>
			</output>
		</layer>
		<layer id="142" name="Convolution_2433" type="Convolution" version="opset1">
			<data strides="1, 1" dilations="1, 1" pads_begin="0, 0" pads_end="0, 0" auto_pad="explicit"/>
			<rt_info>
				<attribute name="fused_names" version="0" value="Convolution_2433"/>
			</rt_info>
			<input>
				<port id="0" precision="FP32">
					<dim>1</dim>
					<dim>64</dim>
					<dim>54</dim>
					<dim>54</dim>
				</port>
				<port id="1" precision="FP32">
					<dim>384</dim>
					<dim>64</dim>
					<dim>1</dim>
					<dim>1</dim>
				</port>
			</input>
			<output>
				<port id="2" precision="FP32">
					<dim>1</dim>
					<dim>384</dim>
					<dim>54</dim>
					<dim>54</dim>
				</port>
			</output>
		</layer>
		<layer id="143" name="Reshape_2453" type="Const" version="opset1">
			<data element_type="f32" shape="1, 384, 1, 1" offset="827416" size="1536"/>
			<output>
				<port id="0" precision="FP32">
					<dim>1</dim>
					<dim>384</dim>
					<dim>1</dim>
					<dim>1</dim>
				</port>
			</output>
		</layer>
		<layer id="144" name="1372" type="Add" version="opset1">
			<data auto_broadcast="numpy"/>
			<rt_info>
				<attribute name="fused_names" version="0" value="1372, Concat_2452, Reshape_2453"/>
			</rt_info>
			<input>
				<port id="0" precision="FP32">
					<dim>1</dim>
					<dim>384</dim>
					<dim>54</dim>
					<dim>54</dim>
				</port>
				<port id="1" precision="FP32">
					<dim>1</dim>
					<dim>384</dim>
					<dim>1</dim>
					<dim>1</dim>
				</port>
			</input>
			<output>
				<port id="2" precision="FP32" names="1372">
					<dim>1</dim>
					<dim>384</dim>
					<dim>54</dim>
					<dim>54</dim>
				</port>
			</output>
		</layer>
		<layer id="145" name="477" type="Clamp" version="opset1">
			<data min="0" max="6"/>
			<rt_info>
				<attribute name="fused_names" version="0" value="477, Maximum_2481"/>
			</rt_info>
			<input>
				<port id="0" precision="FP32">
					<dim>1</dim>
					<dim>384</dim>
					<dim>54</dim>
					<dim>54</dim>
				</port>
			</input>
			<output>
				<port id="1" precision="FP32" names="477">
					<dim>1</dim>
					<dim>384</dim>
					<dim>54</dim>
					<dim>54</dim>
				</port>
			</output>
		</layer>
		<layer id="146" name="Reshape_2490" type="Const" version="opset1">
			<data element_type="f32" shape="384, 1, 1, 3, 3" offset="828952" size="13824"/>
			<output>
				<port id="0" precision="FP32">
					<dim>384</dim>
					<dim>1</dim>
					<dim>1</dim>
					<dim>3</dim>
					<dim>3</dim>
				</port>
			</output>
		</layer>
		<layer id="147" name="GroupConvolution_2556" type="GroupConvolution" version="opset1">
			<data strides="1, 1" pads_begin="1, 1" pads_end="1, 1" dilations="1, 1" auto_pad="explicit"/>
			<rt_info>
				<attribute name="fused_names" version="0" value="GroupConvolution_2556, Reshape_2490"/>
			</rt_info>
			<input>
				<port id="0" precision="FP32">
					<dim>1</dim>
					<dim>384</dim>
					<dim>54</dim>
					<dim>54</dim>
				</port>
				<port id="1" precision="FP32">
					<dim>384</dim>
					<dim>1</dim>
					<dim>1</dim>
					<dim>3</dim>
					<dim>3</dim>
				</port>
			</input>
			<output>
				<port id="2" precision="FP32">
					<dim>1</dim>
					<dim>384</dim>
					<dim>54</dim>
					<dim>54</dim>
				</port>
			</output>
		</layer>
		<layer id="148" name="Reshape_2576" type="Const" version="opset1">
			<data element_type="f32" shape="1, 384, 1, 1" offset="842776" size="1536"/>
			<output>
				<port id="0" precision="FP32">
					<dim>1</dim>
					<dim>384</dim>
					<dim>1</dim>
					<dim>1</dim>
				</port>
			</output>
		</layer>
		<layer id="149" name="1375" type="Add" version="opset1">
			<data auto_broadcast="numpy"/>
			<rt_info>
				<attribute name="fused_names" version="0" value="1375, Concat_2575, Reshape_2576"/>
			</rt_info>
			<input>
				<port id="0" precision="FP32">
					<dim>1</dim>
					<dim>384</dim>
					<dim>54</dim>
					<dim>54</dim>
				</port>
				<port id="1" precision="FP32">
					<dim>1</dim>
					<dim>384</dim>
					<dim>1</dim>
					<dim>1</dim>
				</port>
			</input>
			<output>
				<port id="2" precision="FP32" names="1375">
					<dim>1</dim>
					<dim>384</dim>
					<dim>54</dim>
					<dim>54</dim>
				</port>
			</output>
		</layer>
		<layer id="150" name="482" type="Clamp" version="opset1">
			<data min="0" max="6"/>
			<rt_info>
				<attribute name="fused_names" version="0" value="482, Maximum_2604"/>
			</rt_info>
			<input>
				<port id="0" precision="FP32">
					<dim>1</dim>
					<dim>384</dim>
					<dim>54</dim>
					<dim>54</dim>
				</port>
			</input>
			<output>
				<port id="1" precision="FP32" names="482">
					<dim>1</dim>
					<dim>384</dim>
					<dim>54</dim>
					<dim>54</dim>
				</port>
			</output>
		</layer>
		<layer id="151" name="1379" type="Const" version="opset1">
			<data element_type="f32" shape="64, 384, 1, 1" offset="844312" size="98304"/>
			<rt_info>
				<attribute name="fused_names" version="0" value="1379"/>
			</rt_info>
			<output>
				<port id="0" precision="FP32" names="1379">
					<dim>64</dim>
					<dim>384</dim>
					<dim>1</dim>
					<dim>1</dim>
				</port>
			</output>
		</layer>
		<layer id="152" name="Convolution_2606" type="Convolution" version="opset1">
			<data strides="1, 1" dilations="1, 1" pads_begin="0, 0" pads_end="0, 0" auto_pad="explicit"/>
			<rt_info>
				<attribute name="fused_names" version="0" value="Convolution_2606"/>
			</rt_info>
			<input>
				<port id="0" precision="FP32">
					<dim>1</dim>
					<dim>384</dim>
					<dim>54</dim>
					<dim>54</dim>
				</port>
				<port id="1" precision="FP32">
					<dim>64</dim>
					<dim>384</dim>
					<dim>1</dim>
					<dim>1</dim>
				</port>
			</input>
			<output>
				<port id="2" precision="FP32">
					<dim>1</dim>
					<dim>64</dim>
					<dim>54</dim>
					<dim>54</dim>
				</port>
			</output>
		</layer>
		<layer id="153" name="Reshape_2626" type="Const" version="opset1">
			<data element_type="f32" shape="1, 64, 1, 1" offset="942616" size="256"/>
			<output>
				<port id="0" precision="FP32">
					<dim>1</dim>
					<dim>64</dim>
					<dim>1</dim>
					<dim>1</dim>
				</port>
			</output>
		</layer>
		<layer id="154" name="1378" type="Add" version="opset1">
			<data auto_broadcast="numpy"/>
			<rt_info>
				<attribute name="fused_names" version="0" value="1378, Concat_2625, Reshape_2626"/>
			</rt_info>
			<input>
				<port id="0" precision="FP32">
					<dim>1</dim>
					<dim>64</dim>
					<dim>54</dim>
					<dim>54</dim>
				</port>
				<port id="1" precision="FP32">
					<dim>1</dim>
					<dim>64</dim>
					<dim>1</dim>
					<dim>1</dim>
				</port>
			</input>
			<output>
				<port id="2" precision="FP32" names="1378">
					<dim>1</dim>
					<dim>64</dim>
					<dim>54</dim>
					<dim>54</dim>
				</port>
			</output>
		</layer>
		<layer id="155" name="485" type="Add" version="opset1">
			<data auto_broadcast="numpy"/>
			<rt_info>
				<attribute name="fused_names" version="0" value="485"/>
			</rt_info>
			<input>
				<port id="0" precision="FP32">
					<dim>1</dim>
					<dim>64</dim>
					<dim>54</dim>
					<dim>54</dim>
				</port>
				<port id="1" precision="FP32">
					<dim>1</dim>
					<dim>64</dim>
					<dim>54</dim>
					<dim>54</dim>
				</port>
			</input>
			<output>
				<port id="2" precision="FP32" names="485">
					<dim>1</dim>
					<dim>64</dim>
					<dim>54</dim>
					<dim>54</dim>
				</port>
			</output>
		</layer>
		<layer id="156" name="1382" type="Const" version="opset1">
			<data element_type="f32" shape="384, 64, 1, 1" offset="942872" size="98304"/>
			<rt_info>
				<attribute name="fused_names" version="0" value="1382"/>
			</rt_info>
			<output>
				<port id="0" precision="FP32" names="1382">
					<dim>384</dim>
					<dim>64</dim>
					<dim>1</dim>
					<dim>1</dim>
				</port>
			</output>
		</layer>
		<layer id="157" name="Convolution_2655" type="Convolution" version="opset1">
			<data strides="1, 1" dilations="1, 1" pads_begin="0, 0" pads_end="0, 0" auto_pad="explicit"/>
			<rt_info>
				<attribute name="fused_names" version="0" value="Convolution_2655"/>
			</rt_info>
			<input>
				<port id="0" precision="FP32">
					<dim>1</dim>
					<dim>64</dim>
					<dim>54</dim>
					<dim>54</dim>
				</port>
				<port id="1" precision="FP32">
					<dim>384</dim>
					<dim>64</dim>
					<dim>1</dim>
					<dim>1</dim>
				</port>
			</input>
			<output>
				<port id="2" precision="FP32">
					<dim>1</dim>
					<dim>384</dim>
					<dim>54</dim>
					<dim>54</dim>
				</port>
			</output>
		</layer>
		<layer id="158" name="Reshape_2675" type="Const" version="opset1">
			<data element_type="f32" shape="1, 384, 1, 1" offset="1041176" size="1536"/>
			<output>
				<port id="0" precision="FP32">
					<dim>1</dim>
					<dim>384</dim>
					<dim>1</dim>
					<dim>1</dim>
				</port>
			</output>
		</layer>
		<layer id="159" name="1381" type="Add" version="opset1">
			<data auto_broadcast="numpy"/>
			<rt_info>
				<attribute name="fused_names" version="0" value="1381, Concat_2674, Reshape_2675"/>
			</rt_info>
			<input>
				<port id="0" precision="FP32">
					<dim>1</dim>
					<dim>384</dim>
					<dim>54</dim>
					<dim>54</dim>
				</port>
				<port id="1" precision="FP32">
					<dim>1</dim>
					<dim>384</dim>
					<dim>1</dim>
					<dim>1</dim>
				</port>
			</input>
			<output>
				<port id="2" precision="FP32" names="1381">
					<dim>1</dim>
					<dim>384</dim>
					<dim>54</dim>
					<dim>54</dim>
				</port>
			</output>
		</layer>
		<layer id="160" name="490" type="Clamp" version="opset1">
			<data min="0" max="6"/>
			<rt_info>
				<attribute name="fused_names" version="0" value="490, Maximum_2703"/>
			</rt_info>
			<input>
				<port id="0" precision="FP32">
					<dim>1</dim>
					<dim>384</dim>
					<dim>54</dim>
					<dim>54</dim>
				</port>
			</input>
			<output>
				<port id="1" precision="FP32" names="490">
					<dim>1</dim>
					<dim>384</dim>
					<dim>54</dim>
					<dim>54</dim>
				</port>
			</output>
		</layer>
		<layer id="161" name="Reshape_2712" type="Const" version="opset1">
			<data element_type="f32" shape="384, 1, 1, 3, 3" offset="1042712" size="13824"/>
			<output>
				<port id="0" precision="FP32">
					<dim>384</dim>
					<dim>1</dim>
					<dim>1</dim>
					<dim>3</dim>
					<dim>3</dim>
				</port>
			</output>
		</layer>
		<layer id="162" name="GroupConvolution_2778" type="GroupConvolution" version="opset1">
			<data strides="1, 1" pads_begin="1, 1" pads_end="1, 1" dilations="1, 1" auto_pad="explicit"/>
			<rt_info>
				<attribute name="fused_names" version="0" value="GroupConvolution_2778, Reshape_2712"/>
			</rt_info>
			<input>
				<port id="0" precision="FP32">
					<dim>1</dim>
					<dim>384</dim>
					<dim>54</dim>
					<dim>54</dim>
				</port>
				<port id="1" precision="FP32">
					<dim>384</dim>
					<dim>1</dim>
					<dim>1</dim>
					<dim>3</dim>
					<dim>3</dim>
				</port>
			</input>
			<output>
				<port id="2" precision="FP32">
					<dim>1</dim>
					<dim>384</dim>
					<dim>54</dim>
					<dim>54</dim>
				</port>
			</output>
		</layer>
		<layer id="163" name="Reshape_2798" type="Const" version="opset1">
			<data element_type="f32" shape="1, 384, 1, 1" offset="1056536" size="1536"/>
			<output>
				<port id="0" precision="FP32">
					<dim>1</dim>
					<dim>384</dim>
					<dim>1</dim>
					<dim>1</dim>
				</port>
			</output>
		</layer>
		<layer id="164" name="1384" type="Add" version="opset1">
			<data auto_broadcast="numpy"/>
			<rt_info>
				<attribute name="fused_names" version="0" value="1384, Concat_2797, Reshape_2798"/>
			</rt_info>
			<input>
				<port id="0" precision="FP32">
					<dim>1</dim>
					<dim>384</dim>
					<dim>54</dim>
					<dim>54</dim>
				</port>
				<port id="1" precision="FP32">
					<dim>1</dim>
					<dim>384</dim>
					<dim>1</dim>
					<dim>1</dim>
				</port>
			</input>
			<output>
				<port id="2" precision="FP32" names="1384">
					<dim>1</dim>
					<dim>384</dim>
					<dim>54</dim>
					<dim>54</dim>
				</port>
			</output>
		</layer>
		<layer id="165" name="495" type="Clamp" version="opset1">
			<data min="0" max="6"/>
			<rt_info>
				<attribute name="fused_names" version="0" value="495, Maximum_2826"/>
			</rt_info>
			<input>
				<port id="0" precision="FP32">
					<dim>1</dim>
					<dim>384</dim>
					<dim>54</dim>
					<dim>54</dim>
				</port>
			</input>
			<output>
				<port id="1" precision="FP32" names="495">
					<dim>1</dim>
					<dim>384</dim>
					<dim>54</dim>
					<dim>54</dim>
				</port>
			</output>
		</layer>
		<layer id="166" name="1388" type="Const" version="opset1">
			<data element_type="f32" shape="96, 384, 1, 1" offset="1058072" size="147456"/>
			<rt_info>
				<attribute name="fused_names" version="0" value="1388"/>
			</rt_info>
			<output>
				<port id="0" precision="FP32" names="1388">
					<dim>96</dim>
					<dim>384</dim>
					<dim>1</dim>
					<dim>1</dim>
				</port>
			</output>
		</layer>
		<layer id="167" name="Convolution_2828" type="Convolution" version="opset1">
			<data strides="1, 1" dilations="1, 1" pads_begin="0, 0" pads_end="0, 0" auto_pad="explicit"/>
			<rt_info>
				<attribute name="fused_names" version="0" value="Convolution_2828"/>
			</rt_info>
			<input>
				<port id="0" precision="FP32">
					<dim>1</dim>
					<dim>384</dim>
					<dim>54</dim>
					<dim>54</dim>
				</port>
				<port id="1" precision="FP32">
					<dim>96</dim>
					<dim>384</dim>
					<dim>1</dim>
					<dim>1</dim>
				</port>
			</input>
			<output>
				<port id="2" precision="FP32">
					<dim>1</dim>
					<dim>96</dim>
					<dim>54</dim>
					<dim>54</dim>
				</port>
			</output>
		</layer>
		<layer id="168" name="Reshape_2848" type="Const" version="opset1">
			<data element_type="f32" shape="1, 96, 1, 1" offset="1205528" size="384"/>
			<output>
				<port id="0" precision="FP32">
					<dim>1</dim>
					<dim>96</dim>
					<dim>1</dim>
					<dim>1</dim>
				</port>
			</output>
		</layer>
		<layer id="169" name="1387" type="Add" version="opset1">
			<data auto_broadcast="numpy"/>
			<rt_info>
				<attribute name="fused_names" version="0" value="1387, Concat_2847, Reshape_2848"/>
			</rt_info>
			<input>
				<port id="0" precision="FP32">
					<dim>1</dim>
					<dim>96</dim>
					<dim>54</dim>
					<dim>54</dim>
				</port>
				<port id="1" precision="FP32">
					<dim>1</dim>
					<dim>96</dim>
					<dim>1</dim>
					<dim>1</dim>
				</port>
			</input>
			<output>
				<port id="2" precision="FP32" names="1387">
					<dim>1</dim>
					<dim>96</dim>
					<dim>54</dim>
					<dim>54</dim>
				</port>
			</output>
		</layer>
		<layer id="170" name="1391" type="Const" version="opset1">
			<data element_type="f32" shape="576, 96, 1, 1" offset="1205912" size="221184"/>
			<rt_info>
				<attribute name="fused_names" version="0" value="1391"/>
			</rt_info>
			<output>
				<port id="0" precision="FP32" names="1391">
					<dim>576</dim>
					<dim>96</dim>
					<dim>1</dim>
					<dim>1</dim>
				</port>
			</output>
		</layer>
		<layer id="171" name="Convolution_2876" type="Convolution" version="opset1">
			<data strides="1, 1" dilations="1, 1" pads_begin="0, 0" pads_end="0, 0" auto_pad="explicit"/>
			<rt_info>
				<attribute name="fused_names" version="0" value="Convolution_2876"/>
			</rt_info>
			<input>
				<port id="0" precision="FP32">
					<dim>1</dim>
					<dim>96</dim>
					<dim>54</dim>
					<dim>54</dim>
				</port>
				<port id="1" precision="FP32">
					<dim>576</dim>
					<dim>96</dim>
					<dim>1</dim>
					<dim>1</dim>
				</port>
			</input>
			<output>
				<port id="2" precision="FP32">
					<dim>1</dim>
					<dim>576</dim>
					<dim>54</dim>
					<dim>54</dim>
				</port>
			</output>
		</layer>
		<layer id="172" name="Reshape_2896" type="Const" version="opset1">
			<data element_type="f32" shape="1, 576, 1, 1" offset="1427096" size="2304"/>
			<output>
				<port id="0" precision="FP32">
					<dim>1</dim>
					<dim>576</dim>
					<dim>1</dim>
					<dim>1</dim>
				</port>
			</output>
		</layer>
		<layer id="173" name="1390" type="Add" version="opset1">
			<data auto_broadcast="numpy"/>
			<rt_info>
				<attribute name="fused_names" version="0" value="1390, Concat_2895, Reshape_2896"/>
			</rt_info>
			<input>
				<port id="0" precision="FP32">
					<dim>1</dim>
					<dim>576</dim>
					<dim>54</dim>
					<dim>54</dim>
				</port>
				<port id="1" precision="FP32">
					<dim>1</dim>
					<dim>576</dim>
					<dim>1</dim>
					<dim>1</dim>
				</port>
			</input>
			<output>
				<port id="2" precision="FP32" names="1390">
					<dim>1</dim>
					<dim>576</dim>
					<dim>54</dim>
					<dim>54</dim>
				</port>
			</output>
		</layer>
		<layer id="174" name="502" type="Clamp" version="opset1">
			<data min="0" max="6"/>
			<rt_info>
				<attribute name="fused_names" version="0" value="502, Maximum_2924"/>
			</rt_info>
			<input>
				<port id="0" precision="FP32">
					<dim>1</dim>
					<dim>576</dim>
					<dim>54</dim>
					<dim>54</dim>
				</port>
			</input>
			<output>
				<port id="1" precision="FP32" names="502">
					<dim>1</dim>
					<dim>576</dim>
					<dim>54</dim>
					<dim>54</dim>
				</port>
			</output>
		</layer>
		<layer id="175" name="Reshape_2933" type="Const" version="opset1">
			<data element_type="f32" shape="576, 1, 1, 3, 3" offset="1429400" size="20736"/>
			<output>
				<port id="0" precision="FP32">
					<dim>576</dim>
					<dim>1</dim>
					<dim>1</dim>
					<dim>3</dim>
					<dim>3</dim>
				</port>
			</output>
		</layer>
		<layer id="176" name="GroupConvolution_2999" type="GroupConvolution" version="opset1">
			<data strides="1, 1" pads_begin="1, 1" pads_end="1, 1" dilations="1, 1" auto_pad="explicit"/>
			<rt_info>
				<attribute name="fused_names" version="0" value="GroupConvolution_2999, Reshape_2933"/>
			</rt_info>
			<input>
				<port id="0" precision="FP32">
					<dim>1</dim>
					<dim>576</dim>
					<dim>54</dim>
					<dim>54</dim>
				</port>
				<port id="1" precision="FP32">
					<dim>576</dim>
					<dim>1</dim>
					<dim>1</dim>
					<dim>3</dim>
					<dim>3</dim>
				</port>
			</input>
			<output>
				<port id="2" precision="FP32">
					<dim>1</dim>
					<dim>576</dim>
					<dim>54</dim>
					<dim>54</dim>
				</port>
			</output>
		</layer>
		<layer id="177" name="Reshape_3019" type="Const" version="opset1">
			<data element_type="f32" shape="1, 576, 1, 1" offset="1450136" size="2304"/>
			<output>
				<port id="0" precision="FP32">
					<dim>1</dim>
					<dim>576</dim>
					<dim>1</dim>
					<dim>1</dim>
				</port>
			</output>
		</layer>
		<layer id="178" name="1393" type="Add" version="opset1">
			<data auto_broadcast="numpy"/>
			<rt_info>
				<attribute name="fused_names" version="0" value="1393, Concat_3018, Reshape_3019"/>
			</rt_info>
			<input>
				<port id="0" precision="FP32">
					<dim>1</dim>
					<dim>576</dim>
					<dim>54</dim>
					<dim>54</dim>
				</port>
				<port id="1" precision="FP32">
					<dim>1</dim>
					<dim>576</dim>
					<dim>1</dim>
					<dim>1</dim>
				</port>
			</input>
			<output>
				<port id="2" precision="FP32" names="1393">
					<dim>1</dim>
					<dim>576</dim>
					<dim>54</dim>
					<dim>54</dim>
				</port>
			</output>
		</layer>
		<layer id="179" name="507" type="Clamp" version="opset1">
			<data min="0" max="6"/>
			<rt_info>
				<attribute name="fused_names" version="0" value="507, Maximum_3047"/>
			</rt_info>
			<input>
				<port id="0" precision="FP32">
					<dim>1</dim>
					<dim>576</dim>
					<dim>54</dim>
					<dim>54</dim>
				</port>
			</input>
			<output>
				<port id="1" precision="FP32" names="507">
					<dim>1</dim>
					<dim>576</dim>
					<dim>54</dim>
					<dim>54</dim>
				</port>
			</output>
		</layer>
		<layer id="180" name="1397" type="Const" version="opset1">
			<data element_type="f32" shape="96, 576, 1, 1" offset="1452440" size="221184"/>
			<rt_info>
				<attribute name="fused_names" version="0" value="1397"/>
			</rt_info>
			<output>
				<port id="0" precision="FP32" names="1397">
					<dim>96</dim>
					<dim>576</dim>
					<dim>1</dim>
					<dim>1</dim>
				</port>
			</output>
		</layer>
		<layer id="181" name="Convolution_3049" type="Convolution" version="opset1">
			<data strides="1, 1" dilations="1, 1" pads_begin="0, 0" pads_end="0, 0" auto_pad="explicit"/>
			<rt_info>
				<attribute name="fused_names" version="0" value="Convolution_3049"/>
			</rt_info>
			<input>
				<port id="0" precision="FP32">
					<dim>1</dim>
					<dim>576</dim>
					<dim>54</dim>
					<dim>54</dim>
				</port>
				<port id="1" precision="FP32">
					<dim>96</dim>
					<dim>576</dim>
					<dim>1</dim>
					<dim>1</dim>
				</port>
			</input>
			<output>
				<port id="2" precision="FP32">
					<dim>1</dim>
					<dim>96</dim>
					<dim>54</dim>
					<dim>54</dim>
				</port>
			</output>
		</layer>
		<layer id="182" name="Reshape_3069" type="Const" version="opset1">
			<data element_type="f32" shape="1, 96, 1, 1" offset="1673624" size="384"/>
			<output>
				<port id="0" precision="FP32">
					<dim>1</dim>
					<dim>96</dim>
					<dim>1</dim>
					<dim>1</dim>
				</port>
			</output>
		</layer>
		<layer id="183" name="1396" type="Add" version="opset1">
			<data auto_broadcast="numpy"/>
			<rt_info>
				<attribute name="fused_names" version="0" value="1396, Concat_3068, Reshape_3069"/>
			</rt_info>
			<input>
				<port id="0" precision="FP32">
					<dim>1</dim>
					<dim>96</dim>
					<dim>54</dim>
					<dim>54</dim>
				</port>
				<port id="1" precision="FP32">
					<dim>1</dim>
					<dim>96</dim>
					<dim>1</dim>
					<dim>1</dim>
				</port>
			</input>
			<output>
				<port id="2" precision="FP32" names="1396">
					<dim>1</dim>
					<dim>96</dim>
					<dim>54</dim>
					<dim>54</dim>
				</port>
			</output>
		</layer>
		<layer id="184" name="510" type="Add" version="opset1">
			<data auto_broadcast="numpy"/>
			<rt_info>
				<attribute name="fused_names" version="0" value="510"/>
			</rt_info>
			<input>
				<port id="0" precision="FP32">
					<dim>1</dim>
					<dim>96</dim>
					<dim>54</dim>
					<dim>54</dim>
				</port>
				<port id="1" precision="FP32">
					<dim>1</dim>
					<dim>96</dim>
					<dim>54</dim>
					<dim>54</dim>
				</port>
			</input>
			<output>
				<port id="2" precision="FP32" names="510">
					<dim>1</dim>
					<dim>96</dim>
					<dim>54</dim>
					<dim>54</dim>
				</port>
			</output>
		</layer>
		<layer id="185" name="1400" type="Const" version="opset1">
			<data element_type="f32" shape="576, 96, 1, 1" offset="1674008" size="221184"/>
			<rt_info>
				<attribute name="fused_names" version="0" value="1400"/>
			</rt_info>
			<output>
				<port id="0" precision="FP32" names="1400">
					<dim>576</dim>
					<dim>96</dim>
					<dim>1</dim>
					<dim>1</dim>
				</port>
			</output>
		</layer>
		<layer id="186" name="Convolution_3098" type="Convolution" version="opset1">
			<data strides="1, 1" dilations="1, 1" pads_begin="0, 0" pads_end="0, 0" auto_pad="explicit"/>
			<rt_info>
				<attribute name="fused_names" version="0" value="Convolution_3098"/>
			</rt_info>
			<input>
				<port id="0" precision="FP32">
					<dim>1</dim>
					<dim>96</dim>
					<dim>54</dim>
					<dim>54</dim>
				</port>
				<port id="1" precision="FP32">
					<dim>576</dim>
					<dim>96</dim>
					<dim>1</dim>
					<dim>1</dim>
				</port>
			</input>
			<output>
				<port id="2" precision="FP32">
					<dim>1</dim>
					<dim>576</dim>
					<dim>54</dim>
					<dim>54</dim>
				</port>
			</output>
		</layer>
		<layer id="187" name="Reshape_3118" type="Const" version="opset1">
			<data element_type="f32" shape="1, 576, 1, 1" offset="1895192" size="2304"/>
			<output>
				<port id="0" precision="FP32">
					<dim>1</dim>
					<dim>576</dim>
					<dim>1</dim>
					<dim>1</dim>
				</port>
			</output>
		</layer>
		<layer id="188" name="1399" type="Add" version="opset1">
			<data auto_broadcast="numpy"/>
			<rt_info>
				<attribute name="fused_names" version="0" value="1399, Concat_3117, Reshape_3118"/>
			</rt_info>
			<input>
				<port id="0" precision="FP32">
					<dim>1</dim>
					<dim>576</dim>
					<dim>54</dim>
					<dim>54</dim>
				</port>
				<port id="1" precision="FP32">
					<dim>1</dim>
					<dim>576</dim>
					<dim>1</dim>
					<dim>1</dim>
				</port>
			</input>
			<output>
				<port id="2" precision="FP32" names="1399">
					<dim>1</dim>
					<dim>576</dim>
					<dim>54</dim>
					<dim>54</dim>
				</port>
			</output>
		</layer>
		<layer id="189" name="515" type="Clamp" version="opset1">
			<data min="0" max="6"/>
			<rt_info>
				<attribute name="fused_names" version="0" value="515, Maximum_3146"/>
			</rt_info>
			<input>
				<port id="0" precision="FP32">
					<dim>1</dim>
					<dim>576</dim>
					<dim>54</dim>
					<dim>54</dim>
				</port>
			</input>
			<output>
				<port id="1" precision="FP32" names="515">
					<dim>1</dim>
					<dim>576</dim>
					<dim>54</dim>
					<dim>54</dim>
				</port>
			</output>
		</layer>
		<layer id="190" name="Reshape_3155" type="Const" version="opset1">
			<data element_type="f32" shape="576, 1, 1, 3, 3" offset="1897496" size="20736"/>
			<output>
				<port id="0" precision="FP32">
					<dim>576</dim>
					<dim>1</dim>
					<dim>1</dim>
					<dim>3</dim>
					<dim>3</dim>
				</port>
			</output>
		</layer>
		<layer id="191" name="GroupConvolution_3221" type="GroupConvolution" version="opset1">
			<data strides="1, 1" pads_begin="1, 1" pads_end="1, 1" dilations="1, 1" auto_pad="explicit"/>
			<rt_info>
				<attribute name="fused_names" version="0" value="GroupConvolution_3221, Reshape_3155"/>
			</rt_info>
			<input>
				<port id="0" precision="FP32">
					<dim>1</dim>
					<dim>576</dim>
					<dim>54</dim>
					<dim>54</dim>
				</port>
				<port id="1" precision="FP32">
					<dim>576</dim>
					<dim>1</dim>
					<dim>1</dim>
					<dim>3</dim>
					<dim>3</dim>
				</port>
			</input>
			<output>
				<port id="2" precision="FP32">
					<dim>1</dim>
					<dim>576</dim>
					<dim>54</dim>
					<dim>54</dim>
				</port>
			</output>
		</layer>
		<layer id="192" name="Reshape_3241" type="Const" version="opset1">
			<data element_type="f32" shape="1, 576, 1, 1" offset="1918232" size="2304"/>
			<output>
				<port id="0" precision="FP32">
					<dim>1</dim>
					<dim>576</dim>
					<dim>1</dim>
					<dim>1</dim>
				</port>
			</output>
		</layer>
		<layer id="193" name="1402" type="Add" version="opset1">
			<data auto_broadcast="numpy"/>
			<rt_info>
				<attribute name="fused_names" version="0" value="1402, Concat_3240, Reshape_3241"/>
			</rt_info>
			<input>
				<port id="0" precision="FP32">
					<dim>1</dim>
					<dim>576</dim>
					<dim>54</dim>
					<dim>54</dim>
				</port>
				<port id="1" precision="FP32">
					<dim>1</dim>
					<dim>576</dim>
					<dim>1</dim>
					<dim>1</dim>
				</port>
			</input>
			<output>
				<port id="2" precision="FP32" names="1402">
					<dim>1</dim>
					<dim>576</dim>
					<dim>54</dim>
					<dim>54</dim>
				</port>
			</output>
		</layer>
		<layer id="194" name="520" type="Clamp" version="opset1">
			<data min="0" max="6"/>
			<rt_info>
				<attribute name="fused_names" version="0" value="520, Maximum_3269"/>
			</rt_info>
			<input>
				<port id="0" precision="FP32">
					<dim>1</dim>
					<dim>576</dim>
					<dim>54</dim>
					<dim>54</dim>
				</port>
			</input>
			<output>
				<port id="1" precision="FP32" names="520">
					<dim>1</dim>
					<dim>576</dim>
					<dim>54</dim>
					<dim>54</dim>
				</port>
			</output>
		</layer>
		<layer id="195" name="1406" type="Const" version="opset1">
			<data element_type="f32" shape="96, 576, 1, 1" offset="1920536" size="221184"/>
			<rt_info>
				<attribute name="fused_names" version="0" value="1406"/>
			</rt_info>
			<output>
				<port id="0" precision="FP32" names="1406">
					<dim>96</dim>
					<dim>576</dim>
					<dim>1</dim>
					<dim>1</dim>
				</port>
			</output>
		</layer>
		<layer id="196" name="Convolution_3271" type="Convolution" version="opset1">
			<data strides="1, 1" dilations="1, 1" pads_begin="0, 0" pads_end="0, 0" auto_pad="explicit"/>
			<rt_info>
				<attribute name="fused_names" version="0" value="Convolution_3271"/>
			</rt_info>
			<input>
				<port id="0" precision="FP32">
					<dim>1</dim>
					<dim>576</dim>
					<dim>54</dim>
					<dim>54</dim>
				</port>
				<port id="1" precision="FP32">
					<dim>96</dim>
					<dim>576</dim>
					<dim>1</dim>
					<dim>1</dim>
				</port>
			</input>
			<output>
				<port id="2" precision="FP32">
					<dim>1</dim>
					<dim>96</dim>
					<dim>54</dim>
					<dim>54</dim>
				</port>
			</output>
		</layer>
		<layer id="197" name="Reshape_3291" type="Const" version="opset1">
			<data element_type="f32" shape="1, 96, 1, 1" offset="2141720" size="384"/>
			<output>
				<port id="0" precision="FP32">
					<dim>1</dim>
					<dim>96</dim>
					<dim>1</dim>
					<dim>1</dim>
				</port>
			</output>
		</layer>
		<layer id="198" name="1405" type="Add" version="opset1">
			<data auto_broadcast="numpy"/>
			<rt_info>
				<attribute name="fused_names" version="0" value="1405, Concat_3290, Reshape_3291"/>
			</rt_info>
			<input>
				<port id="0" precision="FP32">
					<dim>1</dim>
					<dim>96</dim>
					<dim>54</dim>
					<dim>54</dim>
				</port>
				<port id="1" precision="FP32">
					<dim>1</dim>
					<dim>96</dim>
					<dim>1</dim>
					<dim>1</dim>
				</port>
			</input>
			<output>
				<port id="2" precision="FP32" names="1405">
					<dim>1</dim>
					<dim>96</dim>
					<dim>54</dim>
					<dim>54</dim>
				</port>
			</output>
		</layer>
		<layer id="199" name="523" type="Add" version="opset1">
			<data auto_broadcast="numpy"/>
			<rt_info>
				<attribute name="fused_names" version="0" value="523"/>
			</rt_info>
			<input>
				<port id="0" precision="FP32">
					<dim>1</dim>
					<dim>96</dim>
					<dim>54</dim>
					<dim>54</dim>
				</port>
				<port id="1" precision="FP32">
					<dim>1</dim>
					<dim>96</dim>
					<dim>54</dim>
					<dim>54</dim>
				</port>
			</input>
			<output>
				<port id="2" precision="FP32" names="523">
					<dim>1</dim>
					<dim>96</dim>
					<dim>54</dim>
					<dim>54</dim>
				</port>
			</output>
		</layer>
		<layer id="200" name="1409" type="Const" version="opset1">
			<data element_type="f32" shape="576, 96, 1, 1" offset="2142104" size="221184"/>
			<rt_info>
				<attribute name="fused_names" version="0" value="1409"/>
			</rt_info>
			<output>
				<port id="0" precision="FP32" names="1409">
					<dim>576</dim>
					<dim>96</dim>
					<dim>1</dim>
					<dim>1</dim>
				</port>
			</output>
		</layer>
		<layer id="201" name="Convolution_3320" type="Convolution" version="opset1">
			<data strides="1, 1" dilations="1, 1" pads_begin="0, 0" pads_end="0, 0" auto_pad="explicit"/>
			<rt_info>
				<attribute name="fused_names" version="0" value="Convolution_3320"/>
			</rt_info>
			<input>
				<port id="0" precision="FP32">
					<dim>1</dim>
					<dim>96</dim>
					<dim>54</dim>
					<dim>54</dim>
				</port>
				<port id="1" precision="FP32">
					<dim>576</dim>
					<dim>96</dim>
					<dim>1</dim>
					<dim>1</dim>
				</port>
			</input>
			<output>
				<port id="2" precision="FP32">
					<dim>1</dim>
					<dim>576</dim>
					<dim>54</dim>
					<dim>54</dim>
				</port>
			</output>
		</layer>
		<layer id="202" name="Reshape_3340" type="Const" version="opset1">
			<data element_type="f32" shape="1, 576, 1, 1" offset="2363288" size="2304"/>
			<output>
				<port id="0" precision="FP32">
					<dim>1</dim>
					<dim>576</dim>
					<dim>1</dim>
					<dim>1</dim>
				</port>
			</output>
		</layer>
		<layer id="203" name="1408" type="Add" version="opset1">
			<data auto_broadcast="numpy"/>
			<rt_info>
				<attribute name="fused_names" version="0" value="1408, Concat_3339, Reshape_3340"/>
			</rt_info>
			<input>
				<port id="0" precision="FP32">
					<dim>1</dim>
					<dim>576</dim>
					<dim>54</dim>
					<dim>54</dim>
				</port>
				<port id="1" precision="FP32">
					<dim>1</dim>
					<dim>576</dim>
					<dim>1</dim>
					<dim>1</dim>
				</port>
			</input>
			<output>
				<port id="2" precision="FP32" names="1408">
					<dim>1</dim>
					<dim>576</dim>
					<dim>54</dim>
					<dim>54</dim>
				</port>
			</output>
		</layer>
		<layer id="204" name="528" type="Clamp" version="opset1">
			<data min="0" max="6"/>
			<rt_info>
				<attribute name="fused_names" version="0" value="528, Maximum_3368"/>
			</rt_info>
			<input>
				<port id="0" precision="FP32">
					<dim>1</dim>
					<dim>576</dim>
					<dim>54</dim>
					<dim>54</dim>
				</port>
			</input>
			<output>
				<port id="1" precision="FP32" names="528">
					<dim>1</dim>
					<dim>576</dim>
					<dim>54</dim>
					<dim>54</dim>
				</port>
			</output>
		</layer>
		<layer id="205" name="Reshape_3377" type="Const" version="opset1">
			<data element_type="f32" shape="576, 1, 1, 3, 3" offset="2365592" size="20736"/>
			<output>
				<port id="0" precision="FP32">
					<dim>576</dim>
					<dim>1</dim>
					<dim>1</dim>
					<dim>3</dim>
					<dim>3</dim>
				</port>
			</output>
		</layer>
		<layer id="206" name="GroupConvolution_3443" type="GroupConvolution" version="opset1">
			<data strides="2, 2" pads_begin="1, 1" pads_end="1, 1" dilations="1, 1" auto_pad="explicit"/>
			<rt_info>
				<attribute name="fused_names" version="0" value="GroupConvolution_3443, Reshape_3377"/>
			</rt_info>
			<input>
				<port id="0" precision="FP32">
					<dim>1</dim>
					<dim>576</dim>
					<dim>54</dim>
					<dim>54</dim>
				</port>
				<port id="1" precision="FP32">
					<dim>576</dim>
					<dim>1</dim>
					<dim>1</dim>
					<dim>3</dim>
					<dim>3</dim>
				</port>
			</input>
			<output>
				<port id="2" precision="FP32">
					<dim>1</dim>
					<dim>576</dim>
					<dim>27</dim>
					<dim>27</dim>
				</port>
			</output>
		</layer>
		<layer id="207" name="Reshape_3463" type="Const" version="opset1">
			<data element_type="f32" shape="1, 576, 1, 1" offset="2386328" size="2304"/>
			<output>
				<port id="0" precision="FP32">
					<dim>1</dim>
					<dim>576</dim>
					<dim>1</dim>
					<dim>1</dim>
				</port>
			</output>
		</layer>
		<layer id="208" name="1411" type="Add" version="opset1">
			<data auto_broadcast="numpy"/>
			<rt_info>
				<attribute name="fused_names" version="0" value="1411, Concat_3462, Reshape_3463"/>
			</rt_info>
			<input>
				<port id="0" precision="FP32">
					<dim>1</dim>
					<dim>576</dim>
					<dim>27</dim>
					<dim>27</dim>
				</port>
				<port id="1" precision="FP32">
					<dim>1</dim>
					<dim>576</dim>
					<dim>1</dim>
					<dim>1</dim>
				</port>
			</input>
			<output>
				<port id="2" precision="FP32" names="1411">
					<dim>1</dim>
					<dim>576</dim>
					<dim>27</dim>
					<dim>27</dim>
				</port>
			</output>
		</layer>
		<layer id="209" name="533" type="Clamp" version="opset1">
			<data min="0" max="6"/>
			<rt_info>
				<attribute name="fused_names" version="0" value="533, Maximum_3491"/>
			</rt_info>
			<input>
				<port id="0" precision="FP32">
					<dim>1</dim>
					<dim>576</dim>
					<dim>27</dim>
					<dim>27</dim>
				</port>
			</input>
			<output>
				<port id="1" precision="FP32" names="533">
					<dim>1</dim>
					<dim>576</dim>
					<dim>27</dim>
					<dim>27</dim>
				</port>
			</output>
		</layer>
		<layer id="210" name="1415" type="Const" version="opset1">
			<data element_type="f32" shape="160, 576, 1, 1" offset="2388632" size="368640"/>
			<rt_info>
				<attribute name="fused_names" version="0" value="1415"/>
			</rt_info>
			<output>
				<port id="0" precision="FP32" names="1415">
					<dim>160</dim>
					<dim>576</dim>
					<dim>1</dim>
					<dim>1</dim>
				</port>
			</output>
		</layer>
		<layer id="211" name="Convolution_3493" type="Convolution" version="opset1">
			<data strides="1, 1" dilations="1, 1" pads_begin="0, 0" pads_end="0, 0" auto_pad="explicit"/>
			<rt_info>
				<attribute name="fused_names" version="0" value="Convolution_3493"/>
			</rt_info>
			<input>
				<port id="0" precision="FP32">
					<dim>1</dim>
					<dim>576</dim>
					<dim>27</dim>
					<dim>27</dim>
				</port>
				<port id="1" precision="FP32">
					<dim>160</dim>
					<dim>576</dim>
					<dim>1</dim>
					<dim>1</dim>
				</port>
			</input>
			<output>
				<port id="2" precision="FP32">
					<dim>1</dim>
					<dim>160</dim>
					<dim>27</dim>
					<dim>27</dim>
				</port>
			</output>
		</layer>
		<layer id="212" name="Reshape_3513" type="Const" version="opset1">
			<data element_type="f32" shape="1, 160, 1, 1" offset="2757272" size="640"/>
			<output>
				<port id="0" precision="FP32">
					<dim>1</dim>
					<dim>160</dim>
					<dim>1</dim>
					<dim>1</dim>
				</port>
			</output>
		</layer>
		<layer id="213" name="1414" type="Add" version="opset1">
			<data auto_broadcast="numpy"/>
			<rt_info>
				<attribute name="fused_names" version="0" value="1414, Concat_3512, Reshape_3513"/>
			</rt_info>
			<input>
				<port id="0" precision="FP32">
					<dim>1</dim>
					<dim>160</dim>
					<dim>27</dim>
					<dim>27</dim>
				</port>
				<port id="1" precision="FP32">
					<dim>1</dim>
					<dim>160</dim>
					<dim>1</dim>
					<dim>1</dim>
				</port>
			</input>
			<output>
				<port id="2" precision="FP32" names="1414">
					<dim>1</dim>
					<dim>160</dim>
					<dim>27</dim>
					<dim>27</dim>
				</port>
			</output>
		</layer>
		<layer id="214" name="1418" type="Const" version="opset1">
			<data element_type="f32" shape="960, 160, 1, 1" offset="2757912" size="614400"/>
			<rt_info>
				<attribute name="fused_names" version="0" value="1418"/>
			</rt_info>
			<output>
				<port id="0" precision="FP32" names="1418">
					<dim>960</dim>
					<dim>160</dim>
					<dim>1</dim>
					<dim>1</dim>
				</port>
			</output>
		</layer>
		<layer id="215" name="Convolution_3541" type="Convolution" version="opset1">
			<data strides="1, 1" dilations="1, 1" pads_begin="0, 0" pads_end="0, 0" auto_pad="explicit"/>
			<rt_info>
				<attribute name="fused_names" version="0" value="Convolution_3541"/>
			</rt_info>
			<input>
				<port id="0" precision="FP32">
					<dim>1</dim>
					<dim>160</dim>
					<dim>27</dim>
					<dim>27</dim>
				</port>
				<port id="1" precision="FP32">
					<dim>960</dim>
					<dim>160</dim>
					<dim>1</dim>
					<dim>1</dim>
				</port>
			</input>
			<output>
				<port id="2" precision="FP32">
					<dim>1</dim>
					<dim>960</dim>
					<dim>27</dim>
					<dim>27</dim>
				</port>
			</output>
		</layer>
		<layer id="216" name="Reshape_3561" type="Const" version="opset1">
			<data element_type="f32" shape="1, 960, 1, 1" offset="3372312" size="3840"/>
			<output>
				<port id="0" precision="FP32">
					<dim>1</dim>
					<dim>960</dim>
					<dim>1</dim>
					<dim>1</dim>
				</port>
			</output>
		</layer>
		<layer id="217" name="1417" type="Add" version="opset1">
			<data auto_broadcast="numpy"/>
			<rt_info>
				<attribute name="fused_names" version="0" value="1417, Concat_3560, Reshape_3561"/>
			</rt_info>
			<input>
				<port id="0" precision="FP32">
					<dim>1</dim>
					<dim>960</dim>
					<dim>27</dim>
					<dim>27</dim>
				</port>
				<port id="1" precision="FP32">
					<dim>1</dim>
					<dim>960</dim>
					<dim>1</dim>
					<dim>1</dim>
				</port>
			</input>
			<output>
				<port id="2" precision="FP32" names="1417">
					<dim>1</dim>
					<dim>960</dim>
					<dim>27</dim>
					<dim>27</dim>
				</port>
			</output>
		</layer>
		<layer id="218" name="540" type="Clamp" version="opset1">
			<data min="0" max="6"/>
			<rt_info>
				<attribute name="fused_names" version="0" value="540, Maximum_3589"/>
			</rt_info>
			<input>
				<port id="0" precision="FP32">
					<dim>1</dim>
					<dim>960</dim>
					<dim>27</dim>
					<dim>27</dim>
				</port>
			</input>
			<output>
				<port id="1" precision="FP32" names="540">
					<dim>1</dim>
					<dim>960</dim>
					<dim>27</dim>
					<dim>27</dim>
				</port>
			</output>
		</layer>
		<layer id="219" name="Reshape_3598" type="Const" version="opset1">
			<data element_type="f32" shape="960, 1, 1, 3, 3" offset="3376152" size="34560"/>
			<output>
				<port id="0" precision="FP32">
					<dim>960</dim>
					<dim>1</dim>
					<dim>1</dim>
					<dim>3</dim>
					<dim>3</dim>
				</port>
			</output>
		</layer>
		<layer id="220" name="GroupConvolution_3664" type="GroupConvolution" version="opset1">
			<data strides="1, 1" pads_begin="1, 1" pads_end="1, 1" dilations="1, 1" auto_pad="explicit"/>
			<rt_info>
				<attribute name="fused_names" version="0" value="GroupConvolution_3664, Reshape_3598"/>
			</rt_info>
			<input>
				<port id="0" precision="FP32">
					<dim>1</dim>
					<dim>960</dim>
					<dim>27</dim>
					<dim>27</dim>
				</port>
				<port id="1" precision="FP32">
					<dim>960</dim>
					<dim>1</dim>
					<dim>1</dim>
					<dim>3</dim>
					<dim>3</dim>
				</port>
			</input>
			<output>
				<port id="2" precision="FP32">
					<dim>1</dim>
					<dim>960</dim>
					<dim>27</dim>
					<dim>27</dim>
				</port>
			</output>
		</layer>
		<layer id="221" name="Reshape_3684" type="Const" version="opset1">
			<data element_type="f32" shape="1, 960, 1, 1" offset="3410712" size="3840"/>
			<output>
				<port id="0" precision="FP32">
					<dim>1</dim>
					<dim>960</dim>
					<dim>1</dim>
					<dim>1</dim>
				</port>
			</output>
		</layer>
		<layer id="222" name="1420" type="Add" version="opset1">
			<data auto_broadcast="numpy"/>
			<rt_info>
				<attribute name="fused_names" version="0" value="1420, Concat_3683, Reshape_3684"/>
			</rt_info>
			<input>
				<port id="0" precision="FP32">
					<dim>1</dim>
					<dim>960</dim>
					<dim>27</dim>
					<dim>27</dim>
				</port>
				<port id="1" precision="FP32">
					<dim>1</dim>
					<dim>960</dim>
					<dim>1</dim>
					<dim>1</dim>
				</port>
			</input>
			<output>
				<port id="2" precision="FP32" names="1420">
					<dim>1</dim>
					<dim>960</dim>
					<dim>27</dim>
					<dim>27</dim>
				</port>
			</output>
		</layer>
		<layer id="223" name="545" type="Clamp" version="opset1">
			<data min="0" max="6"/>
			<rt_info>
				<attribute name="fused_names" version="0" value="545, Maximum_3712"/>
			</rt_info>
			<input>
				<port id="0" precision="FP32">
					<dim>1</dim>
					<dim>960</dim>
					<dim>27</dim>
					<dim>27</dim>
				</port>
			</input>
			<output>
				<port id="1" precision="FP32" names="545">
					<dim>1</dim>
					<dim>960</dim>
					<dim>27</dim>
					<dim>27</dim>
				</port>
			</output>
		</layer>
		<layer id="224" name="1424" type="Const" version="opset1">
			<data element_type="f32" shape="160, 960, 1, 1" offset="3414552" size="614400"/>
			<rt_info>
				<attribute name="fused_names" version="0" value="1424"/>
			</rt_info>
			<output>
				<port id="0" precision="FP32" names="1424">
					<dim>160</dim>
					<dim>960</dim>
					<dim>1</dim>
					<dim>1</dim>
				</port>
			</output>
		</layer>
		<layer id="225" name="Convolution_3714" type="Convolution" version="opset1">
			<data strides="1, 1" dilations="1, 1" pads_begin="0, 0" pads_end="0, 0" auto_pad="explicit"/>
			<rt_info>
				<attribute name="fused_names" version="0" value="Convolution_3714"/>
			</rt_info>
			<input>
				<port id="0" precision="FP32">
					<dim>1</dim>
					<dim>960</dim>
					<dim>27</dim>
					<dim>27</dim>
				</port>
				<port id="1" precision="FP32">
					<dim>160</dim>
					<dim>960</dim>
					<dim>1</dim>
					<dim>1</dim>
				</port>
			</input>
			<output>
				<port id="2" precision="FP32">
					<dim>1</dim>
					<dim>160</dim>
					<dim>27</dim>
					<dim>27</dim>
				</port>
			</output>
		</layer>
		<layer id="226" name="Reshape_3734" type="Const" version="opset1">
			<data element_type="f32" shape="1, 160, 1, 1" offset="4028952" size="640"/>
			<output>
				<port id="0" precision="FP32">
					<dim>1</dim>
					<dim>160</dim>
					<dim>1</dim>
					<dim>1</dim>
				</port>
			</output>
		</layer>
		<layer id="227" name="1423" type="Add" version="opset1">
			<data auto_broadcast="numpy"/>
			<rt_info>
				<attribute name="fused_names" version="0" value="1423, Concat_3733, Reshape_3734"/>
			</rt_info>
			<input>
				<port id="0" precision="FP32">
					<dim>1</dim>
					<dim>160</dim>
					<dim>27</dim>
					<dim>27</dim>
				</port>
				<port id="1" precision="FP32">
					<dim>1</dim>
					<dim>160</dim>
					<dim>1</dim>
					<dim>1</dim>
				</port>
			</input>
			<output>
				<port id="2" precision="FP32" names="1423">
					<dim>1</dim>
					<dim>160</dim>
					<dim>27</dim>
					<dim>27</dim>
				</port>
			</output>
		</layer>
		<layer id="228" name="548" type="Add" version="opset1">
			<data auto_broadcast="numpy"/>
			<rt_info>
				<attribute name="fused_names" version="0" value="548"/>
			</rt_info>
			<input>
				<port id="0" precision="FP32">
					<dim>1</dim>
					<dim>160</dim>
					<dim>27</dim>
					<dim>27</dim>
				</port>
				<port id="1" precision="FP32">
					<dim>1</dim>
					<dim>160</dim>
					<dim>27</dim>
					<dim>27</dim>
				</port>
			</input>
			<output>
				<port id="2" precision="FP32" names="548">
					<dim>1</dim>
					<dim>160</dim>
					<dim>27</dim>
					<dim>27</dim>
				</port>
			</output>
		</layer>
		<layer id="229" name="1427" type="Const" version="opset1">
			<data element_type="f32" shape="960, 160, 1, 1" offset="4029592" size="614400"/>
			<rt_info>
				<attribute name="fused_names" version="0" value="1427"/>
			</rt_info>
			<output>
				<port id="0" precision="FP32" names="1427">
					<dim>960</dim>
					<dim>160</dim>
					<dim>1</dim>
					<dim>1</dim>
				</port>
			</output>
		</layer>
		<layer id="230" name="Convolution_3763" type="Convolution" version="opset1">
			<data strides="1, 1" dilations="1, 1" pads_begin="0, 0" pads_end="0, 0" auto_pad="explicit"/>
			<rt_info>
				<attribute name="fused_names" version="0" value="Convolution_3763"/>
			</rt_info>
			<input>
				<port id="0" precision="FP32">
					<dim>1</dim>
					<dim>160</dim>
					<dim>27</dim>
					<dim>27</dim>
				</port>
				<port id="1" precision="FP32">
					<dim>960</dim>
					<dim>160</dim>
					<dim>1</dim>
					<dim>1</dim>
				</port>
			</input>
			<output>
				<port id="2" precision="FP32">
					<dim>1</dim>
					<dim>960</dim>
					<dim>27</dim>
					<dim>27</dim>
				</port>
			</output>
		</layer>
		<layer id="231" name="Reshape_3783" type="Const" version="opset1">
			<data element_type="f32" shape="1, 960, 1, 1" offset="4643992" size="3840"/>
			<output>
				<port id="0" precision="FP32">
					<dim>1</dim>
					<dim>960</dim>
					<dim>1</dim>
					<dim>1</dim>
				</port>
			</output>
		</layer>
		<layer id="232" name="1426" type="Add" version="opset1">
			<data auto_broadcast="numpy"/>
			<rt_info>
				<attribute name="fused_names" version="0" value="1426, Concat_3782, Reshape_3783"/>
			</rt_info>
			<input>
				<port id="0" precision="FP32">
					<dim>1</dim>
					<dim>960</dim>
					<dim>27</dim>
					<dim>27</dim>
				</port>
				<port id="1" precision="FP32">
					<dim>1</dim>
					<dim>960</dim>
					<dim>1</dim>
					<dim>1</dim>
				</port>
			</input>
			<output>
				<port id="2" precision="FP32" names="1426">
					<dim>1</dim>
					<dim>960</dim>
					<dim>27</dim>
					<dim>27</dim>
				</port>
			</output>
		</layer>
		<layer id="233" name="553" type="Clamp" version="opset1">
			<data min="0" max="6"/>
			<rt_info>
				<attribute name="fused_names" version="0" value="553, Maximum_3811"/>
			</rt_info>
			<input>
				<port id="0" precision="FP32">
					<dim>1</dim>
					<dim>960</dim>
					<dim>27</dim>
					<dim>27</dim>
				</port>
			</input>
			<output>
				<port id="1" precision="FP32" names="553">
					<dim>1</dim>
					<dim>960</dim>
					<dim>27</dim>
					<dim>27</dim>
				</port>
			</output>
		</layer>
		<layer id="234" name="Reshape_3820" type="Const" version="opset1">
			<data element_type="f32" shape="960, 1, 1, 3, 3" offset="4647832" size="34560"/>
			<output>
				<port id="0" precision="FP32">
					<dim>960</dim>
					<dim>1</dim>
					<dim>1</dim>
					<dim>3</dim>
					<dim>3</dim>
				</port>
			</output>
		</layer>
		<layer id="235" name="GroupConvolution_3886" type="GroupConvolution" version="opset1">
			<data strides="1, 1" pads_begin="1, 1" pads_end="1, 1" dilations="1, 1" auto_pad="explicit"/>
			<rt_info>
				<attribute name="fused_names" version="0" value="GroupConvolution_3886, Reshape_3820"/>
			</rt_info>
			<input>
				<port id="0" precision="FP32">
					<dim>1</dim>
					<dim>960</dim>
					<dim>27</dim>
					<dim>27</dim>
				</port>
				<port id="1" precision="FP32">
					<dim>960</dim>
					<dim>1</dim>
					<dim>1</dim>
					<dim>3</dim>
					<dim>3</dim>
				</port>
			</input>
			<output>
				<port id="2" precision="FP32">
					<dim>1</dim>
					<dim>960</dim>
					<dim>27</dim>
					<dim>27</dim>
				</port>
			</output>
		</layer>
		<layer id="236" name="Reshape_3906" type="Const" version="opset1">
			<data element_type="f32" shape="1, 960, 1, 1" offset="4682392" size="3840"/>
			<output>
				<port id="0" precision="FP32">
					<dim>1</dim>
					<dim>960</dim>
					<dim>1</dim>
					<dim>1</dim>
				</port>
			</output>
		</layer>
		<layer id="237" name="1429" type="Add" version="opset1">
			<data auto_broadcast="numpy"/>
			<rt_info>
				<attribute name="fused_names" version="0" value="1429, Concat_3905, Reshape_3906"/>
			</rt_info>
			<input>
				<port id="0" precision="FP32">
					<dim>1</dim>
					<dim>960</dim>
					<dim>27</dim>
					<dim>27</dim>
				</port>
				<port id="1" precision="FP32">
					<dim>1</dim>
					<dim>960</dim>
					<dim>1</dim>
					<dim>1</dim>
				</port>
			</input>
			<output>
				<port id="2" precision="FP32" names="1429">
					<dim>1</dim>
					<dim>960</dim>
					<dim>27</dim>
					<dim>27</dim>
				</port>
			</output>
		</layer>
		<layer id="238" name="558" type="Clamp" version="opset1">
			<data min="0" max="6"/>
			<rt_info>
				<attribute name="fused_names" version="0" value="558, Maximum_3934"/>
			</rt_info>
			<input>
				<port id="0" precision="FP32">
					<dim>1</dim>
					<dim>960</dim>
					<dim>27</dim>
					<dim>27</dim>
				</port>
			</input>
			<output>
				<port id="1" precision="FP32" names="558">
					<dim>1</dim>
					<dim>960</dim>
					<dim>27</dim>
					<dim>27</dim>
				</port>
			</output>
		</layer>
		<layer id="239" name="1433" type="Const" version="opset1">
			<data element_type="f32" shape="160, 960, 1, 1" offset="4686232" size="614400"/>
			<rt_info>
				<attribute name="fused_names" version="0" value="1433"/>
			</rt_info>
			<output>
				<port id="0" precision="FP32" names="1433">
					<dim>160</dim>
					<dim>960</dim>
					<dim>1</dim>
					<dim>1</dim>
				</port>
			</output>
		</layer>
		<layer id="240" name="Convolution_3936" type="Convolution" version="opset1">
			<data strides="1, 1" dilations="1, 1" pads_begin="0, 0" pads_end="0, 0" auto_pad="explicit"/>
			<rt_info>
				<attribute name="fused_names" version="0" value="Convolution_3936"/>
			</rt_info>
			<input>
				<port id="0" precision="FP32">
					<dim>1</dim>
					<dim>960</dim>
					<dim>27</dim>
					<dim>27</dim>
				</port>
				<port id="1" precision="FP32">
					<dim>160</dim>
					<dim>960</dim>
					<dim>1</dim>
					<dim>1</dim>
				</port>
			</input>
			<output>
				<port id="2" precision="FP32">
					<dim>1</dim>
					<dim>160</dim>
					<dim>27</dim>
					<dim>27</dim>
				</port>
			</output>
		</layer>
		<layer id="241" name="Reshape_3956" type="Const" version="opset1">
			<data element_type="f32" shape="1, 160, 1, 1" offset="5300632" size="640"/>
			<output>
				<port id="0" precision="FP32">
					<dim>1</dim>
					<dim>160</dim>
					<dim>1</dim>
					<dim>1</dim>
				</port>
			</output>
		</layer>
		<layer id="242" name="1432" type="Add" version="opset1">
			<data auto_broadcast="numpy"/>
			<rt_info>
				<attribute name="fused_names" version="0" value="1432, Concat_3955, Reshape_3956"/>
			</rt_info>
			<input>
				<port id="0" precision="FP32">
					<dim>1</dim>
					<dim>160</dim>
					<dim>27</dim>
					<dim>27</dim>
				</port>
				<port id="1" precision="FP32">
					<dim>1</dim>
					<dim>160</dim>
					<dim>1</dim>
					<dim>1</dim>
				</port>
			</input>
			<output>
				<port id="2" precision="FP32" names="1432">
					<dim>1</dim>
					<dim>160</dim>
					<dim>27</dim>
					<dim>27</dim>
				</port>
			</output>
		</layer>
		<layer id="243" name="561" type="Add" version="opset1">
			<data auto_broadcast="numpy"/>
			<rt_info>
				<attribute name="fused_names" version="0" value="561"/>
			</rt_info>
			<input>
				<port id="0" precision="FP32">
					<dim>1</dim>
					<dim>160</dim>
					<dim>27</dim>
					<dim>27</dim>
				</port>
				<port id="1" precision="FP32">
					<dim>1</dim>
					<dim>160</dim>
					<dim>27</dim>
					<dim>27</dim>
				</port>
			</input>
			<output>
				<port id="2" precision="FP32" names="561">
					<dim>1</dim>
					<dim>160</dim>
					<dim>27</dim>
					<dim>27</dim>
				</port>
			</output>
		</layer>
		<layer id="244" name="1436" type="Const" version="opset1">
			<data element_type="f32" shape="960, 160, 1, 1" offset="5301272" size="614400"/>
			<rt_info>
				<attribute name="fused_names" version="0" value="1436"/>
			</rt_info>
			<output>
				<port id="0" precision="FP32" names="1436">
					<dim>960</dim>
					<dim>160</dim>
					<dim>1</dim>
					<dim>1</dim>
				</port>
			</output>
		</layer>
		<layer id="245" name="Convolution_3985" type="Convolution" version="opset1">
			<data strides="1, 1" dilations="1, 1" pads_begin="0, 0" pads_end="0, 0" auto_pad="explicit"/>
			<rt_info>
				<attribute name="fused_names" version="0" value="Convolution_3985"/>
			</rt_info>
			<input>
				<port id="0" precision="FP32">
					<dim>1</dim>
					<dim>160</dim>
					<dim>27</dim>
					<dim>27</dim>
				</port>
				<port id="1" precision="FP32">
					<dim>960</dim>
					<dim>160</dim>
					<dim>1</dim>
					<dim>1</dim>
				</port>
			</input>
			<output>
				<port id="2" precision="FP32">
					<dim>1</dim>
					<dim>960</dim>
					<dim>27</dim>
					<dim>27</dim>
				</port>
			</output>
		</layer>
		<layer id="246" name="Reshape_4005" type="Const" version="opset1">
			<data element_type="f32" shape="1, 960, 1, 1" offset="5915672" size="3840"/>
			<output>
				<port id="0" precision="FP32">
					<dim>1</dim>
					<dim>960</dim>
					<dim>1</dim>
					<dim>1</dim>
				</port>
			</output>
		</layer>
		<layer id="247" name="1435" type="Add" version="opset1">
			<data auto_broadcast="numpy"/>
			<rt_info>
				<attribute name="fused_names" version="0" value="1435, Concat_4004, Reshape_4005"/>
			</rt_info>
			<input>
				<port id="0" precision="FP32">
					<dim>1</dim>
					<dim>960</dim>
					<dim>27</dim>
					<dim>27</dim>
				</port>
				<port id="1" precision="FP32">
					<dim>1</dim>
					<dim>960</dim>
					<dim>1</dim>
					<dim>1</dim>
				</port>
			</input>
			<output>
				<port id="2" precision="FP32" names="1435">
					<dim>1</dim>
					<dim>960</dim>
					<dim>27</dim>
					<dim>27</dim>
				</port>
			</output>
		</layer>
		<layer id="248" name="566" type="Clamp" version="opset1">
			<data min="0" max="6"/>
			<rt_info>
				<attribute name="fused_names" version="0" value="566, Maximum_4033"/>
			</rt_info>
			<input>
				<port id="0" precision="FP32">
					<dim>1</dim>
					<dim>960</dim>
					<dim>27</dim>
					<dim>27</dim>
				</port>
			</input>
			<output>
				<port id="1" precision="FP32" names="566">
					<dim>1</dim>
					<dim>960</dim>
					<dim>27</dim>
					<dim>27</dim>
				</port>
			</output>
		</layer>
		<layer id="249" name="Reshape_4042" type="Const" version="opset1">
			<data element_type="f32" shape="960, 1, 1, 3, 3" offset="5919512" size="34560"/>
			<output>
				<port id="0" precision="FP32">
					<dim>960</dim>
					<dim>1</dim>
					<dim>1</dim>
					<dim>3</dim>
					<dim>3</dim>
				</port>
			</output>
		</layer>
		<layer id="250" name="GroupConvolution_4108" type="GroupConvolution" version="opset1">
			<data strides="1, 1" pads_begin="1, 1" pads_end="1, 1" dilations="1, 1" auto_pad="explicit"/>
			<rt_info>
				<attribute name="fused_names" version="0" value="GroupConvolution_4108, Reshape_4042"/>
			</rt_info>
			<input>
				<port id="0" precision="FP32">
					<dim>1</dim>
					<dim>960</dim>
					<dim>27</dim>
					<dim>27</dim>
				</port>
				<port id="1" precision="FP32">
					<dim>960</dim>
					<dim>1</dim>
					<dim>1</dim>
					<dim>3</dim>
					<dim>3</dim>
				</port>
			</input>
			<output>
				<port id="2" precision="FP32">
					<dim>1</dim>
					<dim>960</dim>
					<dim>27</dim>
					<dim>27</dim>
				</port>
			</output>
		</layer>
		<layer id="251" name="Reshape_4128" type="Const" version="opset1">
			<data element_type="f32" shape="1, 960, 1, 1" offset="5954072" size="3840"/>
			<output>
				<port id="0" precision="FP32">
					<dim>1</dim>
					<dim>960</dim>
					<dim>1</dim>
					<dim>1</dim>
				</port>
			</output>
		</layer>
		<layer id="252" name="1438" type="Add" version="opset1">
			<data auto_broadcast="numpy"/>
			<rt_info>
				<attribute name="fused_names" version="0" value="1438, Concat_4127, Reshape_4128"/>
			</rt_info>
			<input>
				<port id="0" precision="FP32">
					<dim>1</dim>
					<dim>960</dim>
					<dim>27</dim>
					<dim>27</dim>
				</port>
				<port id="1" precision="FP32">
					<dim>1</dim>
					<dim>960</dim>
					<dim>1</dim>
					<dim>1</dim>
				</port>
			</input>
			<output>
				<port id="2" precision="FP32" names="1438">
					<dim>1</dim>
					<dim>960</dim>
					<dim>27</dim>
					<dim>27</dim>
				</port>
			</output>
		</layer>
		<layer id="253" name="571" type="Clamp" version="opset1">
			<data min="0" max="6"/>
			<rt_info>
				<attribute name="fused_names" version="0" value="571, Maximum_4156"/>
			</rt_info>
			<input>
				<port id="0" precision="FP32">
					<dim>1</dim>
					<dim>960</dim>
					<dim>27</dim>
					<dim>27</dim>
				</port>
			</input>
			<output>
				<port id="1" precision="FP32" names="571">
					<dim>1</dim>
					<dim>960</dim>
					<dim>27</dim>
					<dim>27</dim>
				</port>
			</output>
		</layer>
		<layer id="254" name="1442" type="Const" version="opset1">
			<data element_type="f32" shape="320, 960, 1, 1" offset="5957912" size="1228800"/>
			<rt_info>
				<attribute name="fused_names" version="0" value="1442"/>
			</rt_info>
			<output>
				<port id="0" precision="FP32" names="1442">
					<dim>320</dim>
					<dim>960</dim>
					<dim>1</dim>
					<dim>1</dim>
				</port>
			</output>
		</layer>
		<layer id="255" name="Convolution_4158" type="Convolution" version="opset1">
			<data strides="1, 1" dilations="1, 1" pads_begin="0, 0" pads_end="0, 0" auto_pad="explicit"/>
			<rt_info>
				<attribute name="fused_names" version="0" value="Convolution_4158"/>
			</rt_info>
			<input>
				<port id="0" precision="FP32">
					<dim>1</dim>
					<dim>960</dim>
					<dim>27</dim>
					<dim>27</dim>
				</port>
				<port id="1" precision="FP32">
					<dim>320</dim>
					<dim>960</dim>
					<dim>1</dim>
					<dim>1</dim>
				</port>
			</input>
			<output>
				<port id="2" precision="FP32">
					<dim>1</dim>
					<dim>320</dim>
					<dim>27</dim>
					<dim>27</dim>
				</port>
			</output>
		</layer>
		<layer id="256" name="Reshape_4178" type="Const" version="opset1">
			<data element_type="f32" shape="1, 320, 1, 1" offset="7186712" size="1280"/>
			<output>
				<port id="0" precision="FP32">
					<dim>1</dim>
					<dim>320</dim>
					<dim>1</dim>
					<dim>1</dim>
				</port>
			</output>
		</layer>
		<layer id="257" name="1441" type="Add" version="opset1">
			<data auto_broadcast="numpy"/>
			<rt_info>
				<attribute name="fused_names" version="0" value="1441, Concat_4177, Reshape_4178"/>
			</rt_info>
			<input>
				<port id="0" precision="FP32">
					<dim>1</dim>
					<dim>320</dim>
					<dim>27</dim>
					<dim>27</dim>
				</port>
				<port id="1" precision="FP32">
					<dim>1</dim>
					<dim>320</dim>
					<dim>1</dim>
					<dim>1</dim>
				</port>
			</input>
			<output>
				<port id="2" precision="FP32" names="1441">
					<dim>1</dim>
					<dim>320</dim>
					<dim>27</dim>
					<dim>27</dim>
				</port>
			</output>
		</layer>
		<layer id="258" name="Constant_6694" type="Const" version="opset1">
			<data element_type="i64" shape="1" offset="7187992" size="8"/>
			<rt_info>
				<attribute name="fused_names" version="0" value="Constant_6694"/>
			</rt_info>
			<output>
				<port id="0" precision="I64">
					<dim>1</dim>
				</port>
			</output>
		</layer>
		<layer id="259" name="1265" type="ReduceMean" version="opset1">
			<data keep_dims="false"/>
			<rt_info>
				<attribute name="fused_names" version="0" value="1265"/>
			</rt_info>
			<input>
				<port id="0" precision="FP32">
					<dim>1</dim>
					<dim>320</dim>
					<dim>27</dim>
					<dim>27</dim>
				</port>
				<port id="1" precision="I64">
					<dim>1</dim>
				</port>
			</input>
			<output>
				<port id="2" precision="FP32" names="1265">
					<dim>1</dim>
					<dim>27</dim>
					<dim>27</dim>
				</port>
			</output>
		</layer>
		<layer id="260" name="1256" type="ShapeOf" version="opset3">
			<data output_type="i64"/>
			<rt_info>
				<attribute name="fused_names" version="0" value="1256, 1259, 1262"/>
			</rt_info>
			<input>
				<port id="0" precision="FP32">
					<dim>1</dim>
					<dim>320</dim>
					<dim>27</dim>
					<dim>27</dim>
				</port>
			</input>
			<output>
				<port id="1" precision="I64" names="1256,1259,1262">
					<dim>4</dim>
				</port>
			</output>
		</layer>
		<layer id="261" name="Constant_16667" type="Const" version="opset1">
			<data element_type="i64" shape="1" offset="7188000" size="8"/>
			<rt_info>
				<attribute name="fused_names" version="0" value="1257, 1258, 1267, Constant_6686, Constant_6697"/>
			</rt_info>
			<output>
				<port id="0" precision="I64">
					<dim>1</dim>
				</port>
			</output>
		</layer>
		<layer id="262" name="Constant_6686" type="Const" version="opset1">
			<data element_type="i64" shape="" offset="7188000" size="8"/>
			<rt_info>
				<attribute name="fused_names" version="0" value="Constant_6686"/>
			</rt_info>
			<output>
				<port id="0" precision="I64"/>
			</output>
		</layer>
		<layer id="263" name="1258" type="Gather" version="opset8">
			<data batch_dims="0"/>
			<rt_info>
				<attribute name="fused_names" version="0" value="1257, 1258, 1267, Constant_6686, Constant_6697"/>
			</rt_info>
			<input>
				<port id="0" precision="I64">
					<dim>4</dim>
				</port>
				<port id="1" precision="I64">
					<dim>1</dim>
				</port>
				<port id="2" precision="I64"/>
			</input>
			<output>
				<port id="3" precision="I64" names="1267">
					<dim>1</dim>
				</port>
			</output>
		</layer>
		<layer id="264" name="1260" type="Const" version="opset1">
			<data element_type="i64" shape="" offset="7188008" size="8"/>
			<rt_info>
				<attribute name="fused_names" version="0" value="1260"/>
			</rt_info>
			<output>
				<port id="0" precision="I64" names="1260"/>
			</output>
		</layer>
		<layer id="265" name="Constant_6689" type="Const" version="opset1">
			<data element_type="i64" shape="" offset="7188000" size="8"/>
			<rt_info>
				<attribute name="fused_names" version="0" value="Constant_6689"/>
			</rt_info>
			<output>
				<port id="0" precision="I64"/>
			</output>
		</layer>
		<layer id="266" name="1261" type="Gather" version="opset8">
			<data batch_dims="0"/>
			<rt_info>
				<attribute name="fused_names" version="0" value="1260, 1261, Constant_6689"/>
			</rt_info>
			<input>
				<port id="0" precision="I64">
					<dim>4</dim>
				</port>
				<port id="1" precision="I64"/>
				<port id="2" precision="I64"/>
			</input>
			<output>
				<port id="3" precision="I64" names="1261"/>
			</output>
		</layer>
		<layer id="267" name="1263" type="Const" version="opset1">
			<data element_type="i64" shape="" offset="7188016" size="8"/>
			<rt_info>
				<attribute name="fused_names" version="0" value="1263"/>
			</rt_info>
			<output>
				<port id="0" precision="I64" names="1263"/>
			</output>
		</layer>
		<layer id="268" name="Constant_6692" type="Const" version="opset1">
			<data element_type="i64" shape="" offset="7188000" size="8"/>
			<rt_info>
				<attribute name="fused_names" version="0" value="Constant_6692"/>
			</rt_info>
			<output>
				<port id="0" precision="I64"/>
			</output>
		</layer>
		<layer id="269" name="1264" type="Gather" version="opset8">
			<data batch_dims="0"/>
			<rt_info>
				<attribute name="fused_names" version="0" value="1263, 1264, Constant_6692"/>
			</rt_info>
			<input>
				<port id="0" precision="I64">
					<dim>4</dim>
				</port>
				<port id="1" precision="I64"/>
				<port id="2" precision="I64"/>
			</input>
			<output>
				<port id="3" precision="I64" names="1264"/>
			</output>
		</layer>
		<layer id="270" name="1266" type="Multiply" version="opset1">
			<data auto_broadcast="numpy"/>
			<rt_info>
				<attribute name="fused_names" version="0" value="1266"/>
			</rt_info>
			<input>
				<port id="0" precision="I64"/>
				<port id="1" precision="I64"/>
			</input>
			<output>
				<port id="2" precision="I64" names="1266"/>
			</output>
		</layer>
		<layer id="271" name="Constant_6699" type="Const" version="opset1">
			<data element_type="i64" shape="1" offset="7188000" size="8"/>
			<rt_info>
				<attribute name="fused_names" version="0" value="Constant_6699"/>
			</rt_info>
			<output>
				<port id="0" precision="I64">
					<dim>1</dim>
				</port>
			</output>
		</layer>
		<layer id="272" name="1268" type="Unsqueeze" version="opset1">
			<rt_info>
				<attribute name="fused_names" version="0" value="1268, Constant_6699"/>
			</rt_info>
			<input>
				<port id="0" precision="I64"/>
				<port id="1" precision="I64">
					<dim>1</dim>
				</port>
			</input>
			<output>
				<port id="2" precision="I64" names="1268">
					<dim>1</dim>
				</port>
			</output>
		</layer>
		<layer id="273" name="1269" type="Concat" version="opset1">
			<data axis="0"/>
			<rt_info>
				<attribute name="fused_names" version="0" value="1269"/>
			</rt_info>
			<input>
				<port id="0" precision="I64">
					<dim>1</dim>
				</port>
				<port id="1" precision="I64">
					<dim>1</dim>
				</port>
			</input>
			<output>
				<port id="2" precision="I64" names="1269">
					<dim>2</dim>
				</port>
			</output>
		</layer>
		<layer id="274" name="1270" type="Reshape" version="opset1">
			<data special_zero="true"/>
			<rt_info>
				<attribute name="fused_names" version="0" value="1270"/>
			</rt_info>
			<input>
				<port id="0" precision="FP32">
					<dim>1</dim>
					<dim>27</dim>
					<dim>27</dim>
				</port>
				<port id="1" precision="I64">
					<dim>2</dim>
				</port>
			</input>
			<output>
				<port id="2" precision="FP32" names="1270">
					<dim>1</dim>
					<dim>729</dim>
				</port>
			</output>
		</layer>
		<layer id="275" name="Constant_6761" type="Const" version="opset1">
			<data element_type="i64" shape="1" offset="7188024" size="8"/>
			<rt_info>
				<attribute name="fused_names" version="0" value="Constant_6761"/>
			</rt_info>
			<output>
				<port id="0" precision="I64">
					<dim>1</dim>
				</port>
			</output>
		</layer>
		<layer id="276" name="1272" type="ReduceMin" version="opset1">
			<data keep_dims="false"/>
			<rt_info>
				<attribute name="fused_names" version="0" value="1272"/>
			</rt_info>
			<input>
				<port id="0" precision="FP32">
					<dim>1</dim>
					<dim>729</dim>
				</port>
				<port id="1" precision="I64">
					<dim>1</dim>
				</port>
			</input>
			<output>
				<port id="2" precision="FP32" names="1272">
					<dim>1</dim>
				</port>
			</output>
		</layer>
		<layer id="277" name="Constant_6763" type="Const" version="opset1">
			<data element_type="i64" shape="1" offset="7187992" size="8"/>
			<rt_info>
				<attribute name="fused_names" version="0" value="Constant_6763"/>
			</rt_info>
			<output>
				<port id="0" precision="I64">
					<dim>1</dim>
				</port>
			</output>
		</layer>
		<layer id="278" name="1273" type="Unsqueeze" version="opset1">
			<rt_info>
				<attribute name="fused_names" version="0" value="1273"/>
			</rt_info>
			<input>
				<port id="0" precision="FP32">
					<dim>1</dim>
				</port>
				<port id="1" precision="I64">
					<dim>1</dim>
				</port>
			</input>
			<output>
				<port id="2" precision="FP32" names="1273">
					<dim>1</dim>
					<dim>1</dim>
				</port>
			</output>
		</layer>
		<layer id="279" name="1274" type="Subtract" version="opset1">
			<data auto_broadcast="numpy"/>
			<rt_info>
				<attribute name="fused_names" version="0" value="1274"/>
			</rt_info>
			<input>
				<port id="0" precision="FP32">
					<dim>1</dim>
					<dim>729</dim>
				</port>
				<port id="1" precision="FP32">
					<dim>1</dim>
					<dim>1</dim>
				</port>
			</input>
			<output>
				<port id="2" precision="FP32" names="1274">
					<dim>1</dim>
					<dim>729</dim>
				</port>
			</output>
		</layer>
		<layer id="280" name="Constant_20420" type="Const" version="opset1">
			<data element_type="f32" shape="1, 1" offset="7188032" size="4"/>
			<output>
				<port id="0" precision="FP32">
					<dim>1</dim>
					<dim>1</dim>
				</port>
			</output>
		</layer>
		<layer id="281" name="1276" type="Multiply" version="opset1">
			<data auto_broadcast="numpy"/>
			<rt_info>
				<attribute name="fused_names" version="0" value="1276"/>
			</rt_info>
			<input>
				<port id="0" precision="FP32">
					<dim>1</dim>
					<dim>729</dim>
				</port>
				<port id="1" precision="FP32">
					<dim>1</dim>
					<dim>1</dim>
				</port>
			</input>
			<output>
				<port id="2" precision="FP32" names="1276">
					<dim>1</dim>
					<dim>729</dim>
				</port>
			</output>
		</layer>
		<layer id="282" name="Constant_6759" type="Const" version="opset1">
			<data element_type="i64" shape="1" offset="7188024" size="8"/>
			<rt_info>
				<attribute name="fused_names" version="0" value="Constant_6759"/>
			</rt_info>
			<output>
				<port id="0" precision="I64">
					<dim>1</dim>
				</port>
			</output>
		</layer>
		<layer id="283" name="1271" type="ReduceMax" version="opset1">
			<data keep_dims="false"/>
			<rt_info>
				<attribute name="fused_names" version="0" value="1271"/>
			</rt_info>
			<input>
				<port id="0" precision="FP32">
					<dim>1</dim>
					<dim>729</dim>
				</port>
				<port id="1" precision="I64">
					<dim>1</dim>
				</port>
			</input>
			<output>
				<port id="2" precision="FP32" names="1271">
					<dim>1</dim>
				</port>
			</output>
		</layer>
		<layer id="284" name="1277" type="Subtract" version="opset1">
			<data auto_broadcast="numpy"/>
			<rt_info>
				<attribute name="fused_names" version="0" value="1277"/>
			</rt_info>
			<input>
				<port id="0" precision="FP32">
					<dim>1</dim>
				</port>
				<port id="1" precision="FP32">
					<dim>1</dim>
				</port>
			</input>
			<output>
				<port id="2" precision="FP32" names="1277">
					<dim>1</dim>
				</port>
			</output>
		</layer>
		<layer id="285" name="Constant_20421" type="Const" version="opset1">
			<data element_type="f32" shape="1" offset="7188036" size="4"/>
			<output>
				<port id="0" precision="FP32">
					<dim>1</dim>
				</port>
			</output>
		</layer>
		<layer id="286" name="1279" type="Add" version="opset1">
			<data auto_broadcast="numpy"/>
			<rt_info>
				<attribute name="fused_names" version="0" value="1279"/>
			</rt_info>
			<input>
				<port id="0" precision="FP32">
					<dim>1</dim>
				</port>
				<port id="1" precision="FP32">
					<dim>1</dim>
				</port>
			</input>
			<output>
				<port id="2" precision="FP32" names="1279">
					<dim>1</dim>
				</port>
			</output>
		</layer>
		<layer id="287" name="Constant_6769" type="Const" version="opset1">
			<data element_type="i64" shape="1" offset="7187992" size="8"/>
			<rt_info>
				<attribute name="fused_names" version="0" value="Constant_6769"/>
			</rt_info>
			<output>
				<port id="0" precision="I64">
					<dim>1</dim>
				</port>
			</output>
		</layer>
		<layer id="288" name="1280" type="Unsqueeze" version="opset1">
			<rt_info>
				<attribute name="fused_names" version="0" value="1280"/>
			</rt_info>
			<input>
				<port id="0" precision="FP32">
					<dim>1</dim>
				</port>
				<port id="1" precision="I64">
					<dim>1</dim>
				</port>
			</input>
			<output>
				<port id="2" precision="FP32" names="1280">
					<dim>1</dim>
					<dim>1</dim>
				</port>
			</output>
		</layer>
		<layer id="289" name="1281" type="Divide" version="opset1">
			<data auto_broadcast="numpy" m_pythondiv="true"/>
			<rt_info>
				<attribute name="fused_names" version="0" value="1281"/>
			</rt_info>
			<input>
				<port id="0" precision="FP32">
					<dim>1</dim>
					<dim>729</dim>
				</port>
				<port id="1" precision="FP32">
					<dim>1</dim>
					<dim>1</dim>
				</port>
			</input>
			<output>
				<port id="2" precision="FP32" names="1281">
					<dim>1</dim>
					<dim>729</dim>
				</port>
			</output>
		</layer>
		<layer id="290" name="Constant_16791" type="Const" version="opset1">
			<data element_type="i64" shape="3" offset="7188040" size="24"/>
			<rt_info>
				<attribute name="fused_names" version="0" value="1285"/>
			</rt_info>
			<output>
				<port id="0" precision="I64">
					<dim>3</dim>
				</port>
			</output>
		</layer>
		<layer id="291" name="Constant_16792" type="Const" version="opset1">
			<data element_type="i64" shape="" offset="7188000" size="8"/>
			<output>
				<port id="0" precision="I64"/>
			</output>
		</layer>
		<layer id="292" name="Gather_16793" type="Gather" version="opset8">
			<data batch_dims="0"/>
			<rt_info>
				<attribute name="fused_names" version="0" value="1285"/>
			</rt_info>
			<input>
				<port id="0" precision="I64">
					<dim>4</dim>
				</port>
				<port id="1" precision="I64">
					<dim>3</dim>
				</port>
				<port id="2" precision="I64"/>
			</input>
			<output>
				<port id="3" precision="I64" names="1285">
					<dim>3</dim>
				</port>
			</output>
		</layer>
		<layer id="293" name="1286" type="Reshape" version="opset1">
			<data special_zero="true"/>
			<rt_info>
				<attribute name="fused_names" version="0" value="1286"/>
			</rt_info>
			<input>
				<port id="0" precision="FP32">
					<dim>1</dim>
					<dim>729</dim>
				</port>
				<port id="1" precision="I64">
					<dim>3</dim>
				</port>
			</input>
			<output>
				<port id="2" precision="FP32" names="1286">
					<dim>1</dim>
					<dim>27</dim>
					<dim>27</dim>
				</port>
			</output>
		</layer>
		<layer id="294" name="saliency_map" type="Convert" version="opset1">
			<data destination_type="u8"/>
			<rt_info>
				<attribute name="fused_names" version="0" value="saliency_map"/>
			</rt_info>
			<input>
				<port id="0" precision="FP32">
					<dim>1</dim>
					<dim>27</dim>
					<dim>27</dim>
				</port>
			</input>
			<output>
				<port id="1" precision="U8" names="saliency_map">
					<dim>1</dim>
					<dim>27</dim>
					<dim>27</dim>
				</port>
			</output>
		</layer>
		<layer id="296" name="Range_6627" type="Const" version="opset1">
			<data element_type="i64" shape="2" offset="7188064" size="16"/>
			<output>
				<port id="0" precision="I64">
					<dim>2</dim>
				</port>
			</output>
		</layer>
		<layer id="297" name="1253" type="ReduceMean" version="opset1">
			<data keep_dims="true"/>
			<rt_info>
				<attribute name="fused_names" version="0" value="1253, Range_6627"/>
			</rt_info>
			<input>
				<port id="0" precision="FP32">
					<dim>1</dim>
					<dim>96</dim>
					<dim>54</dim>
					<dim>54</dim>
				</port>
				<port id="1" precision="I64">
					<dim>2</dim>
				</port>
			</input>
			<output>
				<port id="2" precision="FP32" names="1253">
					<dim>1</dim>
					<dim>96</dim>
					<dim>1</dim>
					<dim>1</dim>
				</port>
			</output>
		</layer>
		<layer id="298" name="Range_6659" type="Const" version="opset1">
			<data element_type="i64" shape="2" offset="7188064" size="16"/>
			<output>
				<port id="0" precision="I64">
					<dim>2</dim>
				</port>
			</output>
		</layer>
		<layer id="299" name="1254" type="ReduceMean" version="opset1">
			<data keep_dims="true"/>
			<rt_info>
				<attribute name="fused_names" version="0" value="1254, Range_6659"/>
			</rt_info>
			<input>
				<port id="0" precision="FP32">
					<dim>1</dim>
					<dim>320</dim>
					<dim>27</dim>
					<dim>27</dim>
				</port>
				<port id="1" precision="I64">
					<dim>2</dim>
				</port>
			</input>
			<output>
				<port id="2" precision="FP32" names="1254">
					<dim>1</dim>
					<dim>320</dim>
					<dim>1</dim>
					<dim>1</dim>
				</port>
			</output>
		</layer>
		<layer id="300" name="feature_vector" type="Concat" version="opset1">
			<data axis="1"/>
			<rt_info>
				<attribute name="fused_names" version="0" value="feature_vector"/>
			</rt_info>
			<input>
				<port id="0" precision="FP32">
					<dim>1</dim>
					<dim>96</dim>
					<dim>1</dim>
					<dim>1</dim>
				</port>
				<port id="1" precision="FP32">
					<dim>1</dim>
					<dim>320</dim>
					<dim>1</dim>
					<dim>1</dim>
				</port>
			</input>
			<output>
				<port id="2" precision="FP32" names="feature_vector">
					<dim>1</dim>
					<dim>416</dim>
					<dim>1</dim>
					<dim>1</dim>
				</port>
			</output>
		</layer>
		<layer id="302" name="654" type="Const" version="opset1">
			<data element_type="f32" shape="1, 4, 4" offset="7188080" size="64"/>
			<rt_info>
				<attribute name="fused_names" version="0" value="654"/>
			</rt_info>
			<output>
				<port id="0" precision="FP32" names="654">
					<dim>1</dim>
					<dim>4</dim>
…
		<edge from-layer="384" from-port="2" to-layer="387" to-port="0"/>
		<edge from-layer="385" from-port="0" to-layer="396" to-port="0"/>
		<edge from-layer="386" from-port="0" to-layer="395" to-port="0"/>
		<edge from-layer="387" from-port="1" to-layer="402" to-port="0"/>
		<edge from-layer="387" from-port="1" to-layer="390" to-port="0"/>
		<edge from-layer="387" from-port="1" to-layer="599" to-port="1"/>
		<edge from-layer="388" from-port="0" to-layer="390" to-port="1"/>
		<edge from-layer="389" from-port="0" to-layer="390" to-port="2"/>
		<edge from-layer="390" from-port="3" to-layer="392" to-port="0"/>
		<edge from-layer="391" from-port="0" to-layer="392" to-port="1"/>
		<edge from-layer="392" from-port="2" to-layer="394" to-port="0"/>
		<edge from-layer="393" from-port="0" to-layer="394" to-port="1"/>
		<edge from-layer="394" from-port="2" to-layer="395" to-port="1"/>
		<edge from-layer="395" from-port="2" to-layer="396" to-port="1"/>
		<edge from-layer="396" from-port="2" to-layer="397" to-port="1"/>
		<edge from-layer="397" from-port="2" to-layer="409" to-port="0"/>
		<edge from-layer="398" from-port="0" to-layer="408" to-port="0"/>
		<edge from-layer="399" from-port="0" to-layer="407" to-port="0"/>
		<edge from-layer="400" from-port="0" to-layer="402" to-port="1"/>
		<edge from-layer="401" from-port="0" to-layer="402" to-port="2"/>
		<edge from-layer="402" from-port="3" to-layer="404" to-port="0"/>
		<edge from-layer="403" from-port="0" to-layer="404" to-port="1"/>
		<edge from-layer="404" from-port="2" to-layer="406" to-port="0"/>
		<edge from-layer="405" from-port="0" to-layer="406" to-port="1"/>
		<edge from-layer="406" from-port="2" to-layer="407" to-port="1"/>
		<edge from-layer="407" from-port="2" to-layer="408" to-port="1"/>
		<edge from-layer="408" from-port="2" to-layer="409" to-port="1"/>
		<edge from-layer="409" from-port="2" to-layer="428" to-port="0"/>
		<edge from-layer="409" from-port="2" to-layer="413" to-port="0"/>
		<edge from-layer="409" from-port="2" to-layer="500" to-port="0"/>
		<edge from-layer="409" from-port="2" to-layer="485" to-port="0"/>
		<edge from-layer="410" from-port="0" to-layer="413" to-port="1"/>
		<edge from-layer="411" from-port="0" to-layer="413" to-port="2"/>
		<edge from-layer="412" from-port="0" to-layer="413" to-port="3"/>
		<edge from-layer="413" from-port="4" to-layer="414" to-port="0"/>
		<edge from-layer="413" from-port="4" to-layer="432" to-port="1"/>
		<edge from-layer="414" from-port="1" to-layer="415" to-port="1"/>
		<edge from-layer="415" from-port="2" to-layer="433" to-port="0"/>
		<edge from-layer="416" from-port="0" to-layer="418" to-port="1"/>
		<edge from-layer="417" from-port="0" to-layer="418" to-port="2"/>
		<edge from-layer="418" from-port="3" to-layer="422" to-port="0"/>
		<edge from-layer="419" from-port="0" to-layer="421" to-port="1"/>
		<edge from-layer="420" from-port="0" to-layer="421" to-port="2"/>
		<edge from-layer="421" from-port="3" to-layer="422" to-port="1"/>
		<edge from-layer="422" from-port="2" to-layer="424" to-port="0"/>
		<edge from-layer="423" from-port="0" to-layer="424" to-port="1"/>
		<edge from-layer="424" from-port="2" to-layer="431" to-port="0"/>
		<edge from-layer="425" from-port="0" to-layer="428" to-port="1"/>
		<edge from-layer="426" from-port="0" to-layer="428" to-port="2"/>
		<edge from-layer="427" from-port="0" to-layer="428" to-port="3"/>
		<edge from-layer="428" from-port="4" to-layer="429" to-port="0"/>
		<edge from-layer="429" from-port="1" to-layer="430" to-port="0"/>
		<edge from-layer="429" from-port="1" to-layer="434" to-port="0"/>
		<edge from-layer="430" from-port="1" to-layer="431" to-port="1"/>
		<edge from-layer="431" from-port="2" to-layer="435" to-port="0"/>
		<edge from-layer="431" from-port="2" to-layer="432" to-port="0"/>
		<edge from-layer="432" from-port="2" to-layer="433" to-port="1"/>
		<edge from-layer="433" from-port="2" to-layer="438" to-port="0"/>
		<edge from-layer="433" from-port="2" to-layer="540" to-port="0"/>
		<edge from-layer="434" from-port="1" to-layer="435" to-port="1"/>
		<edge from-layer="435" from-port="2" to-layer="539" to-port="0"/>
		<edge from-layer="435" from-port="2" to-layer="437" to-port="0"/>
		<edge from-layer="436" from-port="0" to-layer="437" to-port="1"/>
		<edge from-layer="437" from-port="2" to-layer="438" to-port="1"/>
		<edge from-layer="438" from-port="2" to-layer="440" to-port="0"/>
		<edge from-layer="438" from-port="2" to-layer="442" to-port="0"/>
		<edge from-layer="439" from-port="0" to-layer="440" to-port="1"/>
		<edge from-layer="440" from-port="2" to-layer="446" to-port="0"/>
		<edge from-layer="441" from-port="0" to-layer="443" to-port="0"/>
		<edge from-layer="442" from-port="1" to-layer="443" to-port="1"/>
		<edge from-layer="443" from-port="2" to-layer="445" to-port="0"/>
		<edge from-layer="444" from-port="0" to-layer="445" to-port="1"/>
		<edge from-layer="445" from-port="2" to-layer="446" to-port="1"/>
		<edge from-layer="446" from-port="2" to-layer="448" to-port="0"/>
		<edge from-layer="447" from-port="0" to-layer="448" to-port="1"/>
		<edge from-layer="448" from-port="2" to-layer="450" to-port="0"/>
		<edge from-layer="448" from-port="2" to-layer="462" to-port="0"/>
		<edge from-layer="449" from-port="0" to-layer="450" to-port="1"/>
		<edge from-layer="450" from-port="2" to-layer="466" to-port="0"/>
		<edge from-layer="451" from-port="1" to-layer="455" to-port="0"/>
		<edge from-layer="452" from-port="0" to-layer="455" to-port="1"/>
		<edge from-layer="453" from-port="0" to-layer="455" to-port="2"/>
		<edge from-layer="454" from-port="0" to-layer="455" to-port="3"/>
		<edge from-layer="455" from-port="4" to-layer="458" to-port="0"/>
		<edge from-layer="455" from-port="4" to-layer="555" to-port="0"/>
		<edge from-layer="455" from-port="4" to-layer="585" to-port="0"/>
		<edge from-layer="455" from-port="4" to-layer="525" to-port="0"/>
		<edge from-layer="455" from-port="4" to-layer="751" to-port="0"/>
		<edge from-layer="455" from-port="4" to-layer="818" to-port="0"/>
		<edge from-layer="455" from-port="4" to-layer="848" to-port="0"/>
		<edge from-layer="455" from-port="4" to-layer="878" to-port="0"/>
		<edge from-layer="456" from-port="0" to-layer="458" to-port="1"/>
		<edge from-layer="457" from-port="0" to-layer="458" to-port="2"/>
		<edge from-layer="458" from-port="3" to-layer="459" to-port="0"/>
		<edge from-layer="459" from-port="1" to-layer="461" to-port="0"/>
		<edge from-layer="460" from-port="0" to-layer="461" to-port="1"/>
		<edge from-layer="461" from-port="2" to-layer="463" to-port="0"/>
		<edge from-layer="462" from-port="1" to-layer="463" to-port="1"/>
		<edge from-layer="463" from-port="2" to-layer="465" to-port="0"/>
		<edge from-layer="464" from-port="0" to-layer="465" to-port="1"/>
		<edge from-layer="465" from-port="2" to-layer="466" to-port="1"/>
		<edge from-layer="466" from-port="2" to-layer="468" to-port="0"/>
		<edge from-layer="467" from-port="0" to-layer="468" to-port="1"/>
		<edge from-layer="468" from-port="2" to-layer="470" to-port="0"/>
		<edge from-layer="469" from-port="0" to-layer="470" to-port="1"/>
		<edge from-layer="470" from-port="2" to-layer="598" to-port="0"/>
		<edge from-layer="471" from-port="0" to-layer="473" to-port="1"/>
		<edge from-layer="472" from-port="0" to-layer="473" to-port="2"/>
		<edge from-layer="473" from-port="3" to-layer="477" to-port="0"/>
		<edge from-layer="474" from-port="0" to-layer="476" to-port="1"/>
		<edge from-layer="475" from-port="0" to-layer="476" to-port="2"/>
		<edge from-layer="476" from-port="3" to-layer="477" to-port="1"/>
		<edge from-layer="477" from-port="2" to-layer="479" to-port="0"/>
		<edge from-layer="478" from-port="0" to-layer="479" to-port="1"/>
		<edge from-layer="479" from-port="2" to-layer="481" to-port="0"/>
		<edge from-layer="480" from-port="0" to-layer="481" to-port="1"/>
		<edge from-layer="481" from-port="2" to-layer="487" to-port="0"/>
		<edge from-layer="482" from-port="0" to-layer="485" to-port="1"/>
		<edge from-layer="483" from-port="0" to-layer="485" to-port="2"/>
		<edge from-layer="484" from-port="0" to-layer="485" to-port="3"/>
		<edge from-layer="485" from-port="4" to-layer="486" to-port="0"/>
		<edge from-layer="485" from-port="4" to-layer="504" to-port="1"/>
		<edge from-layer="486" from-port="1" to-layer="487" to-port="1"/>
		<edge from-layer="487" from-port="2" to-layer="505" to-port="0"/>
		<edge from-layer="488" from-port="0" to-layer="490" to-port="1"/>
		<edge from-layer="489" from-port="0" to-layer="490" to-port="2"/>
		<edge from-layer="490" from-port="3" to-layer="494" to-port="0"/>
		<edge from-layer="491" from-port="0" to-layer="493" to-port="1"/>
		<edge from-layer="492" from-port="0" to-layer="493" to-port="2"/>
		<edge from-layer="493" from-port="3" to-layer="494" to-port="1"/>
		<edge from-layer="494" from-port="2" to-layer="496" to-port="0"/>
		<edge from-layer="495" from-port="0" to-layer="496" to-port="1"/>
		<edge from-layer="496" from-port="2" to-layer="503" to-port="0"/>
		<edge from-layer="497" from-port="0" to-layer="500" to-port="1"/>
		<edge from-layer="498" from-port="0" to-layer="500" to-port="2"/>
		<edge from-layer="499" from-port="0" to-layer="500" to-port="3"/>
		<edge from-layer="500" from-port="4" to-layer="501" to-port="0"/>
		<edge from-layer="501" from-port="1" to-layer="502" to-port="0"/>
		<edge from-layer="501" from-port="1" to-layer="506" to-port="0"/>
		<edge from-layer="502" from-port="1" to-layer="503" to-port="1"/>
		<edge from-layer="503" from-port="2" to-layer="504" to-port="0"/>
		<edge from-layer="503" from-port="2" to-layer="507" to-port="0"/>
		<edge from-layer="504" from-port="2" to-layer="505" to-port="1"/>
		<edge from-layer="505" from-port="2" to-layer="570" to-port="0"/>
		<edge from-layer="505" from-port="2" to-layer="510" to-port="0"/>
		<edge from-layer="506" from-port="1" to-layer="507" to-port="1"/>
		<edge from-layer="507" from-port="2" to-layer="509" to-port="0"/>
		<edge from-layer="507" from-port="2" to-layer="569" to-port="0"/>
		<edge from-layer="508" from-port="0" to-layer="509" to-port="1"/>
		<edge from-layer="509" from-port="2" to-layer="510" to-port="1"/>
		<edge from-layer="510" from-port="2" to-layer="512" to-port="0"/>
		<edge from-layer="510" from-port="2" to-layer="514" to-port="0"/>
		<edge from-layer="511" from-port="0" to-layer="512" to-port="1"/>
		<edge from-layer="512" from-port="2" to-layer="518" to-port="0"/>
		<edge from-layer="513" from-port="0" to-layer="515" to-port="0"/>
		<edge from-layer="514" from-port="1" to-layer="515" to-port="1"/>
		<edge from-layer="515" from-port="2" to-layer="517" to-port="0"/>
		<edge from-layer="516" from-port="0" to-layer="517" to-port="1"/>
		<edge from-layer="517" from-port="2" to-layer="518" to-port="1"/>
		<edge from-layer="518" from-port="2" to-layer="520" to-port="0"/>
		<edge from-layer="519" from-port="0" to-layer="520" to-port="1"/>
		<edge from-layer="520" from-port="2" to-layer="529" to-port="0"/>
		<edge from-layer="520" from-port="2" to-layer="522" to-port="0"/>
		<edge from-layer="521" from-port="0" to-layer="522" to-port="1"/>
		<edge from-layer="522" from-port="2" to-layer="533" to-port="0"/>
		<edge from-layer="523" from-port="0" to-layer="525" to-port="1"/>
		<edge from-layer="524" from-port="0" to-layer="525" to-port="2"/>
		<edge from-layer="525" from-port="3" to-layer="526" to-port="0"/>
		<edge from-layer="526" from-port="1" to-layer="528" to-port="0"/>
		<edge from-layer="527" from-port="0" to-layer="528" to-port="1"/>
		<edge from-layer="528" from-port="2" to-layer="530" to-port="0"/>
		<edge from-layer="529" from-port="1" to-layer="530" to-port="1"/>
		<edge from-layer="530" from-port="2" to-layer="532" to-port="0"/>
		<edge from-layer="531" from-port="0" to-layer="532" to-port="1"/>
		<edge from-layer="532" from-port="2" to-layer="533" to-port="1"/>
		<edge from-layer="533" from-port="2" to-layer="535" to-port="0"/>
		<edge from-layer="534" from-port="0" to-layer="535" to-port="1"/>
		<edge from-layer="535" from-port="2" to-layer="537" to-port="0"/>
		<edge from-layer="536" from-port="0" to-layer="537" to-port="1"/>
		<edge from-layer="537" from-port="2" to-layer="598" to-port="1"/>
		<edge from-layer="538" from-port="0" to-layer="539" to-port="1"/>
		<edge from-layer="539" from-port="2" to-layer="540" to-port="1"/>
		<edge from-layer="540" from-port="2" to-layer="542" to-port="0"/>
		<edge from-layer="540" from-port="2" to-layer="544" to-port="0"/>
		<edge from-layer="541" from-port="0" to-layer="542" to-port="1"/>
		<edge from-layer="542" from-port="2" to-layer="548" to-port="0"/>
		<edge from-layer="543" from-port="0" to-layer="545" to-port="0"/>
		<edge from-layer="544" from-port="1" to-layer="545" to-port="1"/>
		<edge from-layer="545" from-port="2" to-layer="547" to-port="0"/>
		<edge from-layer="546" from-port="0" to-layer="547" to-port="1"/>
		<edge from-layer="547" from-port="2" to-layer="548" to-port="1"/>
		<edge from-layer="548" from-port="2" to-layer="550" to-port="0"/>
		<edge from-layer="549" from-port="0" to-layer="550" to-port="1"/>
		<edge from-layer="550" from-port="2" to-layer="559" to-port="0"/>
		<edge from-layer="550" from-port="2" to-layer="552" to-port="0"/>
		<edge from-layer="551" from-port="0" to-layer="552" to-port="1"/>
		<edge from-layer="552" from-port="2" to-layer="563" to-port="0"/>
		<edge from-layer="553" from-port="0" to-layer="555" to-port="1"/>
		<edge from-layer="554" from-port="0" to-layer="555" to-port="2"/>
		<edge from-layer="555" from-port="3" to-layer="556" to-port="0"/>
		<edge from-layer="556" from-port="1" to-layer="558" to-port="0"/>
		<edge from-layer="557" from-port="0" to-layer="558" to-port="1"/>
		<edge from-layer="558" from-port="2" to-layer="560" to-port="0"/>
		<edge from-layer="559" from-port="1" to-layer="560" to-port="1"/>
		<edge from-layer="560" from-port="2" to-layer="562" to-port="0"/>
		<edge from-layer="561" from-port="0" to-layer="562" to-port="1"/>
		<edge from-layer="562" from-port="2" to-layer="563" to-port="1"/>
		<edge from-layer="563" from-port="2" to-layer="565" to-port="0"/>
		<edge from-layer="564" from-port="0" to-layer="565" to-port="1"/>
		<edge from-layer="565" from-port="2" to-layer="567" to-port="0"/>
		<edge from-layer="566" from-port="0" to-layer="567" to-port="1"/>
		<edge from-layer="567" from-port="2" to-layer="598" to-port="2"/>
		<edge from-layer="568" from-port="0" to-layer="569" to-port="1"/>
		<edge from-layer="569" from-port="2" to-layer="570" to-port="1"/>
		<edge from-layer="570" from-port="2" to-layer="572" to-port="0"/>
		<edge from-layer="570" from-port="2" to-layer="574" to-port="0"/>
		<edge from-layer="571" from-port="0" to-layer="572" to-port="1"/>
		<edge from-layer="572" from-port="2" to-layer="578" to-port="0"/>
		<edge from-layer="573" from-port="0" to-layer="575" to-port="0"/>
		<edge from-layer="574" from-port="1" to-layer="575" to-port="1"/>
		<edge from-layer="575" from-port="2" to-layer="577" to-port="0"/>
		<edge from-layer="576" from-port="0" to-layer="577" to-port="1"/>
		<edge from-layer="577" from-port="2" to-layer="578" to-port="1"/>
		<edge from-layer="578" from-port="2" to-layer="580" to-port="0"/>
		<edge from-layer="579" from-port="0" to-layer="580" to-port="1"/>
		<edge from-layer="580" from-port="2" to-layer="582" to-port="0"/>
		<edge from-layer="580" from-port="2" to-layer="589" to-port="0"/>
		<edge from-layer="581" from-port="0" to-layer="582" to-port="1"/>
		<edge from-layer="582" from-port="2" to-layer="593" to-port="0"/>
		<edge from-layer="583" from-port="0" to-layer="585" to-port="1"/>
		<edge from-layer="584" from-port="0" to-layer="585" to-port="2"/>
		<edge from-layer="585" from-port="3" to-layer="586" to-port="0"/>
		<edge from-layer="586" from-port="1" to-layer="588" to-port="0"/>
		<edge from-layer="587" from-port="0" to-layer="588" to-port="1"/>
		<edge from-layer="588" from-port="2" to-layer="590" to-port="0"/>
		<edge from-layer="589" from-port="1" to-layer="590" to-port="1"/>
		<edge from-layer="590" from-port="2" to-layer="592" to-port="0"/>
		<edge from-layer="591" from-port="0" to-layer="592" to-port="1"/>
		<edge from-layer="592" from-port="2" to-layer="593" to-port="1"/>
		<edge from-layer="593" from-port="2" to-layer="595" to-port="0"/>
		<edge from-layer="594" from-port="0" to-layer="595" to-port="1"/>
		<edge from-layer="595" from-port="2" to-layer="597" to-port="0"/>
		<edge from-layer="596" from-port="0" to-layer="597" to-port="1"/>
		<edge from-layer="597" from-port="2" to-layer="598" to-port="3"/>
		<edge from-layer="598" from-port="4" to-layer="599" to-port="0"/>
		<edge from-layer="599" from-port="2" to-layer="893" to-port="0"/>
		<edge from-layer="600" from-port="0" to-layer="653" to-port="0"/>
		<edge from-layer="601" from-port="0" to-layer="616" to-port="0"/>
		<edge from-layer="602" from-port="0" to-layer="603" to-port="1"/>
		<edge from-layer="603" from-port="2" to-layer="605" to-port="0"/>
		<edge from-layer="604" from-port="0" to-layer="605" to-port="1"/>
		<edge from-layer="605" from-port="2" to-layer="606" to-port="0"/>
		<edge from-layer="606" from-port="1" to-layer="608" to-port="0"/>
		<edge from-layer="607" from-port="0" to-layer="608" to-port="1"/>
		<edge from-layer="608" from-port="2" to-layer="610" to-port="0"/>
		<edge from-layer="609" from-port="0" to-layer="610" to-port="1"/>
		<edge from-layer="610" from-port="2" to-layer="910" to-port="0"/>
		<edge from-layer="610" from-port="2" to-layer="611" to-port="0"/>
		<edge from-layer="611" from-port="1" to-layer="624" to-port="0"/>
		<edge from-layer="611" from-port="1" to-layer="614" to-port="0"/>
		<edge from-layer="612" from-port="0" to-layer="614" to-port="1"/>
		<edge from-layer="613" from-port="0" to-layer="614" to-port="2"/>
		<edge from-layer="614" from-port="3" to-layer="616" to-port="1"/>
		<edge from-layer="615" from-port="0" to-layer="616" to-port="2"/>
		<edge from-layer="616" from-port="3" to-layer="618" to-port="0"/>
		<edge from-layer="617" from-port="0" to-layer="618" to-port="1"/>
		<edge from-layer="618" from-port="2" to-layer="638" to-port="0"/>
		<edge from-layer="618" from-port="2" to-layer="620" to-port="0"/>
		<edge from-layer="619" from-port="0" to-layer="620" to-port="1"/>
		<edge from-layer="620" from-port="2" to-layer="630" to-port="0"/>
		<edge from-layer="621" from-port="0" to-layer="626" to-port="0"/>
		<edge from-layer="622" from-port="0" to-layer="624" to-port="1"/>
		<edge from-layer="623" from-port="0" to-layer="624" to-port="2"/>
		<edge from-layer="624" from-port="3" to-layer="626" to-port="1"/>
		<edge from-layer="625" from-port="0" to-layer="626" to-port="2"/>
		<edge from-layer="626" from-port="3" to-layer="628" to-port="0"/>
		<edge from-layer="627" from-port="0" to-layer="628" to-port="1"/>
		<edge from-layer="628" from-port="2" to-layer="634" to-port="0"/>
		<edge from-layer="628" from-port="2" to-layer="629" to-port="0"/>
		<edge from-layer="629" from-port="1" to-layer="630" to-port="1"/>
		<edge from-layer="630" from-port="2" to-layer="632" to-port="0"/>
		<edge from-layer="630" from-port="2" to-layer="646" to-port="0"/>
		<edge from-layer="631" from-port="0" to-layer="632" to-port="1"/>
		<edge from-layer="632" from-port="2" to-layer="649" to-port="0"/>
		<edge from-layer="633" from-port="0" to-layer="634" to-port="1"/>
		<edge from-layer="634" from-port="2" to-layer="636" to-port="0"/>
		<edge from-layer="635" from-port="0" to-layer="636" to-port="1"/>
		<edge from-layer="636" from-port="2" to-layer="640" to-port="0"/>
		<edge from-layer="637" from-port="0" to-layer="639" to-port="0"/>
		<edge from-layer="638" from-port="1" to-layer="639" to-port="1"/>
		<edge from-layer="639" from-port="2" to-layer="640" to-port="1"/>
		<edge from-layer="640" from-port="2" to-layer="642" to-port="0"/>
		<edge from-layer="641" from-port="0" to-layer="642" to-port="1"/>
		<edge from-layer="642" from-port="2" to-layer="648" to-port="0"/>
		<edge from-layer="642" from-port="2" to-layer="644" to-port="0"/>
		<edge from-layer="643" from-port="0" to-layer="644" to-port="1"/>
		<edge from-layer="644" from-port="2" to-layer="649" to-port="1"/>
		<edge from-layer="645" from-port="0" to-layer="646" to-port="1"/>
		<edge from-layer="646" from-port="2" to-layer="649" to-port="2"/>
		<edge from-layer="647" from-port="0" to-layer="648" to-port="1"/>
		<edge from-layer="648" from-port="2" to-layer="649" to-port="3"/>
		<edge from-layer="649" from-port="4" to-layer="650" to-port="0"/>
		<edge from-layer="650" from-port="1" to-layer="652" to-port="0"/>
		<edge from-layer="651" from-port="0" to-layer="652" to-port="1"/>
		<edge from-layer="652" from-port="2" to-layer="653" to-port="1"/>
		<edge from-layer="653" from-port="2" to-layer="655" to-port="0"/>
		<edge from-layer="654" from-port="0" to-layer="655" to-port="1"/>
		<edge from-layer="655" from-port="2" to-layer="661" to-port="0"/>
		<edge from-layer="655" from-port="2" to-layer="783" to-port="0"/>
		<edge from-layer="655" from-port="2" to-layer="786" to-port="0"/>
		<edge from-layer="655" from-port="2" to-layer="658" to-port="0"/>
		<edge from-layer="655" from-port="2" to-layer="769" to-port="0"/>
		<edge from-layer="655" from-port="2" to-layer="766" to-port="0"/>
		<edge from-layer="655" from-port="2" to-layer="719" to-port="0"/>
		<edge from-layer="655" from-port="2" to-layer="716" to-port="0"/>
		<edge from-layer="656" from-port="0" to-layer="658" to-port="1"/>
		<edge from-layer="657" from-port="0" to-layer="658" to-port="2"/>
		<edge from-layer="658" from-port="3" to-layer="662" to-port="0"/>
		<edge from-layer="659" from-port="0" to-layer="661" to-port="1"/>
		<edge from-layer="660" from-port="0" to-layer="661" to-port="2"/>
		<edge from-layer="661" from-port="3" to-layer="662" to-port="1"/>
		<edge from-layer="662" from-port="2" to-layer="664" to-port="0"/>
		<edge from-layer="663" from-port="0" to-layer="664" to-port="1"/>
		<edge from-layer="664" from-port="2" to-layer="666" to-port="0"/>
		<edge from-layer="665" from-port="0" to-layer="666" to-port="1"/>
		<edge from-layer="666" from-port="2" to-layer="713" to-port="0"/>
		<edge from-layer="667" from-port="0" to-layer="668" to-port="1"/>
		<edge from-layer="668" from-port="2" to-layer="670" to-port="0"/>
		<edge from-layer="669" from-port="0" to-layer="670" to-port="1"/>
		<edge from-layer="670" from-port="2" to-layer="671" to-port="0"/>
		<edge from-layer="671" from-port="1" to-layer="673" to-port="0"/>
		<edge from-layer="672" from-port="0" to-layer="673" to-port="1"/>
		<edge from-layer="673" from-port="2" to-layer="675" to-port="0"/>
		<edge from-layer="674" from-port="0" to-layer="675" to-port="1"/>
		<edge from-layer="675" from-port="2" to-layer="678" to-port="0"/>
		<edge from-layer="676" from-port="0" to-layer="678" to-port="1"/>
		<edge from-layer="677" from-port="0" to-layer="678" to-port="2"/>
		<edge from-layer="678" from-port="3" to-layer="680" to-port="0"/>
		<edge from-layer="679" from-port="0" to-layer="680" to-port="1"/>
		<edge from-layer="680" from-port="2" to-layer="682" to-port="0"/>
		<edge from-layer="681" from-port="0" to-layer="682" to-port="1"/>
		<edge from-layer="682" from-port="2" to-layer="685" to-port="0"/>
		<edge from-layer="682" from-port="2" to-layer="695" to-port="0"/>
		<edge from-layer="683" from-port="0" to-layer="694" to-port="0"/>
		<edge from-layer="684" from-port="0" to-layer="693" to-port="0"/>
		<edge from-layer="685" from-port="1" to-layer="688" to-port="0"/>
		<edge from-layer="685" from-port="1" to-layer="892" to-port="1"/>
		<edge from-layer="685" from-port="1" to-layer="700" to-port="0"/>
		<edge from-layer="686" from-port="0" to-layer="688" to-port="1"/>
		<edge from-layer="687" from-port="0" to-layer="688" to-port="2"/>
		<edge from-layer="688" from-port="3" to-layer="690" to-port="0"/>
		<edge from-layer="689" from-port="0" to-layer="690" to-port="1"/>
		<edge from-layer="690" from-port="2" to-layer="692" to-port="0"/>
		<edge from-layer="691" from-port="0" to-layer="692" to-port="1"/>
		<edge from-layer="692" from-port="2" to-layer="693" to-port="1"/>
		<edge from-layer="693" from-port="2" to-layer="694" to-port="1"/>
		<edge from-layer="694" from-port="2" to-layer="695" to-port="1"/>
		<edge from-layer="695" from-port="2" to-layer="707" to-port="0"/>
		<edge from-layer="696" from-port="0" to-layer="706" to-port="0"/>
		<edge from-layer="697" from-port="0" to-layer="705" to-port="0"/>
		<edge from-layer="698" from-port="0" to-layer="700" to-port="1"/>
		<edge from-layer="699" from-port="0" to-layer="700" to-port="2"/>
		<edge from-layer="700" from-port="3" to-layer="702" to-port="0"/>
		<edge from-layer="701" from-port="0" to-layer="702" to-port="1"/>
		<edge from-layer="702" from-port="2" to-layer="704" to-port="0"/>
		<edge from-layer="703" from-port="0" to-layer="704" to-port="1"/>
		<edge from-layer="704" from-port="2" to-layer="705" to-port="1"/>
		<edge from-layer="705" from-port="2" to-layer="706" to-port="1"/>
		<edge from-layer="706" from-port="2" to-layer="707" to-port="1"/>
		<edge from-layer="707" from-port="2" to-layer="778" to-port="0"/>
		<edge from-layer="707" from-port="2" to-layer="793" to-port="0"/>
		<edge from-layer="707" from-port="2" to-layer="726" to-port="0"/>
		<edge from-layer="707" from-port="2" to-layer="711" to-port="0"/>
		<edge from-layer="708" from-port="0" to-layer="711" to-port="1"/>
		<edge from-layer="709" from-port="0" to-layer="711" to-port="2"/>
		<edge from-layer="710" from-port="0" to-layer="711" to-port="3"/>
		<edge from-layer="711" from-port="4" to-layer="730" to-port="1"/>
		<edge from-layer="711" from-port="4" to-layer="712" to-port="0"/>
		<edge from-layer="712" from-port="1" to-layer="713" to-port="1"/>
		<edge from-layer="713" from-port="2" to-layer="731" to-port="0"/>
		<edge from-layer="714" from-port="0" to-layer="716" to-port="1"/>
		<edge from-layer="715" from-port="0" to-layer="716" to-port="2"/>
		<edge from-layer="716" from-port="3" to-layer="720" to-port="0"/>
		<edge from-layer="717" from-port="0" to-layer="719" to-port="1"/>
		<edge from-layer="718" from-port="0" to-layer="719" to-port="2"/>
		<edge from-layer="719" from-port="3" to-layer="720" to-port="1"/>
		<edge from-layer="720" from-port="2" to-layer="722" to-port="0"/>
		<edge from-layer="721" from-port="0" to-layer="722" to-port="1"/>
		<edge from-layer="722" from-port="2" to-layer="729" to-port="0"/>
		<edge from-layer="723" from-port="0" to-layer="726" to-port="1"/>
		<edge from-layer="724" from-port="0" to-layer="726" to-port="2"/>
		<edge from-layer="725" from-port="0" to-layer="726" to-port="3"/>
		<edge from-layer="726" from-port="4" to-layer="727" to-port="0"/>
		<edge from-layer="727" from-port="1" to-layer="732" to-port="0"/>
		<edge from-layer="727" from-port="1" to-layer="728" to-port="0"/>
		<edge from-layer="728" from-port="1" to-layer="729" to-port="1"/>
		<edge from-layer="729" from-port="2" to-layer="733" to-port="0"/>
		<edge from-layer="729" from-port="2" to-layer="730" to-port="0"/>
		<edge from-layer="730" from-port="2" to-layer="731" to-port="1"/>
		<edge from-layer="731" from-port="2" to-layer="736" to-port="0"/>
		<edge from-layer="731" from-port="2" to-layer="833" to-port="0"/>
		<edge from-layer="732" from-port="1" to-layer="733" to-port="1"/>
		<edge from-layer="733" from-port="2" to-layer="832" to-port="0"/>
		<edge from-layer="733" from-port="2" to-layer="735" to-port="0"/>
		<edge from-layer="734" from-port="0" to-layer="735" to-port="1"/>
		<edge from-layer="735" from-port="2" to-layer="736" to-port="1"/>
		<edge from-layer="736" from-port="2" to-layer="740" to-port="0"/>
		<edge from-layer="736" from-port="2" to-layer="738" to-port="0"/>
		<edge from-layer="737" from-port="0" to-layer="738" to-port="1"/>
		<edge from-layer="738" from-port="2" to-layer="744" to-port="0"/>
		<edge from-layer="739" from-port="0" to-layer="741" to-port="0"/>
		<edge from-layer="740" from-port="1" to-layer="741" to-port="1"/>
		<edge from-layer="741" from-port="2" to-layer="743" to-port="0"/>
		<edge from-layer="742" from-port="0" to-layer="743" to-port="1"/>
		<edge from-layer="743" from-port="2" to-layer="744" to-port="1"/>
		<edge from-layer="744" from-port="2" to-layer="746" to-port="0"/>
		<edge from-layer="745" from-port="0" to-layer="746" to-port="1"/>
		<edge from-layer="746" from-port="2" to-layer="755" to-port="0"/>
		<edge from-layer="746" from-port="2" to-layer="748" to-port="0"/>
		<edge from-layer="747" from-port="0" to-layer="748" to-port="1"/>
		<edge from-layer="748" from-port="2" to-layer="759" to-port="0"/>
		<edge from-layer="749" from-port="0" to-layer="751" to-port="1"/>
		<edge from-layer="750" from-port="0" to-layer="751" to-port="2"/>
		<edge from-layer="751" from-port="3" to-layer="752" to-port="0"/>
		<edge from-layer="752" from-port="1" to-layer="754" to-port="0"/>
		<edge from-layer="753" from-port="0" to-layer="754" to-port="1"/>
		<edge from-layer="754" from-port="2" to-layer="756" to-port="0"/>
		<edge from-layer="755" from-port="1" to-layer="756" to-port="1"/>
		<edge from-layer="756" from-port="2" to-layer="758" to-port="0"/>
		<edge from-layer="757" from-port="0" to-layer="758" to-port="1"/>
		<edge from-layer="758" from-port="2" to-layer="759" to-port="1"/>
		<edge from-layer="759" from-port="2" to-layer="761" to-port="0"/>
		<edge from-layer="760" from-port="0" to-layer="761" to-port="1"/>
		<edge from-layer="761" from-port="2" to-layer="763" to-port="0"/>
		<edge from-layer="762" from-port="0" to-layer="763" to-port="1"/>
		<edge from-layer="763" from-port="2" to-layer="891" to-port="0"/>
		<edge from-layer="764" from-port="0" to-layer="766" to-port="1"/>
		<edge from-layer="765" from-port="0" to-layer="766" to-port="2"/>
		<edge from-layer="766" from-port="3" to-layer="770" to-port="0"/>
		<edge from-layer="767" from-port="0" to-layer="769" to-port="1"/>
		<edge from-layer="768" from-port="0" to-layer="769" to-port="2"/>
		<edge from-layer="769" from-port="3" to-layer="770" to-port="1"/>
		<edge from-layer="770" from-port="2" to-layer="772" to-port="0"/>
		<edge from-layer="771" from-port="0" to-layer="772" to-port="1"/>
		<edge from-layer="772" from-port="2" to-layer="774" to-port="0"/>
		<edge from-layer="773" from-port="0" to-layer="774" to-port="1"/>
		<edge from-layer="774" from-port="2" to-layer="780" to-port="0"/>
		<edge from-layer="775" from-port="0" to-layer="778" to-port="1"/>
		<edge from-layer="776" from-port="0" to-layer="778" to-port="2"/>
		<edge from-layer="777" from-port="0" to-layer="778" to-port="3"/>
		<edge from-layer="778" from-port="4" to-layer="779" to-port="0"/>
		<edge from-layer="778" from-port="4" to-layer="797" to-port="1"/>
		<edge from-layer="779" from-port="1" to-layer="780" to-port="1"/>
		<edge from-layer="780" from-port="2" to-layer="798" to-port="0"/>
		<edge from-layer="781" from-port="0" to-layer="783" to-port="1"/>
		<edge from-layer="782" from-port="0" to-layer="783" to-port="2"/>
		<edge from-layer="783" from-port="3" to-layer="787" to-port="0"/>
		<edge from-layer="784" from-port="0" to-layer="786" to-port="1"/>
		<edge from-layer="785" from-port="0" to-layer="786" to-port="2"/>
		<edge from-layer="786" from-port="3" to-layer="787" to-port="1"/>
		<edge from-layer="787" from-port="2" to-layer="789" to-port="0"/>
		<edge from-layer="788" from-port="0" to-layer="789" to-port="1"/>
		<edge from-layer="789" from-port="2" to-layer="796" to-port="0"/>
		<edge from-layer="790" from-port="0" to-layer="793" to-port="1"/>
		<edge from-layer="791" from-port="0" to-layer="793" to-port="2"/>
		<edge from-layer="792" from-port="0" to-layer="793" to-port="3"/>
		<edge from-layer="793" from-port="4" to-layer="794" to-port="0"/>
		<edge from-layer="794" from-port="1" to-layer="799" to-port="0"/>
		<edge from-layer="794" from-port="1" to-layer="795" to-port="0"/>
		<edge from-layer="795" from-port="1" to-layer="796" to-port="1"/>
		<edge from-layer="796" from-port="2" to-layer="800" to-port="0"/>
		<edge from-layer="796" from-port="2" to-layer="797" to-port="0"/>
		<edge from-layer="797" from-port="2" to-layer="798" to-port="1"/>
		<edge from-layer="798" from-port="2" to-layer="863" to-port="0"/>
		<edge from-layer="798" from-port="2" to-layer="803" to-port="0"/>
		<edge from-layer="799" from-port="1" to-layer="800" to-port="1"/>
		<edge from-layer="800" from-port="2" to-layer="862" to-port="0"/>
		<edge from-layer="800" from-port="2" to-layer="802" to-port="0"/>
		<edge from-layer="801" from-port="0" to-layer="802" to-port="1"/>
		<edge from-layer="802" from-port="2" to-layer="803" to-port="1"/>
		<edge from-layer="803" from-port="2" to-layer="805" to-port="0"/>
		<edge from-layer="803" from-port="2" to-layer="807" to-port="0"/>
		<edge from-layer="804" from-port="0" to-layer="805" to-port="1"/>
		<edge from-layer="805" from-port="2" to-layer="811" to-port="0"/>
		<edge from-layer="806" from-port="0" to-layer="808" to-port="0"/>
		<edge from-layer="807" from-port="1" to-layer="808" to-port="1"/>
		<edge from-layer="808" from-port="2" to-layer="810" to-port="0"/>
		<edge from-layer="809" from-port="0" to-layer="810" to-port="1"/>
		<edge from-layer="810" from-port="2" to-layer="811" to-port="1"/>
		<edge from-layer="811" from-port="2" to-layer="813" to-port="0"/>
		<edge from-layer="812" from-port="0" to-layer="813" to-port="1"/>
		<edge from-layer="813" from-port="2" to-layer="822" to-port="0"/>
		<edge from-layer="813" from-port="2" to-layer="815" to-port="0"/>
		<edge from-layer="814" from-port="0" to-layer="815" to-port="1"/>
		<edge from-layer="815" from-port="2" to-layer="826" to-port="0"/>
		<edge from-layer="816" from-port="0" to-layer="818" to-port="1"/>
		<edge from-layer="817" from-port="0" to-layer="818" to-port="2"/>
		<edge from-layer="818" from-port="3" to-layer="819" to-port="0"/>
		<edge from-layer="819" from-port="1" to-layer="821" to-port="0"/>
		<edge from-layer="820" from-port="0" to-layer="821" to-port="1"/>
		<edge from-layer="821" from-port="2" to-layer="823" to-port="0"/>
		<edge from-layer="822" from-port="1" to-layer="823" to-port="1"/>
		<edge from-layer="823" from-port="2" to-layer="825" to-port="0"/>
		<edge from-layer="824" from-port="0" to-layer="825" to-port="1"/>
		<edge from-layer="825" from-port="2" to-layer="826" to-port="1"/>
		<edge from-layer="826" from-port="2" to-layer="828" to-port="0"/>
		<edge from-layer="827" from-port="0" to-layer="828" to-port="1"/>
		<edge from-layer="828" from-port="2" to-layer="830" to-port="0"/>
		<edge from-layer="829" from-port="0" to-layer="830" to-port="1"/>
		<edge from-layer="830" from-port="2" to-layer="891" to-port="1"/>
		<edge from-layer="831" from-port="0" to-layer="832" to-port="1"/>
		<edge from-layer="832" from-port="2" to-layer="833" to-port="1"/>
		<edge from-layer="833" from-port="2" to-layer="835" to-port="0"/>
		<edge from-layer="833" from-port="2" to-layer="837" to-port="0"/>
		<edge from-layer="834" from-port="0" to-layer="835" to-port="1"/>
		<edge from-layer="835" from-port="2" to-layer="841" to-port="0"/>
		<edge from-layer="836" from-port="0" to-layer="838" to-port="0"/>
		<edge from-layer="837" from-port="1" to-layer="838" to-port="1"/>
		<edge from-layer="838" from-port="2" to-layer="840" to-port="0"/>
		<edge from-layer="839" from-port="0" to-layer="840" to-port="1"/>
		<edge from-layer="840" from-port="2" to-layer="841" to-port="1"/>
		<edge from-layer="841" from-port="2" to-layer="843" to-port="0"/>
		<edge from-layer="842" from-port="0" to-layer="843" to-port="1"/>
		<edge from-layer="843" from-port="2" to-layer="852" to-port="0"/>
		<edge from-layer="843" from-port="2" to-layer="845" to-port="0"/>
		<edge from-layer="844" from-port="0" to-layer="845" to-port="1"/>
		<edge from-layer="845" from-port="2" to-layer="856" to-port="0"/>
		<edge from-layer="846" from-port="0" to-layer="848" to-port="1"/>
		<edge from-layer="847" from-port="0" to-layer="848" to-port="2"/>
		<edge from-layer="848" from-port="3" to-layer="849" to-port="0"/>
		<edge from-layer="849" from-port="1" to-layer="851" to-port="0"/>
		<edge from-layer="850" from-port="0" to-layer="851" to-port="1"/>
		<edge from-layer="851" from-port="2" to-layer="853" to-port="0"/>
		<edge from-layer="852" from-port="1" to-layer="853" to-port="1"/>
		<edge from-layer="853" from-port="2" to-layer="855" to-port="0"/>
		<edge from-layer="854" from-port="0" to-layer="855" to-port="1"/>
		<edge from-layer="855" from-port="2" to-layer="856" to-port="1"/>
		<edge from-layer="856" from-port="2" to-layer="858" to-port="0"/>
		<edge from-layer="857" from-port="0" to-layer="858" to-port="1"/>
		<edge from-layer="858" from-port="2" to-layer="860" to-port="0"/>
		<edge from-layer="859" from-port="0" to-layer="860" to-port="1"/>
		<edge from-layer="860" from-port="2" to-layer="891" to-port="2"/>
		<edge from-layer="861" from-port="0" to-layer="862" to-port="1"/>
		<edge from-layer="862" from-port="2" to-layer="863" to-port="1"/>
		<edge from-layer="863" from-port="2" to-layer="865" to-port="0"/>
		<edge from-layer="863" from-port="2" to-layer="867" to-port="0"/>
		<edge from-layer="864" from-port="0" to-layer="865" to-port="1"/>
		<edge from-layer="865" from-port="2" to-layer="871" to-port="0"/>
		<edge from-layer="866" from-port="0" to-layer="868" to-port="0"/>
		<edge from-layer="867" from-port="1" to-layer="868" to-port="1"/>
		<edge from-layer="868" from-port="2" to-layer="870" to-port="0"/>
		<edge from-layer="869" from-port="0" to-layer="870" to-port="1"/>
		<edge from-layer="870" from-port="2" to-layer="871" to-port="1"/>
		<edge from-layer="871" from-port="2" to-layer="873" to-port="0"/>
		<edge from-layer="872" from-port="0" to-layer="873" to-port="1"/>
		<edge from-layer="873" from-port="2" to-layer="875" to-port="0"/>
		<edge from-layer="873" from-port="2" to-layer="882" to-port="0"/>
		<edge from-layer="874" from-port="0" to-layer="875" to-port="1"/>
		<edge from-layer="875" from-port="2" to-layer="886" to-port="0"/>
		<edge from-layer="876" from-port="0" to-layer="878" to-port="1"/>
		<edge from-layer="877" from-port="0" to-layer="878" to-port="2"/>
		<edge from-layer="878" from-port="3" to-layer="879" to-port="0"/>
		<edge from-layer="879" from-port="1" to-layer="881" to-port="0"/>
		<edge from-layer="880" from-port="0" to-layer="881" to-port="1"/>
		<edge from-layer="881" from-port="2" to-layer="883" to-port="0"/>
		<edge from-layer="882" from-port="1" to-layer="883" to-port="1"/>
		<edge from-layer="883" from-port="2" to-layer="885" to-port="0"/>
		<edge from-layer="884" from-port="0" to-layer="885" to-port="1"/>
		<edge from-layer="885" from-port="2" to-layer="886" to-port="1"/>
		<edge from-layer="886" from-port="2" to-layer="888" to-port="0"/>
		<edge from-layer="887" from-port="0" to-layer="888" to-port="1"/>
		<edge from-layer="888" from-port="2" to-layer="890" to-port="0"/>
		<edge from-layer="889" from-port="0" to-layer="890" to-port="1"/>
		<edge from-layer="890" from-port="2" to-layer="891" to-port="3"/>
		<edge from-layer="891" from-port="4" to-layer="892" to-port="0"/>
		<edge from-layer="892" from-port="2" to-layer="893" to-port="1"/>
		<edge from-layer="893" from-port="2" to-layer="895" to-port="0"/>
		<edge from-layer="894" from-port="0" to-layer="895" to-port="1"/>
		<edge from-layer="895" from-port="2" to-layer="930" to-port="0"/>
		<edge from-layer="896" from-port="0" to-layer="898" to-port="1"/>
		<edge from-layer="897" from-port="0" to-layer="898" to-port="2"/>
		<edge from-layer="898" from-port="3" to-layer="900" to-port="0"/>
		<edge from-layer="899" from-port="0" to-layer="900" to-port="1"/>
		<edge from-layer="900" from-port="2" to-layer="902" to-port="0"/>
		<edge from-layer="901" from-port="0" to-layer="902" to-port="1"/>
		<edge from-layer="902" from-port="2" to-layer="903" to-port="0"/>
		<edge from-layer="903" from-port="1" to-layer="907" to-port="0"/>
		<edge from-layer="904" from-port="0" to-layer="907" to-port="1"/>
		<edge from-layer="905" from-port="0" to-layer="907" to-port="2"/>
		<edge from-layer="906" from-port="0" to-layer="907" to-port="3"/>
		<edge from-layer="907" from-port="4" to-layer="920" to-port="0"/>
		<edge from-layer="908" from-port="0" to-layer="910" to-port="1"/>
		<edge from-layer="909" from-port="0" to-layer="910" to-port="2"/>
		<edge from-layer="910" from-port="3" to-layer="912" to-port="0"/>
		<edge from-layer="911" from-port="0" to-layer="912" to-port="1"/>
		<edge from-layer="912" from-port="2" to-layer="914" to-port="0"/>
		<edge from-layer="913" from-port="0" to-layer="914" to-port="1"/>
		<edge from-layer="914" from-port="2" to-layer="915" to-port="0"/>
		<edge from-layer="915" from-port="1" to-layer="919" to-port="0"/>
		<edge from-layer="916" from-port="0" to-layer="919" to-port="1"/>
		<edge from-layer="917" from-port="0" to-layer="919" to-port="2"/>
		<edge from-layer="918" from-port="0" to-layer="919" to-port="3"/>
		<edge from-layer="919" from-port="4" to-layer="920" to-port="1"/>
		<edge from-layer="920" from-port="2" to-layer="956" to-port="0"/>
		<edge from-layer="920" from-port="2" to-layer="921" to-port="0"/>
		<edge from-layer="921" from-port="1" to-layer="941" to-port="1"/>
		<edge from-layer="921" from-port="1" to-layer="936" to-port="0"/>
		<edge from-layer="921" from-port="1" to-layer="923" to-port="0"/>
		<edge from-layer="922" from-port="0" to-layer="923" to-port="1"/>
		<edge from-layer="923" from-port="2" to-layer="925" to-port="0"/>
		<edge from-layer="924" from-port="0" to-layer="925" to-port="1"/>
		<edge from-layer="925" from-port="2" to-layer="929" to-port="2"/>
		<edge from-layer="925" from-port="2" to-layer="927" to-port="0"/>
		<edge from-layer="926" from-port="0" to-layer="927" to-port="1"/>
		<edge from-layer="927" from-port="2" to-layer="929" to-port="0"/>
		<edge from-layer="928" from-port="0" to-layer="929" to-port="1"/>
		<edge from-layer="929" from-port="3" to-layer="930" to-port="1"/>
		<edge from-layer="930" from-port="2" to-layer="932" to-port="0"/>
		<edge from-layer="931" from-port="0" to-layer="932" to-port="1"/>
		<edge from-layer="932" from-port="2" to-layer="952" to-port="0"/>
		<edge from-layer="932" from-port="2" to-layer="946" to-port="0"/>
		<edge from-layer="932" from-port="2" to-layer="972" to-port="0"/>
		<edge from-layer="933" from-port="0" to-layer="938" to-port="0"/>
		<edge from-layer="934" from-port="0" to-layer="936" to-port="1"/>
		<edge from-layer="935" from-port="0" to-layer="936" to-port="2"/>
		<edge from-layer="936" from-port="3" to-layer="938" to-port="1"/>
		<edge from-layer="937" from-port="0" to-layer="938" to-port="2"/>
		<edge from-layer="938" from-port="3" to-layer="940" to-port="0"/>
		<edge from-layer="939" from-port="0" to-layer="940" to-port="1"/>
		<edge from-layer="940" from-port="2" to-layer="941" to-port="0"/>
		<edge from-layer="941" from-port="2" to-layer="943" to-port="0"/>
		<edge from-layer="942" from-port="0" to-layer="943" to-port="1"/>
		<edge from-layer="943" from-port="2" to-layer="944" to-port="0"/>
		<edge from-layer="943" from-port="2" to-layer="990" to-port="0"/>
		<edge from-layer="944" from-port="1" to-layer="949" to-port="0"/>
		<edge from-layer="945" from-port="0" to-layer="946" to-port="1"/>
		<edge from-layer="946" from-port="2" to-layer="948" to-port="0"/>
		<edge from-layer="947" from-port="0" to-layer="948" to-port="1"/>
		<edge from-layer="948" from-port="2" to-layer="949" to-port="1"/>
		<edge from-layer="949" from-port="2" to-layer="951" to-port="0"/>
		<edge from-layer="950" from-port="0" to-layer="951" to-port="1"/>
		<edge from-layer="951" from-port="2" to-layer="952" to-port="1"/>
		<edge from-layer="952" from-port="2" to-layer="975" to-port="0"/>
		<edge from-layer="952" from-port="2" to-layer="954" to-port="0"/>
		<edge from-layer="953" from-port="0" to-layer="954" to-port="1"/>
		<edge from-layer="954" from-port="2" to-layer="964" to-port="0"/>
		<edge from-layer="955" from-port="0" to-layer="956" to-port="1"/>
		<edge from-layer="956" from-port="2" to-layer="958" to-port="0"/>
		<edge from-layer="956" from-port="2" to-layer="978" to-port="0"/>
		<edge from-layer="957" from-port="0" to-layer="958" to-port="1"/>
		<edge from-layer="958" from-port="2" to-layer="960" to-port="0"/>
		<edge from-layer="959" from-port="0" to-layer="960" to-port="1"/>
		<edge from-layer="960" from-port="2" to-layer="964" to-port="1"/>
		<edge from-layer="961" from-port="0" to-layer="964" to-port="2"/>
		<edge from-layer="962" from-port="0" to-layer="964" to-port="3"/>
		<edge from-layer="963" from-port="0" to-layer="964" to-port="4"/>
		<edge from-layer="964" from-port="5" to-layer="967" to-port="0"/>
		<edge from-layer="965" from-port="0" to-layer="967" to-port="1"/>
		<edge from-layer="966" from-port="0" to-layer="967" to-port="2"/>
		<edge from-layer="967" from-port="3" to-layer="969" to-port="0"/>
		<edge from-layer="968" from-port="0" to-layer="969" to-port="1"/>
		<edge from-layer="969" from-port="2" to-layer="976" to-port="0"/>
		<edge from-layer="969" from-port="2" to-layer="988" to-port="0"/>
		<edge from-layer="969" from-port="2" to-layer="970" to-port="0"/>
		<edge from-layer="969" from-port="2" to-layer="973" to-port="0"/>
		<edge from-layer="970" from-port="1" to-layer="972" to-port="1"/>
		<edge from-layer="971" from-port="0" to-layer="972" to-port="2"/>
		<edge from-layer="972" from-port="3" to-layer="987" to-port="0"/>
		<edge from-layer="973" from-port="1" to-layer="975" to-port="1"/>
		<edge from-layer="974" from-port="0" to-layer="975" to-port="2"/>
		<edge from-layer="975" from-port="3" to-layer="981" to-port="0"/>
		<edge from-layer="976" from-port="1" to-layer="978" to-port="1"/>
		<edge from-layer="977" from-port="0" to-layer="978" to-port="2"/>
		<edge from-layer="978" from-port="3" to-layer="980" to-port="0"/>
		<edge from-layer="979" from-port="0" to-layer="980" to-port="1"/>
		<edge from-layer="980" from-port="2" to-layer="981" to-port="1"/>
		<edge from-layer="981" from-port="2" to-layer="984" to-port="0"/>
		<edge from-layer="982" from-port="0" to-layer="984" to-port="1"/>
		<edge from-layer="983" from-port="0" to-layer="984" to-port="2"/>
		<edge from-layer="984" from-port="3" to-layer="986" to-port="0"/>
		<edge from-layer="985" from-port="0" to-layer="986" to-port="1"/>
		<edge from-layer="986" from-port="2" to-layer="987" to-port="1"/>
		<edge from-layer="987" from-port="2" to-layer="994" to-port="0"/>
		<edge from-layer="988" from-port="1" to-layer="990" to-port="1"/>
		<edge from-layer="989" from-port="0" to-layer="990" to-port="2"/>
		<edge from-layer="990" from-port="3" to-layer="991" to-port="0"/>
		<edge from-layer="991" from-port="1" to-layer="993" to-port="0"/>
		<edge from-layer="992" from-port="0" to-layer="993" to-port="1"/>
		<edge from-layer="993" from-port="2" to-layer="994" to-port="1"/>
		<edge from-layer="994" from-port="2" to-layer="997" to-port="0"/>
		<edge from-layer="994" from-port="2" to-layer="1005" to-port="0"/>
		<edge from-layer="995" from-port="0" to-layer="997" to-port="1"/>
		<edge from-layer="996" from-port="0" to-layer="997" to-port="2"/>
		<edge from-layer="997" from-port="3" to-layer="998" to-port="0"/>
		<edge from-layer="998" from-port="1" to-layer="1000" to-port="0"/>
		<edge from-layer="999" from-port="0" to-layer="1000" to-port="1"/>
		<edge from-layer="1000" from-port="2" to-layer="1001" to-port="0"/>
		<edge from-layer="1002" from-port="0" to-layer="1005" to-port="1"/>
		<edge from-layer="1003" from-port="0" to-layer="1005" to-port="2"/>
		<edge from-layer="1004" from-port="0" to-layer="1005" to-port="3"/>
		<edge from-layer="1005" from-port="4" to-layer="1006" to-port="0"/>
	</edges>
	<meta_data>
		<MO_version value="2022.1.0-7019-cdb9bec7210-releases/2022/1"/>
		<Runtime_version value="2022.1.0-7019-cdb9bec7210-releases/2022/1"/>
		<legacy_path value="False"/>
		<cli_parameters>
			<caffe_parser_path value="DIR"/>
			<compress_fp16 value="False"/>
			<data_type value="FP32"/>
			<disable_nhwc_to_nchw value="False"/>
			<disable_omitting_optional value="False"/>
			<disable_resnet_optimization value="False"/>
			<disable_weights_compression value="False"/>
			<enable_concat_optimization value="False"/>
			<enable_flattening_nested_params value="False"/>
			<enable_ssd_gluoncv value="False"/>
			<extensions value="DIR"/>
			<framework value="onnx"/>
			<freeze_placeholder_with_value value="{}"/>
			<input_model value="DIR/model.onnx"/>
			<input_model_is_text value="False"/>
			<input_shape value="[1, 3, 864, 864]"/>
			<k value="DIR/CustomLayersMapping.xml"/>
			<layout value="()"/>
			<layout_values value="{}"/>
			<legacy_mxnet_model value="False"/>
			<log_level value="ERROR"/>
			<mean_scale_values value="[(array([0., 0., 0.]), array([255., 255., 255.]))]"/>
			<mean_values value="[0, 0, 0]"/>
			<model_name value="model"/>
			<output value="['saliency_map', 'boxes', 'feature_vector', 'labels']"/>
			<output_dir value="DIR"/>
			<placeholder_data_types value="{}"/>
			<placeholder_shapes value="(1, 3, 864, 864)"/>
			<progress value="False"/>
			<remove_memory value="False"/>
			<remove_output_softmax value="False"/>
			<reverse_input_channels value="False"/>
			<save_params_from_nd value="False"/>
			<scale_values value="[255, 255, 255]"/>
			<silent value="False"/>
			<source_layout value="()"/>
			<static_shape value="False"/>
			<stream_output value="False"/>
			<target_layout value="()"/>
			<transform value=""/>
			<use_legacy_frontend value="False"/>
			<use_new_frontend value="False"/>
			<unset unset_cli_parameters="batch, counts, disable_fusing, finegrain_fusing, input, input_checkpoint, input_meta_graph, input_proto, input_symbol, mean_file, mean_file_offsets, nd_prefix_name, pretrained_model_name, saved_model_dir, saved_model_tags, scale, tensorboard_logdir, tensorflow_custom_layer_libraries, tensorflow_custom_operations_config_update, tensorflow_object_detection_api_pipeline_config, tensorflow_use_custom_operations_config, transformations_config"/>
		</cli_parameters>
	</meta_data>
</net>
