<?xml version="1.0" ?>
<net name="torch-jit-export" version="11">
	<layers>
		<layer id="0" name="data" type="Parameter" version="opset1">
			<data shape="1,3,224,224" element_type="f32"/>
			<rt_info>
				<attribute name="fused_names" version="0" value="data"/>
			</rt_info>
			<output>
				<port id="0" precision="FP32" names="data">
					<dim>1</dim>
					<dim>3</dim>
					<dim>224</dim>
					<dim>224</dim>
				</port>
			</output>
		</layer>
		<layer id="1" name="Gather_127193" type="Const" version="opset1">
			<data element_type="f32" shape="1, 3, 1, 1" offset="0" size="12"/>
			<output>
				<port id="0" precision="FP32">
					<dim>1</dim>
					<dim>3</dim>
					<dim>1</dim>
					<dim>1</dim>
				</port>
			</output>
		</layer>
		<layer id="2" name="Subtract_13723" type="Subtract" version="opset1">
			<data auto_broadcast="numpy"/>
			<rt_info>
				<attribute name="fused_names" version="0" value="Subtract_13723"/>
				<attribute name="preprocessing" version="0"/>
			</rt_info>
			<input>
				<port id="0" precision="FP32">
					<dim>1</dim>
					<dim>3</dim>
					<dim>224</dim>
					<dim>224</dim>
				</port>
				<port id="1" precision="FP32">
					<dim>1</dim>
					<dim>3</dim>
					<dim>1</dim>
					<dim>1</dim>
				</port>
			</input>
			<output>
				<port id="2" precision="FP32">
					<dim>1</dim>
					<dim>3</dim>
					<dim>224</dim>
					<dim>224</dim>
				</port>
			</output>
		</layer>
		<layer id="3" name="Gather_127196" type="Const" version="opset1">
			<data element_type="f32" shape="1, 3, 1, 1" offset="12" size="12"/>
			<output>
				<port id="0" precision="FP32">
					<dim>1</dim>
					<dim>3</dim>
					<dim>1</dim>
					<dim>1</dim>
				</port>
			</output>
		</layer>
		<layer id="4" name="Divide_13725" type="Multiply" version="opset1">
			<data auto_broadcast="numpy"/>
			<rt_info>
				<attribute name="fused_names" version="0" value="Constant_13724, Divide_13725"/>
				<attribute name="preprocessing" version="0"/>
			</rt_info>
			<input>
				<port id="0" precision="FP32">
					<dim>1</dim>
					<dim>3</dim>
					<dim>224</dim>
					<dim>224</dim>
				</port>
				<port id="1" precision="FP32">
					<dim>1</dim>
					<dim>3</dim>
					<dim>1</dim>
					<dim>1</dim>
				</port>
			</input>
			<output>
				<port id="2" precision="FP32">
					<dim>1</dim>
					<dim>3</dim>
					<dim>224</dim>
					<dim>224</dim>
				</port>
			</output>
		</layer>
		<layer id="5" name="2182" type="Const" version="opset1">
			<data element_type="i64" shape="" offset="24" size="8"/>
			<rt_info>
				<attribute name="fused_names" version="0" value="2182"/>
			</rt_info>
			<output>
				<port id="0" precision="I64" names="2182"/>
			</output>
		</layer>
		<layer id="6" name="792" type="ShapeOf" version="opset3">
			<data output_type="i64"/>
			<rt_info>
				<attribute name="fused_names" version="0" value="789, 792"/>
			</rt_info>
			<input>
				<port id="0" precision="FP32">
					<dim>1</dim>
					<dim>3</dim>
					<dim>224</dim>
					<dim>224</dim>
				</port>
			</input>
			<output>
				<port id="1" precision="I64" names="789,792">
					<dim>4</dim>
				</port>
			</output>
		</layer>
		<layer id="7" name="793" type="Const" version="opset1">
			<data element_type="i64" shape="" offset="32" size="8"/>
			<rt_info>
				<attribute name="fused_names" version="0" value="793"/>
			</rt_info>
			<output>
				<port id="0" precision="I64" names="793"/>
			</output>
		</layer>
		<layer id="8" name="Constant_365" type="Const" version="opset1">
			<data element_type="i64" shape="" offset="40" size="8"/>
			<rt_info>
				<attribute name="fused_names" version="0" value="Constant_365"/>
			</rt_info>
			<output>
				<port id="0" precision="I64"/>
			</output>
		</layer>
		<layer id="9" name="794" type="Gather" version="opset8">
			<data batch_dims="0"/>
			<rt_info>
				<attribute name="fused_names" version="0" value="793, 794, Constant_365"/>
			</rt_info>
			<input>
				<port id="0" precision="I64">
					<dim>4</dim>
				</port>
				<port id="1" precision="I64"/>
				<port id="2" precision="I64"/>
			</input>
			<output>
				<port id="3" precision="I64" names="794"/>
			</output>
		</layer>
		<layer id="10" name="812" type="Subtract" version="opset1">
			<data auto_broadcast="numpy"/>
			<rt_info>
				<attribute name="fused_names" version="0" value="2182, 812"/>
			</rt_info>
			<input>
				<port id="0" precision="I64"/>
				<port id="1" precision="I64"/>
			</input>
			<output>
				<port id="2" precision="I64" names="812"/>
			</output>
		</layer>
		<layer id="11" name="813" type="Const" version="opset1">
			<data element_type="i64" shape="" offset="48" size="8"/>
			<rt_info>
				<attribute name="fused_names" version="0" value="813"/>
			</rt_info>
			<output>
				<port id="0" precision="I64" names="813"/>
			</output>
		</layer>
		<layer id="12" name="814" type="Divide" version="opset1">
			<data auto_broadcast="numpy" m_pythondiv="true"/>
			<rt_info>
				<attribute name="fused_names" version="0" value="813, 814, 815, 816"/>
			</rt_info>
			<input>
				<port id="0" precision="I64"/>
				<port id="1" precision="I64"/>
			</input>
			<output>
				<port id="2" precision="I64" names="814,815,816"/>
			</output>
		</layer>
		<layer id="13" name="Constant_396" type="Const" version="opset1">
			<data element_type="i64" shape="1" offset="40" size="8"/>
			<rt_info>
				<attribute name="fused_names" version="0" value="Constant_396"/>
			</rt_info>
			<output>
				<port id="0" precision="I64">
					<dim>1</dim>
				</port>
			</output>
		</layer>
		<layer id="14" name="836" type="Unsqueeze" version="opset1">
			<rt_info>
				<attribute name="fused_names" version="0" value="836, Constant_396"/>
			</rt_info>
			<input>
				<port id="0" precision="I64"/>
				<port id="1" precision="I64">
					<dim>1</dim>
				</port>
			</input>
			<output>
				<port id="2" precision="I64" names="836">
					<dim>1</dim>
				</port>
			</output>
		</layer>
		<layer id="15" name="817" type="Const" version="opset1">
			<data element_type="i64" shape="" offset="48" size="8"/>
			<rt_info>
				<attribute name="fused_names" version="0" value="817"/>
			</rt_info>
			<output>
				<port id="0" precision="I64" names="817"/>
			</output>
		</layer>
		<layer id="16" name="818" type="Divide" version="opset1">
			<data auto_broadcast="numpy" m_pythondiv="true"/>
			<rt_info>
				<attribute name="fused_names" version="0" value="817, 818, 819, 820"/>
			</rt_info>
			<input>
				<port id="0" precision="I64"/>
				<port id="1" precision="I64"/>
			</input>
			<output>
				<port id="2" precision="I64" names="818,819,820"/>
			</output>
		</layer>
		<layer id="17" name="821" type="Subtract" version="opset1">
			<data auto_broadcast="numpy"/>
			<rt_info>
				<attribute name="fused_names" version="0" value="821"/>
			</rt_info>
			<input>
				<port id="0" precision="I64"/>
				<port id="1" precision="I64"/>
			</input>
			<output>
				<port id="2" precision="I64" names="821"/>
			</output>
		</layer>
		<layer id="18" name="Constant_398" type="Const" version="opset1">
			<data element_type="i64" shape="1" offset="40" size="8"/>
			<rt_info>
				<attribute name="fused_names" version="0" value="Constant_398"/>
			</rt_info>
			<output>
				<port id="0" precision="I64">
					<dim>1</dim>
				</port>
			</output>
		</layer>
		<layer id="19" name="837" type="Unsqueeze" version="opset1">
			<rt_info>
				<attribute name="fused_names" version="0" value="837, Constant_398"/>
			</rt_info>
			<input>
				<port id="0" precision="I64"/>
				<port id="1" precision="I64">
					<dim>1</dim>
				</port>
			</input>
			<output>
				<port id="2" precision="I64" names="837">
					<dim>1</dim>
				</port>
			</output>
		</layer>
		<layer id="20" name="2178" type="Const" version="opset1">
			<data element_type="i64" shape="" offset="24" size="8"/>
			<rt_info>
				<attribute name="fused_names" version="0" value="2178"/>
			</rt_info>
			<output>
				<port id="0" precision="I64" names="2178"/>
			</output>
		</layer>
		<layer id="21" name="790" type="Const" version="opset1">
			<data element_type="i64" shape="" offset="48" size="8"/>
			<rt_info>
				<attribute name="fused_names" version="0" value="790"/>
			</rt_info>
			<output>
				<port id="0" precision="I64" names="790"/>
			</output>
		</layer>
		<layer id="22" name="Constant_361" type="Const" version="opset1">
			<data element_type="i64" shape="" offset="40" size="8"/>
			<rt_info>
				<attribute name="fused_names" version="0" value="Constant_361"/>
			</rt_info>
			<output>
				<port id="0" precision="I64"/>
			</output>
		</layer>
		<layer id="23" name="791" type="Gather" version="opset8">
			<data batch_dims="0"/>
			<rt_info>
				<attribute name="fused_names" version="0" value="790, 791, Constant_361"/>
			</rt_info>
			<input>
				<port id="0" precision="I64">
					<dim>4</dim>
				</port>
				<port id="1" precision="I64"/>
				<port id="2" precision="I64"/>
			</input>
			<output>
				<port id="3" precision="I64" names="791"/>
			</output>
		</layer>
		<layer id="24" name="803" type="Subtract" version="opset1">
			<data auto_broadcast="numpy"/>
			<rt_info>
				<attribute name="fused_names" version="0" value="2178, 803"/>
			</rt_info>
			<input>
				<port id="0" precision="I64"/>
				<port id="1" precision="I64"/>
			</input>
			<output>
				<port id="2" precision="I64" names="803"/>
			</output>
		</layer>
		<layer id="25" name="822" type="Const" version="opset1">
			<data element_type="i64" shape="" offset="48" size="8"/>
			<rt_info>
				<attribute name="fused_names" version="0" value="822"/>
			</rt_info>
			<output>
				<port id="0" precision="I64" names="822"/>
			</output>
		</layer>
		<layer id="26" name="823" type="Divide" version="opset1">
			<data auto_broadcast="numpy" m_pythondiv="true"/>
			<rt_info>
				<attribute name="fused_names" version="0" value="822, 823, 824, 825"/>
			</rt_info>
			<input>
				<port id="0" precision="I64"/>
				<port id="1" precision="I64"/>
			</input>
			<output>
				<port id="2" precision="I64" names="823,824,825"/>
			</output>
		</layer>
		<layer id="27" name="Constant_400" type="Const" version="opset1">
			<data element_type="i64" shape="1" offset="40" size="8"/>
			<rt_info>
				<attribute name="fused_names" version="0" value="Constant_400"/>
			</rt_info>
			<output>
				<port id="0" precision="I64">
					<dim>1</dim>
				</port>
			</output>
		</layer>
		<layer id="28" name="838" type="Unsqueeze" version="opset1">
			<rt_info>
				<attribute name="fused_names" version="0" value="838, Constant_400"/>
			</rt_info>
			<input>
				<port id="0" precision="I64"/>
				<port id="1" precision="I64">
					<dim>1</dim>
				</port>
			</input>
			<output>
				<port id="2" precision="I64" names="838">
					<dim>1</dim>
				</port>
			</output>
		</layer>
		<layer id="29" name="826" type="Const" version="opset1">
			<data element_type="i64" shape="" offset="48" size="8"/>
			<rt_info>
				<attribute name="fused_names" version="0" value="826"/>
			</rt_info>
			<output>
				<port id="0" precision="I64" names="826"/>
			</output>
		</layer>
		<layer id="30" name="827" type="Divide" version="opset1">
			<data auto_broadcast="numpy" m_pythondiv="true"/>
			<rt_info>
				<attribute name="fused_names" version="0" value="826, 827, 828, 829"/>
			</rt_info>
			<input>
				<port id="0" precision="I64"/>
				<port id="1" precision="I64"/>
			</input>
			<output>
				<port id="2" precision="I64" names="827,828,829"/>
			</output>
		</layer>
		<layer id="31" name="830" type="Subtract" version="opset1">
			<data auto_broadcast="numpy"/>
			<rt_info>
				<attribute name="fused_names" version="0" value="830"/>
			</rt_info>
			<input>
				<port id="0" precision="I64"/>
				<port id="1" precision="I64"/>
			</input>
			<output>
				<port id="2" precision="I64" names="830"/>
			</output>
		</layer>
		<layer id="32" name="Constant_402" type="Const" version="opset1">
			<data element_type="i64" shape="1" offset="40" size="8"/>
			<rt_info>
				<attribute name="fused_names" version="0" value="Constant_402"/>
			</rt_info>
			<output>
				<port id="0" precision="I64">
					<dim>1</dim>
				</port>
			</output>
		</layer>
		<layer id="33" name="839" type="Unsqueeze" version="opset1">
			<rt_info>
				<attribute name="fused_names" version="0" value="839, Constant_402"/>
			</rt_info>
			<input>
				<port id="0" precision="I64"/>
				<port id="1" precision="I64">
					<dim>1</dim>
				</port>
			</input>
			<output>
				<port id="2" precision="I64" names="839">
					<dim>1</dim>
				</port>
			</output>
		</layer>
		<layer id="34" name="840" type="Concat" version="opset1">
			<data axis="0"/>
			<rt_info>
				<attribute name="fused_names" version="0" value="840, 848"/>
			</rt_info>
			<input>
				<port id="0" precision="I64">
					<dim>1</dim>
				</port>
				<port id="1" precision="I64">
					<dim>1</dim>
				</port>
				<port id="2" precision="I64">
					<dim>1</dim>
				</port>
				<port id="3" precision="I64">
					<dim>1</dim>
				</port>
			</input>
			<output>
				<port id="4" precision="I64" names="840,848">
					<dim>4</dim>
				</port>
			</output>
		</layer>
		<layer id="35" name="849" type="Const" version="opset1">
			<data element_type="i64" shape="4" offset="56" size="32"/>
			<output>
				<port id="0" precision="I64" names="849">
					<dim>4</dim>
				</port>
			</output>
		</layer>
		<layer id="36" name="850" type="Concat" version="opset1">
			<data axis="0"/>
			<rt_info>
				<attribute name="fused_names" version="0" value="842, 843, 847, 849, 850"/>
			</rt_info>
			<input>
				<port id="0" precision="I64">
					<dim>4</dim>
				</port>
				<port id="1" precision="I64">
					<dim>4</dim>
				</port>
			</input>
			<output>
				<port id="2" precision="I64" names="850">
					<dim>8</dim>
				</port>
			</output>
		</layer>
		<layer id="37" name="851" type="Const" version="opset1">
			<data element_type="i64" shape="2" offset="88" size="16"/>
			<rt_info>
				<attribute name="fused_names" version="0" value="851"/>
			</rt_info>
			<output>
				<port id="0" precision="I64" names="851">
					<dim>2</dim>
				</port>
			</output>
		</layer>
		<layer id="38" name="852" type="Reshape" version="opset1">
			<data special_zero="true"/>
			<rt_info>
				<attribute name="fused_names" version="0" value="851, 852"/>
			</rt_info>
			<input>
				<port id="0" precision="I64">
					<dim>8</dim>
				</port>
				<port id="1" precision="I64">
					<dim>2</dim>
				</port>
			</input>
			<output>
				<port id="2" precision="I64" names="852">
					<dim>4</dim>
					<dim>2</dim>
				</port>
			</output>
		</layer>
		<layer id="39" name="854" type="Const" version="opset1">
			<data element_type="i64" shape="1" offset="104" size="8"/>
			<rt_info>
				<attribute name="fused_names" version="0" value="853, 854, 855, 856, 857"/>
			</rt_info>
			<output>
				<port id="0" precision="I64" names="854">
					<dim>1</dim>
				</port>
			</output>
		</layer>
		<layer id="40" name="855" type="Const" version="opset1">
			<data element_type="i64" shape="1" offset="112" size="8"/>
			<rt_info>
				<attribute name="fused_names" version="0" value="853, 854, 855, 856, 857"/>
			</rt_info>
			<output>
				<port id="0" precision="I64" names="855">
					<dim>1</dim>
				</port>
			</output>
		</layer>
		<layer id="41" name="856" type="Const" version="opset1">
			<data element_type="i64" shape="1" offset="104" size="8"/>
			<rt_info>
				<attribute name="fused_names" version="0" value="853, 854, 855, 856, 857"/>
			</rt_info>
			<output>
				<port id="0" precision="I64" names="856">
					<dim>1</dim>
				</port>
			</output>
		</layer>
		<layer id="42" name="857" type="StridedSlice" version="opset1">
			<data begin_mask="0" end_mask="0" new_axis_mask="" shrink_axis_mask="" ellipsis_mask=""/>
			<rt_info>
				<attribute name="fused_names" version="0" value="853, 854, 855, 856, 857"/>
			</rt_info>
			<input>
				<port id="0" precision="I64">
					<dim>4</dim>
					<dim>2</dim>
				</port>
				<port id="1" precision="I64">
					<dim>1</dim>
				</port>
				<port id="2" precision="I64">
					<dim>1</dim>
				</port>
				<port id="3" precision="I64">
					<dim>1</dim>
				</port>
			</input>
			<output>
				<port id="4" precision="I64" names="857">
					<dim>4</dim>
					<dim>2</dim>
				</port>
			</output>
		</layer>
		<layer id="43" name="Constant_447" type="Const" version="opset1">
			<data element_type="i64" shape="2" offset="120" size="16"/>
			<rt_info>
				<attribute name="fused_names" version="0" value="Constant_447"/>
			</rt_info>
			<output>
				<port id="0" precision="I64">
					<dim>2</dim>
				</port>
			</output>
		</layer>
		<layer id="44" name="858" type="Transpose" version="opset1">
			<rt_info>
				<attribute name="fused_names" version="0" value="858, Constant_447"/>
			</rt_info>
			<input>
				<port id="0" precision="I64">
					<dim>4</dim>
					<dim>2</dim>
				</port>
				<port id="1" precision="I64">
					<dim>2</dim>
				</port>
			</input>
			<output>
				<port id="2" precision="I64" names="858">
					<dim>2</dim>
					<dim>4</dim>
				</port>
			</output>
		</layer>
		<layer id="45" name="859" type="Const" version="opset1">
			<data element_type="i64" shape="1" offset="104" size="8"/>
			<rt_info>
				<attribute name="fused_names" version="0" value="859"/>
			</rt_info>
			<output>
				<port id="0" precision="I64" names="859">
					<dim>1</dim>
				</port>
			</output>
		</layer>
		<layer id="46" name="860" type="Reshape" version="opset1">
			<data special_zero="true"/>
			<rt_info>
				<attribute name="fused_names" version="0" value="859, 860, 861"/>
			</rt_info>
			<input>
				<port id="0" precision="I64">
					<dim>2</dim>
					<dim>4</dim>
				</port>
				<port id="1" precision="I64">
					<dim>1</dim>
				</port>
			</input>
			<output>
				<port id="2" precision="I64" names="860,861">
					<dim>8</dim>
				</port>
			</output>
		</layer>
		<layer id="47" name="Constant_458" type="Const" version="opset1">
			<data element_type="i64" shape="" offset="40" size="8"/>
			<rt_info>
				<attribute name="fused_names" version="0" value="Constant_458"/>
			</rt_info>
			<output>
				<port id="0" precision="I64"/>
			</output>
		</layer>
		<layer id="48" name="Split_459" type="Split" version="opset1">
			<data num_splits="2"/>
			<rt_info>
				<attribute name="fused_names" version="0" value="Constant_458, Split_459"/>
			</rt_info>
			<input>
				<port id="0" precision="I64">
					<dim>8</dim>
				</port>
				<port id="1" precision="I64"/>
			</input>
			<output>
				<port id="2" precision="I64">
					<dim>4</dim>
				</port>
				<port id="3" precision="I64">
					<dim>4</dim>
				</port>
			</output>
		</layer>
		<layer id="49" name="862" type="Const" version="opset1">
			<data element_type="f32" shape="" offset="136" size="4"/>
			<rt_info>
				<attribute name="fused_names" version="0" value="862"/>
			</rt_info>
			<output>
				<port id="0" precision="FP32" names="862"/>
			</output>
		</layer>
		<layer id="50" name="863" type="Pad" version="opset1">
			<data pad_mode="constant"/>
			<rt_info>
				<attribute name="fused_names" version="0" value="863"/>
			</rt_info>
			<input>
				<port id="0" precision="FP32">
					<dim>1</dim>
					<dim>3</dim>
					<dim>224</dim>
					<dim>224</dim>
				</port>
				<port id="1" precision="I64">
					<dim>4</dim>
				</port>
				<port id="2" precision="I64">
					<dim>4</dim>
				</port>
				<port id="3" precision="FP32"/>
			</input>
			<output>
				<port id="4" precision="FP32" names="863">
					<dim>1</dim>
					<dim>3</dim>
					<dim>225</dim>
					<dim>225</dim>
				</port>
			</output>
		</layer>
		<layer id="51" name="Gather_127199" type="Const" version="opset1">
			<data element_type="f32" shape="24, 3, 3, 3" offset="140" size="2592"/>
			<output>
				<port id="0" precision="FP32">
					<dim>24</dim>
					<dim>3</dim>
					<dim>3</dim>
					<dim>3</dim>
				</port>
			</output>
		</layer>
		<layer id="52" name="Convolution_835" type="Convolution" version="opset1">
			<data strides="2, 2" dilations="1, 1" pads_begin="0, 0" pads_end="0, 0" auto_pad="explicit"/>
			<rt_info>
				<attribute name="fused_names" version="0" value="Convolution_835"/>
			</rt_info>
			<input>
				<port id="0" precision="FP32">
					<dim>1</dim>
					<dim>3</dim>
					<dim>225</dim>
					<dim>225</dim>
				</port>
				<port id="1" precision="FP32">
					<dim>24</dim>
					<dim>3</dim>
					<dim>3</dim>
					<dim>3</dim>
				</port>
			</input>
			<output>
				<port id="2" precision="FP32">
					<dim>1</dim>
					<dim>24</dim>
					<dim>112</dim>
					<dim>112</dim>
				</port>
			</output>
		</layer>
		<layer id="53" name="Reshape_855" type="Const" version="opset1">
			<data element_type="f32" shape="1, 24, 1, 1" offset="2732" size="96"/>
			<output>
				<port id="0" precision="FP32">
					<dim>1</dim>
					<dim>24</dim>
					<dim>1</dim>
					<dim>1</dim>
				</port>
			</output>
		</layer>
		<layer id="54" name="1841" type="Add" version="opset1">
			<data auto_broadcast="numpy"/>
			<rt_info>
				<attribute name="fused_names" version="0" value="1841, Concat_854, Reshape_855"/>
			</rt_info>
			<input>
				<port id="0" precision="FP32">
					<dim>1</dim>
					<dim>24</dim>
					<dim>112</dim>
					<dim>112</dim>
				</port>
				<port id="1" precision="FP32">
					<dim>1</dim>
					<dim>24</dim>
					<dim>1</dim>
					<dim>1</dim>
				</port>
			</input>
			<output>
				<port id="2" precision="FP32" names="1841">
					<dim>1</dim>
					<dim>24</dim>
					<dim>112</dim>
					<dim>112</dim>
				</port>
			</output>
		</layer>
		<layer id="55" name="867" type="Swish" version="opset4">
			<rt_info>
				<attribute name="fused_names" version="0" value="866, 867"/>
			</rt_info>
			<input>
				<port id="0" precision="FP32">
					<dim>1</dim>
					<dim>24</dim>
					<dim>112</dim>
					<dim>112</dim>
				</port>
			</input>
			<output>
				<port id="1" precision="FP32" names="867">
					<dim>1</dim>
					<dim>24</dim>
					<dim>112</dim>
					<dim>112</dim>
				</port>
			</output>
		</layer>
		<layer id="56" name="1845" type="Const" version="opset1">
			<data element_type="f32" shape="24, 24, 3, 3" offset="2828" size="20736"/>
			<rt_info>
				<attribute name="fused_names" version="0" value="1845"/>
			</rt_info>
			<output>
				<port id="0" precision="FP32" names="1845">
					<dim>24</dim>
					<dim>24</dim>
					<dim>3</dim>
					<dim>3</dim>
				</port>
			</output>
		</layer>
		<layer id="57" name="Convolution_885" type="Convolution" version="opset1">
			<data strides="1, 1" dilations="1, 1" pads_begin="1, 1" pads_end="1, 1" auto_pad="explicit"/>
			<rt_info>
				<attribute name="fused_names" version="0" value="Convolution_885"/>
			</rt_info>
			<input>
				<port id="0" precision="FP32">
					<dim>1</dim>
					<dim>24</dim>
					<dim>112</dim>
					<dim>112</dim>
				</port>
				<port id="1" precision="FP32">
					<dim>24</dim>
					<dim>24</dim>
					<dim>3</dim>
					<dim>3</dim>
				</port>
			</input>
			<output>
				<port id="2" precision="FP32">
					<dim>1</dim>
					<dim>24</dim>
					<dim>112</dim>
					<dim>112</dim>
				</port>
			</output>
		</layer>
		<layer id="58" name="Reshape_905" type="Const" version="opset1">
			<data element_type="f32" shape="1, 24, 1, 1" offset="23564" size="96"/>
			<output>
				<port id="0" precision="FP32">
					<dim>1</dim>
					<dim>24</dim>
					<dim>1</dim>
					<dim>1</dim>
				</port>
			</output>
		</layer>
		<layer id="59" name="1844" type="Add" version="opset1">
			<data auto_broadcast="numpy"/>
			<rt_info>
				<attribute name="fused_names" version="0" value="1844, Concat_904, Reshape_905"/>
			</rt_info>
			<input>
				<port id="0" precision="FP32">
					<dim>1</dim>
					<dim>24</dim>
					<dim>112</dim>
					<dim>112</dim>
				</port>
				<port id="1" precision="FP32">
					<dim>1</dim>
					<dim>24</dim>
					<dim>1</dim>
					<dim>1</dim>
				</port>
			</input>
			<output>
				<port id="2" precision="FP32" names="1844">
					<dim>1</dim>
					<dim>24</dim>
					<dim>112</dim>
					<dim>112</dim>
				</port>
			</output>
		</layer>
		<layer id="60" name="871" type="Swish" version="opset4">
			<rt_info>
				<attribute name="fused_names" version="0" value="870, 871"/>
			</rt_info>
			<input>
				<port id="0" precision="FP32">
					<dim>1</dim>
					<dim>24</dim>
					<dim>112</dim>
					<dim>112</dim>
				</port>
			</input>
			<output>
				<port id="1" precision="FP32" names="871">
					<dim>1</dim>
					<dim>24</dim>
					<dim>112</dim>
					<dim>112</dim>
				</port>
			</output>
		</layer>
		<layer id="61" name="872" type="Add" version="opset1">
			<data auto_broadcast="numpy"/>
			<rt_info>
				<attribute name="fused_names" version="0" value="872"/>
			</rt_info>
			<input>
				<port id="0" precision="FP32">
					<dim>1</dim>
					<dim>24</dim>
					<dim>112</dim>
					<dim>112</dim>
				</port>
				<port id="1" precision="FP32">
					<dim>1</dim>
					<dim>24</dim>
					<dim>112</dim>
					<dim>112</dim>
				</port>
			</input>
			<output>
				<port id="2" precision="FP32" names="872">
					<dim>1</dim>
					<dim>24</dim>
					<dim>112</dim>
					<dim>112</dim>
				</port>
			</output>
		</layer>
		<layer id="62" name="1848" type="Const" version="opset1">
			<data element_type="f32" shape="24, 24, 3, 3" offset="23660" size="20736"/>
			<rt_info>
				<attribute name="fused_names" version="0" value="1848"/>
			</rt_info>
			<output>
				<port id="0" precision="FP32" names="1848">
					<dim>24</dim>
					<dim>24</dim>
					<dim>3</dim>
					<dim>3</dim>
				</port>
			</output>
		</layer>
		<layer id="63" name="Convolution_936" type="Convolution" version="opset1">
			<data strides="1, 1" dilations="1, 1" pads_begin="1, 1" pads_end="1, 1" auto_pad="explicit"/>
			<rt_info>
				<attribute name="fused_names" version="0" value="Convolution_936"/>
			</rt_info>
			<input>
				<port id="0" precision="FP32">
					<dim>1</dim>
					<dim>24</dim>
					<dim>112</dim>
					<dim>112</dim>
				</port>
				<port id="1" precision="FP32">
					<dim>24</dim>
					<dim>24</dim>
					<dim>3</dim>
					<dim>3</dim>
				</port>
			</input>
			<output>
				<port id="2" precision="FP32">
					<dim>1</dim>
					<dim>24</dim>
					<dim>112</dim>
					<dim>112</dim>
				</port>
			</output>
		</layer>
		<layer id="64" name="Reshape_956" type="Const" version="opset1">
			<data element_type="f32" shape="1, 24, 1, 1" offset="44396" size="96"/>
			<output>
				<port id="0" precision="FP32">
					<dim>1</dim>
					<dim>24</dim>
					<dim>1</dim>
					<dim>1</dim>
				</port>
			</output>
		</layer>
		<layer id="65" name="1847" type="Add" version="opset1">
			<data auto_broadcast="numpy"/>
			<rt_info>
				<attribute name="fused_names" version="0" value="1847, Concat_955, Reshape_956"/>
			</rt_info>
			<input>
				<port id="0" precision="FP32">
					<dim>1</dim>
					<dim>24</dim>
					<dim>112</dim>
					<dim>112</dim>
				</port>
				<port id="1" precision="FP32">
					<dim>1</dim>
					<dim>24</dim>
					<dim>1</dim>
					<dim>1</dim>
				</port>
			</input>
			<output>
				<port id="2" precision="FP32" names="1847">
					<dim>1</dim>
					<dim>24</dim>
					<dim>112</dim>
					<dim>112</dim>
				</port>
			</output>
		</layer>
		<layer id="66" name="876" type="Swish" version="opset4">
			<rt_info>
				<attribute name="fused_names" version="0" value="875, 876"/>
			</rt_info>
			<input>
				<port id="0" precision="FP32">
					<dim>1</dim>
					<dim>24</dim>
					<dim>112</dim>
					<dim>112</dim>
				</port>
			</input>
			<output>
				<port id="1" precision="FP32" names="876">
					<dim>1</dim>
					<dim>24</dim>
					<dim>112</dim>
					<dim>112</dim>
				</port>
			</output>
		</layer>
		<layer id="67" name="877" type="Add" version="opset1">
			<data auto_broadcast="numpy"/>
			<rt_info>
				<attribute name="fused_names" version="0" value="877"/>
			</rt_info>
			<input>
				<port id="0" precision="FP32">
					<dim>1</dim>
					<dim>24</dim>
					<dim>112</dim>
					<dim>112</dim>
				</port>
				<port id="1" precision="FP32">
					<dim>1</dim>
					<dim>24</dim>
					<dim>112</dim>
					<dim>112</dim>
				</port>
			</input>
			<output>
				<port id="2" precision="FP32" names="877">
					<dim>1</dim>
					<dim>24</dim>
					<dim>112</dim>
					<dim>112</dim>
				</port>
			</output>
		</layer>
		<layer id="68" name="2195" type="Const" version="opset1">
			<data element_type="i64" shape="" offset="44492" size="8"/>
			<rt_info>
				<attribute name="fused_names" version="0" value="2195"/>
			</rt_info>
			<output>
				<port id="0" precision="I64" names="2195"/>
			</output>
		</layer>
		<layer id="69" name="887" type="ShapeOf" version="opset3">
			<data output_type="i64"/>
			<rt_info>
				<attribute name="fused_names" version="0" value="884, 887"/>
			</rt_info>
			<input>
				<port id="0" precision="FP32">
					<dim>1</dim>
					<dim>24</dim>
					<dim>112</dim>
					<dim>112</dim>
				</port>
			</input>
			<output>
				<port id="1" precision="I64" names="884,887">
					<dim>4</dim>
				</port>
			</output>
		</layer>
		<layer id="70" name="888" type="Const" version="opset1">
			<data element_type="i64" shape="" offset="32" size="8"/>
			<rt_info>
				<attribute name="fused_names" version="0" value="888"/>
			</rt_info>
			<output>
				<port id="0" precision="I64" names="888"/>
			</output>
		</layer>
		<layer id="71" name="Constant_993" type="Const" version="opset1">
			<data element_type="i64" shape="" offset="40" size="8"/>
			<rt_info>
				<attribute name="fused_names" version="0" value="Constant_993"/>
			</rt_info>
			<output>
				<port id="0" precision="I64"/>
			</output>
		</layer>
		<layer id="72" name="889" type="Gather" version="opset8">
			<data batch_dims="0"/>
			<rt_info>
				<attribute name="fused_names" version="0" value="888, 889, Constant_993"/>
			</rt_info>
			<input>
				<port id="0" precision="I64">
					<dim>4</dim>
				</port>
				<port id="1" precision="I64"/>
				<port id="2" precision="I64"/>
			</input>
			<output>
				<port id="3" precision="I64" names="889"/>
			</output>
		</layer>
		<layer id="73" name="907" type="Subtract" version="opset1">
			<data auto_broadcast="numpy"/>
			<rt_info>
				<attribute name="fused_names" version="0" value="2195, 907"/>
			</rt_info>
			<input>
				<port id="0" precision="I64"/>
				<port id="1" precision="I64"/>
			</input>
			<output>
				<port id="2" precision="I64" names="907"/>
			</output>
		</layer>
		<layer id="74" name="908" type="Const" version="opset1">
			<data element_type="i64" shape="" offset="48" size="8"/>
			<rt_info>
				<attribute name="fused_names" version="0" value="908"/>
			</rt_info>
			<output>
				<port id="0" precision="I64" names="908"/>
			</output>
		</layer>
		<layer id="75" name="909" type="Divide" version="opset1">
			<data auto_broadcast="numpy" m_pythondiv="true"/>
			<rt_info>
				<attribute name="fused_names" version="0" value="908, 909, 910, 911"/>
			</rt_info>
			<input>
				<port id="0" precision="I64"/>
				<port id="1" precision="I64"/>
			</input>
			<output>
				<port id="2" precision="I64" names="909,910,911"/>
			</output>
		</layer>
		<layer id="76" name="Constant_1024" type="Const" version="opset1">
			<data element_type="i64" shape="1" offset="40" size="8"/>
			<rt_info>
				<attribute name="fused_names" version="0" value="Constant_1024"/>
			</rt_info>
			<output>
				<port id="0" precision="I64">
					<dim>1</dim>
				</port>
			</output>
		</layer>
		<layer id="77" name="931" type="Unsqueeze" version="opset1">
			<rt_info>
				<attribute name="fused_names" version="0" value="931, Constant_1024"/>
			</rt_info>
			<input>
				<port id="0" precision="I64"/>
				<port id="1" precision="I64">
					<dim>1</dim>
				</port>
			</input>
			<output>
				<port id="2" precision="I64" names="931">
					<dim>1</dim>
				</port>
			</output>
		</layer>
		<layer id="78" name="912" type="Const" version="opset1">
			<data element_type="i64" shape="" offset="48" size="8"/>
			<rt_info>
				<attribute name="fused_names" version="0" value="912"/>
			</rt_info>
			<output>
				<port id="0" precision="I64" names="912"/>
			</output>
		</layer>
		<layer id="79" name="913" type="Divide" version="opset1">
			<data auto_broadcast="numpy" m_pythondiv="true"/>
			<rt_info>
				<attribute name="fused_names" version="0" value="912, 913, 914, 915"/>
			</rt_info>
			<input>
				<port id="0" precision="I64"/>
				<port id="1" precision="I64"/>
			</input>
			<output>
				<port id="2" precision="I64" names="913,914,915"/>
			</output>
		</layer>
		<layer id="80" name="916" type="Subtract" version="opset1">
			<data auto_broadcast="numpy"/>
			<rt_info>
				<attribute name="fused_names" version="0" value="916"/>
			</rt_info>
			<input>
				<port id="0" precision="I64"/>
				<port id="1" precision="I64"/>
			</input>
			<output>
				<port id="2" precision="I64" names="916"/>
			</output>
		</layer>
		<layer id="81" name="Constant_1026" type="Const" version="opset1">
			<data element_type="i64" shape="1" offset="40" size="8"/>
			<rt_info>
				<attribute name="fused_names" version="0" value="Constant_1026"/>
			</rt_info>
			<output>
				<port id="0" precision="I64">
					<dim>1</dim>
				</port>
			</output>
		</layer>
		<layer id="82" name="932" type="Unsqueeze" version="opset1">
			<rt_info>
				<attribute name="fused_names" version="0" value="932, Constant_1026"/>
			</rt_info>
			<input>
				<port id="0" precision="I64"/>
				<port id="1" precision="I64">
					<dim>1</dim>
				</port>
			</input>
			<output>
				<port id="2" precision="I64" names="932">
					<dim>1</dim>
				</port>
			</output>
		</layer>
		<layer id="83" name="2191" type="Const" version="opset1">
			<data element_type="i64" shape="" offset="44492" size="8"/>
			<rt_info>
				<attribute name="fused_names" version="0" value="2191"/>
			</rt_info>
			<output>
				<port id="0" precision="I64" names="2191"/>
			</output>
		</layer>
		<layer id="84" name="885" type="Const" version="opset1">
			<data element_type="i64" shape="" offset="48" size="8"/>
			<rt_info>
				<attribute name="fused_names" version="0" value="885"/>
			</rt_info>
			<output>
				<port id="0" precision="I64" names="885"/>
			</output>
		</layer>
		<layer id="85" name="Constant_989" type="Const" version="opset1">
			<data element_type="i64" shape="" offset="40" size="8"/>
			<rt_info>
				<attribute name="fused_names" version="0" value="Constant_989"/>
			</rt_info>
			<output>
				<port id="0" precision="I64"/>
			</output>
		</layer>
		<layer id="86" name="886" type="Gather" version="opset8">
			<data batch_dims="0"/>
			<rt_info>
				<attribute name="fused_names" version="0" value="885, 886, Constant_989"/>
			</rt_info>
			<input>
				<port id="0" precision="I64">
					<dim>4</dim>
				</port>
				<port id="1" precision="I64"/>
				<port id="2" precision="I64"/>
			</input>
			<output>
				<port id="3" precision="I64" names="886"/>
			</output>
		</layer>
		<layer id="87" name="898" type="Subtract" version="opset1">
			<data auto_broadcast="numpy"/>
			<rt_info>
				<attribute name="fused_names" version="0" value="2191, 898"/>
			</rt_info>
			<input>
				<port id="0" precision="I64"/>
				<port id="1" precision="I64"/>
			</input>
			<output>
				<port id="2" precision="I64" names="898"/>
			</output>
		</layer>
		<layer id="88" name="917" type="Const" version="opset1">
			<data element_type="i64" shape="" offset="48" size="8"/>
			<rt_info>
				<attribute name="fused_names" version="0" value="917"/>
			</rt_info>
			<output>
				<port id="0" precision="I64" names="917"/>
			</output>
		</layer>
		<layer id="89" name="918" type="Divide" version="opset1">
			<data auto_broadcast="numpy" m_pythondiv="true"/>
			<rt_info>
				<attribute name="fused_names" version="0" value="917, 918, 919, 920"/>
			</rt_info>
			<input>
				<port id="0" precision="I64"/>
				<port id="1" precision="I64"/>
			</input>
			<output>
				<port id="2" precision="I64" names="918,919,920"/>
			</output>
		</layer>
		<layer id="90" name="Constant_1028" type="Const" version="opset1">
			<data element_type="i64" shape="1" offset="40" size="8"/>
			<rt_info>
				<attribute name="fused_names" version="0" value="Constant_1028"/>
			</rt_info>
			<output>
				<port id="0" precision="I64">
					<dim>1</dim>
				</port>
			</output>
		</layer>
		<layer id="91" name="933" type="Unsqueeze" version="opset1">
			<rt_info>
				<attribute name="fused_names" version="0" value="933, Constant_1028"/>
			</rt_info>
			<input>
				<port id="0" precision="I64"/>
				<port id="1" precision="I64">
					<dim>1</dim>
				</port>
			</input>
			<output>
				<port id="2" precision="I64" names="933">
					<dim>1</dim>
				</port>
			</output>
		</layer>
		<layer id="92" name="921" type="Const" version="opset1">
			<data element_type="i64" shape="" offset="48" size="8"/>
			<rt_info>
				<attribute name="fused_names" version="0" value="921"/>
			</rt_info>
			<output>
				<port id="0" precision="I64" names="921"/>
			</output>
		</layer>
		<layer id="93" name="922" type="Divide" version="opset1">
			<data auto_broadcast="numpy" m_pythondiv="true"/>
			<rt_info>
				<attribute name="fused_names" version="0" value="921, 922, 923, 924"/>
			</rt_info>
			<input>
				<port id="0" precision="I64"/>
				<port id="1" precision="I64"/>
			</input>
			<output>
				<port id="2" precision="I64" names="922,923,924"/>
			</output>
		</layer>
		<layer id="94" name="925" type="Subtract" version="opset1">
			<data auto_broadcast="numpy"/>
			<rt_info>
				<attribute name="fused_names" version="0" value="925"/>
			</rt_info>
			<input>
				<port id="0" precision="I64"/>
				<port id="1" precision="I64"/>
			</input>
			<output>
				<port id="2" precision="I64" names="925"/>
			</output>
		</layer>
		<layer id="95" name="Constant_1030" type="Const" version="opset1">
			<data element_type="i64" shape="1" offset="40" size="8"/>
			<rt_info>
				<attribute name="fused_names" version="0" value="Constant_1030"/>
			</rt_info>
			<output>
				<port id="0" precision="I64">
					<dim>1</dim>
				</port>
			</output>
		</layer>
		<layer id="96" name="934" type="Unsqueeze" version="opset1">
			<rt_info>
				<attribute name="fused_names" version="0" value="934, Constant_1030"/>
			</rt_info>
			<input>
				<port id="0" precision="I64"/>
				<port id="1" precision="I64">
					<dim>1</dim>
				</port>
			</input>
			<output>
				<port id="2" precision="I64" names="934">
					<dim>1</dim>
				</port>
			</output>
		</layer>
		<layer id="97" name="935" type="Concat" version="opset1">
			<data axis="0"/>
			<rt_info>
				<attribute name="fused_names" version="0" value="935, 943"/>
			</rt_info>
			<input>
				<port id="0" precision="I64">
					<dim>1</dim>
				</port>
				<port id="1" precision="I64">
					<dim>1</dim>
				</port>
				<port id="2" precision="I64">
					<dim>1</dim>
				</port>
				<port id="3" precision="I64">
					<dim>1</dim>
				</port>
			</input>
			<output>
				<port id="4" precision="I64" names="935,943">
					<dim>4</dim>
				</port>
			</output>
		</layer>
		<layer id="98" name="944" type="Const" version="opset1">
			<data element_type="i64" shape="4" offset="56" size="32"/>
			<output>
				<port id="0" precision="I64" names="944">
					<dim>4</dim>
				</port>
			</output>
		</layer>
		<layer id="99" name="945" type="Concat" version="opset1">
			<data axis="0"/>
			<rt_info>
				<attribute name="fused_names" version="0" value="937, 938, 942, 944, 945"/>
			</rt_info>
			<input>
				<port id="0" precision="I64">
					<dim>4</dim>
				</port>
				<port id="1" precision="I64">
					<dim>4</dim>
				</port>
			</input>
			<output>
				<port id="2" precision="I64" names="945">
					<dim>8</dim>
				</port>
			</output>
		</layer>
		<layer id="100" name="946" type="Const" version="opset1">
			<data element_type="i64" shape="2" offset="88" size="16"/>
			<rt_info>
				<attribute name="fused_names" version="0" value="946"/>
			</rt_info>
			<output>
				<port id="0" precision="I64" names="946">
					<dim>2</dim>
				</port>
			</output>
		</layer>
		<layer id="101" name="947" type="Reshape" version="opset1">
			<data special_zero="true"/>
			<rt_info>
				<attribute name="fused_names" version="0" value="946, 947"/>
			</rt_info>
			<input>
				<port id="0" precision="I64">
					<dim>8</dim>
				</port>
				<port id="1" precision="I64">
					<dim>2</dim>
				</port>
			</input>
			<output>
				<port id="2" precision="I64" names="947">
					<dim>4</dim>
					<dim>2</dim>
				</port>
			</output>
		</layer>
		<layer id="102" name="949" type="Const" version="opset1">
			<data element_type="i64" shape="1" offset="104" size="8"/>
			<rt_info>
				<attribute name="fused_names" version="0" value="948, 949, 950, 951, 952"/>
			</rt_info>
			<output>
				<port id="0" precision="I64" names="949">
					<dim>1</dim>
				</port>
			</output>
		</layer>
		<layer id="103" name="950" type="Const" version="opset1">
			<data element_type="i64" shape="1" offset="112" size="8"/>
			<rt_info>
				<attribute name="fused_names" version="0" value="948, 949, 950, 951, 952"/>
			</rt_info>
			<output>
				<port id="0" precision="I64" names="950">
					<dim>1</dim>
				</port>
			</output>
		</layer>
		<layer id="104" name="951" type="Const" version="opset1">
			<data element_type="i64" shape="1" offset="104" size="8"/>
			<rt_info>
				<attribute name="fused_names" version="0" value="948, 949, 950, 951, 952"/>
			</rt_info>
			<output>
				<port id="0" precision="I64" names="951">
					<dim>1</dim>
				</port>
			</output>
		</layer>
		<layer id="105" name="952" type="StridedSlice" version="opset1">
			<data begin_mask="0" end_mask="0" new_axis_mask="" shrink_axis_mask="" ellipsis_mask=""/>
			<rt_info>
				<attribute name="fused_names" version="0" value="948, 949, 950, 951, 952"/>
			</rt_info>
			<input>
				<port id="0" precision="I64">
					<dim>4</dim>
					<dim>2</dim>
				</port>
				<port id="1" precision="I64">
					<dim>1</dim>
				</port>
				<port id="2" precision="I64">
					<dim>1</dim>
				</port>
				<port id="3" precision="I64">
					<dim>1</dim>
				</port>
			</input>
			<output>
				<port id="4" precision="I64" names="952">
					<dim>4</dim>
					<dim>2</dim>
				</port>
			</output>
		</layer>
		<layer id="106" name="Constant_1075" type="Const" version="opset1">
			<data element_type="i64" shape="2" offset="120" size="16"/>
			<rt_info>
				<attribute name="fused_names" version="0" value="Constant_1075"/>
			</rt_info>
			<output>
				<port id="0" precision="I64">
					<dim>2</dim>
				</port>
			</output>
		</layer>
		<layer id="107" name="953" type="Transpose" version="opset1">
			<rt_info>
				<attribute name="fused_names" version="0" value="953, Constant_1075"/>
			</rt_info>
			<input>
				<port id="0" precision="I64">
					<dim>4</dim>
					<dim>2</dim>
				</port>
				<port id="1" precision="I64">
					<dim>2</dim>
				</port>
			</input>
			<output>
				<port id="2" precision="I64" names="953">
					<dim>2</dim>
					<dim>4</dim>
				</port>
			</output>
		</layer>
		<layer id="108" name="954" type="Const" version="opset1">
			<data element_type="i64" shape="1" offset="104" size="8"/>
			<rt_info>
				<attribute name="fused_names" version="0" value="954"/>
			</rt_info>
			<output>
				<port id="0" precision="I64" names="954">
					<dim>1</dim>
				</port>
			</output>
		</layer>
		<layer id="109" name="955" type="Reshape" version="opset1">
			<data special_zero="true"/>
			<rt_info>
				<attribute name="fused_names" version="0" value="954, 955, 956"/>
			</rt_info>
			<input>
				<port id="0" precision="I64">
					<dim>2</dim>
					<dim>4</dim>
				</port>
				<port id="1" precision="I64">
					<dim>1</dim>
				</port>
			</input>
			<output>
				<port id="2" precision="I64" names="955,956">
					<dim>8</dim>
				</port>
			</output>
		</layer>
		<layer id="110" name="Constant_1086" type="Const" version="opset1">
			<data element_type="i64" shape="" offset="40" size="8"/>
			<rt_info>
				<attribute name="fused_names" version="0" value="Constant_1086"/>
			</rt_info>
			<output>
				<port id="0" precision="I64"/>
			</output>
		</layer>
		<layer id="111" name="Split_1087" type="Split" version="opset1">
			<data num_splits="2"/>
			<rt_info>
				<attribute name="fused_names" version="0" value="Constant_1086, Split_1087"/>
			</rt_info>
			<input>
				<port id="0" precision="I64">
					<dim>8</dim>
				</port>
				<port id="1" precision="I64"/>
			</input>
			<output>
				<port id="2" precision="I64">
					<dim>4</dim>
				</port>
				<port id="3" precision="I64">
					<dim>4</dim>
				</port>
			</output>
		</layer>
		<layer id="112" name="957" type="Const" version="opset1">
			<data element_type="f32" shape="" offset="136" size="4"/>
			<rt_info>
				<attribute name="fused_names" version="0" value="957"/>
			</rt_info>
			<output>
				<port id="0" precision="FP32" names="957"/>
			</output>
		</layer>
		<layer id="113" name="958" type="Pad" version="opset1">
			<data pad_mode="constant"/>
			<rt_info>
				<attribute name="fused_names" version="0" value="958"/>
			</rt_info>
			<input>
				<port id="0" precision="FP32">
					<dim>1</dim>
					<dim>24</dim>
					<dim>112</dim>
					<dim>112</dim>
				</port>
				<port id="1" precision="I64">
					<dim>4</dim>
				</port>
				<port id="2" precision="I64">
					<dim>4</dim>
				</port>
				<port id="3" precision="FP32"/>
			</input>
			<output>
				<port id="4" precision="FP32" names="958">
					<dim>1</dim>
					<dim>24</dim>
					<dim>113</dim>
					<dim>113</dim>
				</port>
			</output>
		</layer>
		<layer id="114" name="1851" type="Const" version="opset1">
			<data element_type="f32" shape="96, 24, 3, 3" offset="44500" size="82944"/>
			<rt_info>
				<attribute name="fused_names" version="0" value="1851"/>
			</rt_info>
			<output>
				<port id="0" precision="FP32" names="1851">
					<dim>96</dim>
					<dim>24</dim>
					<dim>3</dim>
					<dim>3</dim>
				</port>
			</output>
		</layer>
		<layer id="115" name="Convolution_1463" type="Convolution" version="opset1">
			<data strides="2, 2" dilations="1, 1" pads_begin="0, 0" pads_end="0, 0" auto_pad="explicit"/>
			<rt_info>
				<attribute name="fused_names" version="0" value="Convolution_1463"/>
			</rt_info>
			<input>
				<port id="0" precision="FP32">
					<dim>1</dim>
					<dim>24</dim>
					<dim>113</dim>
					<dim>113</dim>
				</port>
				<port id="1" precision="FP32">
					<dim>96</dim>
					<dim>24</dim>
					<dim>3</dim>
					<dim>3</dim>
				</port>
			</input>
			<output>
				<port id="2" precision="FP32">
					<dim>1</dim>
					<dim>96</dim>
					<dim>56</dim>
					<dim>56</dim>
				</port>
			</output>
		</layer>
		<layer id="116" name="Reshape_1483" type="Const" version="opset1">
			<data element_type="f32" shape="1, 96, 1, 1" offset="127444" size="384"/>
			<output>
				<port id="0" precision="FP32">
					<dim>1</dim>
					<dim>96</dim>
					<dim>1</dim>
					<dim>1</dim>
				</port>
			</output>
		</layer>
		<layer id="117" name="1850" type="Add" version="opset1">
			<data auto_broadcast="numpy"/>
			<rt_info>
				<attribute name="fused_names" version="0" value="1850, Concat_1482, Reshape_1483"/>
			</rt_info>
			<input>
				<port id="0" precision="FP32">
					<dim>1</dim>
					<dim>96</dim>
					<dim>56</dim>
					<dim>56</dim>
				</port>
				<port id="1" precision="FP32">
					<dim>1</dim>
					<dim>96</dim>
					<dim>1</dim>
					<dim>1</dim>
				</port>
			</input>
			<output>
				<port id="2" precision="FP32" names="1850">
					<dim>1</dim>
					<dim>96</dim>
					<dim>56</dim>
					<dim>56</dim>
				</port>
			</output>
		</layer>
		<layer id="118" name="962" type="Swish" version="opset4">
			<rt_info>
				<attribute name="fused_names" version="0" value="961, 962"/>
			</rt_info>
			<input>
				<port id="0" precision="FP32">
					<dim>1</dim>
					<dim>96</dim>
					<dim>56</dim>
					<dim>56</dim>
				</port>
			</input>
			<output>
				<port id="1" precision="FP32" names="962">
					<dim>1</dim>
					<dim>96</dim>
					<dim>56</dim>
					<dim>56</dim>
				</port>
			</output>
		</layer>
		<layer id="119" name="1854" type="Const" version="opset1">
			<data element_type="f32" shape="48, 96, 1, 1" offset="127828" size="18432"/>
			<rt_info>
				<attribute name="fused_names" version="0" value="1854"/>
			</rt_info>
			<output>
				<port id="0" precision="FP32" names="1854">
					<dim>48</dim>
					<dim>96</dim>
					<dim>1</dim>
					<dim>1</dim>
				</port>
			</output>
		</layer>
		<layer id="120" name="Convolution_1513" type="Convolution" version="opset1">
			<data strides="1, 1" dilations="1, 1" pads_begin="0, 0" pads_end="0, 0" auto_pad="explicit"/>
			<rt_info>
				<attribute name="fused_names" version="0" value="Convolution_1513"/>
			</rt_info>
			<input>
				<port id="0" precision="FP32">
					<dim>1</dim>
					<dim>96</dim>
					<dim>56</dim>
					<dim>56</dim>
				</port>
				<port id="1" precision="FP32">
					<dim>48</dim>
					<dim>96</dim>
					<dim>1</dim>
					<dim>1</dim>
				</port>
			</input>
			<output>
				<port id="2" precision="FP32">
					<dim>1</dim>
					<dim>48</dim>
					<dim>56</dim>
					<dim>56</dim>
				</port>
			</output>
		</layer>
		<layer id="121" name="Reshape_1533" type="Const" version="opset1">
			<data element_type="f32" shape="1, 48, 1, 1" offset="146260" size="192"/>
			<output>
				<port id="0" precision="FP32">
					<dim>1</dim>
					<dim>48</dim>
					<dim>1</dim>
					<dim>1</dim>
				</port>
			</output>
		</layer>
		<layer id="122" name="1853" type="Add" version="opset1">
			<data auto_broadcast="numpy"/>
			<rt_info>
				<attribute name="fused_names" version="0" value="1853, Concat_1532, Reshape_1533"/>
			</rt_info>
			<input>
				<port id="0" precision="FP32">
					<dim>1</dim>
					<dim>48</dim>
					<dim>56</dim>
					<dim>56</dim>
				</port>
				<port id="1" precision="FP32">
					<dim>1</dim>
					<dim>48</dim>
					<dim>1</dim>
					<dim>1</dim>
				</port>
			</input>
			<output>
				<port id="2" precision="FP32" names="1853">
					<dim>1</dim>
					<dim>48</dim>
					<dim>56</dim>
					<dim>56</dim>
				</port>
			</output>
		</layer>
		<layer id="123" name="1857" type="Const" version="opset1">
			<data element_type="f32" shape="192, 48, 3, 3" offset="146452" size="331776"/>
			<rt_info>
				<attribute name="fused_names" version="0" value="1857"/>
			</rt_info>
			<output>
				<port id="0" precision="FP32" names="1857">
					<dim>192</dim>
					<dim>48</dim>
					<dim>3</dim>
					<dim>3</dim>
				</port>
			</output>
		</layer>
		<layer id="124" name="Convolution_1561" type="Convolution" version="opset1">
			<data strides="1, 1" dilations="1, 1" pads_begin="1, 1" pads_end="1, 1" auto_pad="explicit"/>
			<rt_info>
				<attribute name="fused_names" version="0" value="Convolution_1561"/>
			</rt_info>
			<input>
				<port id="0" precision="FP32">
					<dim>1</dim>
					<dim>48</dim>
					<dim>56</dim>
					<dim>56</dim>
				</port>
				<port id="1" precision="FP32">
					<dim>192</dim>
					<dim>48</dim>
					<dim>3</dim>
					<dim>3</dim>
				</port>
			</input>
			<output>
				<port id="2" precision="FP32">
					<dim>1</dim>
					<dim>192</dim>
					<dim>56</dim>
					<dim>56</dim>
				</port>
			</output>
		</layer>
		<layer id="125" name="Reshape_1581" type="Const" version="opset1">
			<data element_type="f32" shape="1, 192, 1, 1" offset="478228" size="768"/>
			<output>
				<port id="0" precision="FP32">
					<dim>1</dim>
					<dim>192</dim>
					<dim>1</dim>
					<dim>1</dim>
				</port>
			</output>
		</layer>
		<layer id="126" name="1856" type="Add" version="opset1">
			<data auto_broadcast="numpy"/>
			<rt_info>
				<attribute name="fused_names" version="0" value="1856, Concat_1580, Reshape_1581"/>
			</rt_info>
			<input>
				<port id="0" precision="FP32">
					<dim>1</dim>
					<dim>192</dim>
					<dim>56</dim>
					<dim>56</dim>
				</port>
				<port id="1" precision="FP32">
					<dim>1</dim>
					<dim>192</dim>
					<dim>1</dim>
					<dim>1</dim>
				</port>
			</input>
			<output>
				<port id="2" precision="FP32" names="1856">
					<dim>1</dim>
					<dim>192</dim>
					<dim>56</dim>
					<dim>56</dim>
				</port>
			</output>
		</layer>
		<layer id="127" name="968" type="Swish" version="opset4">
			<rt_info>
				<attribute name="fused_names" version="0" value="967, 968"/>
			</rt_info>
			<input>
				<port id="0" precision="FP32">
					<dim>1</dim>
					<dim>192</dim>
					<dim>56</dim>
					<dim>56</dim>
				</port>
			</input>
			<output>
				<port id="1" precision="FP32" names="968">
					<dim>1</dim>
					<dim>192</dim>
					<dim>56</dim>
					<dim>56</dim>
				</port>
			</output>
		</layer>
		<layer id="128" name="1860" type="Const" version="opset1">
			<data element_type="f32" shape="48, 192, 1, 1" offset="478996" size="36864"/>
			<rt_info>
				<attribute name="fused_names" version="0" value="1860"/>
			</rt_info>
			<output>
				<port id="0" precision="FP32" names="1860">
					<dim>48</dim>
					<dim>192</dim>
					<dim>1</dim>
					<dim>1</dim>
				</port>
			</output>
		</layer>
		<layer id="129" name="Convolution_1611" type="Convolution" version="opset1">
			<data strides="1, 1" dilations="1, 1" pads_begin="0, 0" pads_end="0, 0" auto_pad="explicit"/>
			<rt_info>
				<attribute name="fused_names" version="0" value="Convolution_1611"/>
			</rt_info>
			<input>
				<port id="0" precision="FP32">
					<dim>1</dim>
					<dim>192</dim>
					<dim>56</dim>
					<dim>56</dim>
				</port>
				<port id="1" precision="FP32">
					<dim>48</dim>
					<dim>192</dim>
					<dim>1</dim>
					<dim>1</dim>
				</port>
			</input>
			<output>
				<port id="2" precision="FP32">
					<dim>1</dim>
					<dim>48</dim>
					<dim>56</dim>
					<dim>56</dim>
				</port>
			</output>
		</layer>
		<layer id="130" name="Reshape_1631" type="Const" version="opset1">
			<data element_type="f32" shape="1, 48, 1, 1" offset="515860" size="192"/>
			<output>
				<port id="0" precision="FP32">
					<dim>1</dim>
					<dim>48</dim>
					<dim>1</dim>
					<dim>1</dim>
				</port>
			</output>
		</layer>
		<layer id="131" name="1859" type="Add" version="opset1">
			<data auto_broadcast="numpy"/>
			<rt_info>
				<attribute name="fused_names" version="0" value="1859, Concat_1630, Reshape_1631"/>
			</rt_info>
			<input>
				<port id="0" precision="FP32">
					<dim>1</dim>
					<dim>48</dim>
					<dim>56</dim>
					<dim>56</dim>
				</port>
				<port id="1" precision="FP32">
					<dim>1</dim>
					<dim>48</dim>
					<dim>1</dim>
					<dim>1</dim>
				</port>
			</input>
			<output>
				<port id="2" precision="FP32" names="1859">
					<dim>1</dim>
					<dim>48</dim>
					<dim>56</dim>
					<dim>56</dim>
				</port>
			</output>
		</layer>
		<layer id="132" name="971" type="Add" version="opset1">
			<data auto_broadcast="numpy"/>
			<rt_info>
				<attribute name="fused_names" version="0" value="971"/>
			</rt_info>
			<input>
				<port id="0" precision="FP32">
					<dim>1</dim>
					<dim>48</dim>
					<dim>56</dim>
					<dim>56</dim>
				</port>
				<port id="1" precision="FP32">
					<dim>1</dim>
					<dim>48</dim>
					<dim>56</dim>
					<dim>56</dim>
				</port>
			</input>
			<output>
				<port id="2" precision="FP32" names="971">
					<dim>1</dim>
					<dim>48</dim>
					<dim>56</dim>
					<dim>56</dim>
				</port>
			</output>
		</layer>
		<layer id="133" name="1863" type="Const" version="opset1">
			<data element_type="f32" shape="192, 48, 3, 3" offset="516052" size="331776"/>
			<rt_info>
				<attribute name="fused_names" version="0" value="1863"/>
			</rt_info>
			<output>
				<port id="0" precision="FP32" names="1863">
					<dim>192</dim>
					<dim>48</dim>
					<dim>3</dim>
					<dim>3</dim>
				</port>
			</output>
		</layer>
		<layer id="134" name="Convolution_1660" type="Convolution" version="opset1">
			<data strides="1, 1" dilations="1, 1" pads_begin="1, 1" pads_end="1, 1" auto_pad="explicit"/>
			<rt_info>
				<attribute name="fused_names" version="0" value="Convolution_1660"/>
			</rt_info>
			<input>
				<port id="0" precision="FP32">
					<dim>1</dim>
					<dim>48</dim>
					<dim>56</dim>
					<dim>56</dim>
				</port>
				<port id="1" precision="FP32">
					<dim>192</dim>
					<dim>48</dim>
					<dim>3</dim>
					<dim>3</dim>
				</port>
			</input>
			<output>
				<port id="2" precision="FP32">
					<dim>1</dim>
					<dim>192</dim>
					<dim>56</dim>
					<dim>56</dim>
				</port>
			</output>
		</layer>
		<layer id="135" name="Reshape_1680" type="Const" version="opset1">
			<data element_type="f32" shape="1, 192, 1, 1" offset="847828" size="768"/>
			<output>
				<port id="0" precision="FP32">
					<dim>1</dim>
					<dim>192</dim>
					<dim>1</dim>
					<dim>1</dim>
				</port>
			</output>
		</layer>
		<layer id="136" name="1862" type="Add" version="opset1">
			<data auto_broadcast="numpy"/>
			<rt_info>
				<attribute name="fused_names" version="0" value="1862, Concat_1679, Reshape_1680"/>
			</rt_info>
			<input>
				<port id="0" precision="FP32">
					<dim>1</dim>
					<dim>192</dim>
					<dim>56</dim>
					<dim>56</dim>
				</port>
				<port id="1" precision="FP32">
					<dim>1</dim>
					<dim>192</dim>
					<dim>1</dim>
					<dim>1</dim>
				</port>
			</input>
			<output>
				<port id="2" precision="FP32" names="1862">
					<dim>1</dim>
					<dim>192</dim>
					<dim>56</dim>
					<dim>56</dim>
				</port>
			</output>
		</layer>
		<layer id="137" name="975" type="Swish" version="opset4">
			<rt_info>
				<attribute name="fused_names" version="0" value="974, 975"/>
			</rt_info>
			<input>
				<port id="0" precision="FP32">
					<dim>1</dim>
					<dim>192</dim>
					<dim>56</dim>
					<dim>56</dim>
				</port>
			</input>
			<output>
				<port id="1" precision="FP32" names="975">
					<dim>1</dim>
					<dim>192</dim>
					<dim>56</dim>
					<dim>56</dim>
				</port>
			</output>
		</layer>
		<layer id="138" name="1866" type="Const" version="opset1">
			<data element_type="f32" shape="48, 192, 1, 1" offset="848596" size="36864"/>
			<rt_info>
				<attribute name="fused_names" version="0" value="1866"/>
			</rt_info>
			<output>
				<port id="0" precision="FP32" names="1866">
					<dim>48</dim>
					<dim>192</dim>
					<dim>1</dim>
					<dim>1</dim>
				</port>
			</output>
		</layer>
		<layer id="139" name="Convolution_1710" type="Convolution" version="opset1">
			<data strides="1, 1" dilations="1, 1" pads_begin="0, 0" pads_end="0, 0" auto_pad="explicit"/>
			<rt_info>
				<attribute name="fused_names" version="0" value="Convolution_1710"/>
			</rt_info>
			<input>
				<port id="0" precision="FP32">
					<dim>1</dim>
					<dim>192</dim>
					<dim>56</dim>
					<dim>56</dim>
				</port>
				<port id="1" precision="FP32">
					<dim>48</dim>
					<dim>192</dim>
					<dim>1</dim>
					<dim>1</dim>
				</port>
			</input>
			<output>
				<port id="2" precision="FP32">
					<dim>1</dim>
					<dim>48</dim>
					<dim>56</dim>
					<dim>56</dim>
				</port>
			</output>
		</layer>
		<layer id="140" name="Reshape_1730" type="Const" version="opset1">
			<data element_type="f32" shape="1, 48, 1, 1" offset="885460" size="192"/>
			<output>
				<port id="0" precision="FP32">
					<dim>1</dim>
					<dim>48</dim>
					<dim>1</dim>
					<dim>1</dim>
				</port>
			</output>
		</layer>
		<layer id="141" name="1865" type="Add" version="opset1">
			<data auto_broadcast="numpy"/>
			<rt_info>
				<attribute name="fused_names" version="0" value="1865, Concat_1729, Reshape_1730"/>
			</rt_info>
			<input>
				<port id="0" precision="FP32">
					<dim>1</dim>
					<dim>48</dim>
					<dim>56</dim>
					<dim>56</dim>
				</port>
				<port id="1" precision="FP32">
					<dim>1</dim>
					<dim>48</dim>
					<dim>1</dim>
					<dim>1</dim>
				</port>
			</input>
			<output>
				<port id="2" precision="FP32" names="1865">
					<dim>1</dim>
					<dim>48</dim>
					<dim>56</dim>
					<dim>56</dim>
				</port>
			</output>
		</layer>
		<layer id="142" name="978" type="Add" version="opset1">
			<data auto_broadcast="numpy"/>
			<rt_info>
				<attribute name="fused_names" version="0" value="978"/>
			</rt_info>
			<input>
				<port id="0" precision="FP32">
					<dim>1</dim>
					<dim>48</dim>
					<dim>56</dim>
					<dim>56</dim>
				</port>
				<port id="1" precision="FP32">
					<dim>1</dim>
					<dim>48</dim>
					<dim>56</dim>
					<dim>56</dim>
				</port>
			</input>
			<output>
				<port id="2" precision="FP32" names="978">
					<dim>1</dim>
					<dim>48</dim>
					<dim>56</dim>
					<dim>56</dim>
				</port>
			</output>
		</layer>
		<layer id="143" name="1869" type="Const" version="opset1">
			<data element_type="f32" shape="192, 48, 3, 3" offset="885652" size="331776"/>
			<rt_info>
				<attribute name="fused_names" version="0" value="1869"/>
			</rt_info>
			<output>
				<port id="0" precision="FP32" names="1869">
					<dim>192</dim>
					<dim>48</dim>
					<dim>3</dim>
					<dim>3</dim>
				</port>
			</output>
		</layer>
		<layer id="144" name="Convolution_1759" type="Convolution" version="opset1">
			<data strides="1, 1" dilations="1, 1" pads_begin="1, 1" pads_end="1, 1" auto_pad="explicit"/>
			<rt_info>
				<attribute name="fused_names" version="0" value="Convolution_1759"/>
			</rt_info>
			<input>
				<port id="0" precision="FP32">
					<dim>1</dim>
					<dim>48</dim>
					<dim>56</dim>
					<dim>56</dim>
				</port>
				<port id="1" precision="FP32">
					<dim>192</dim>
					<dim>48</dim>
					<dim>3</dim>
					<dim>3</dim>
				</port>
			</input>
			<output>
				<port id="2" precision="FP32">
					<dim>1</dim>
					<dim>192</dim>
					<dim>56</dim>
					<dim>56</dim>
				</port>
			</output>
		</layer>
		<layer id="145" name="Reshape_1779" type="Const" version="opset1">
			<data element_type="f32" shape="1, 192, 1, 1" offset="1217428" size="768"/>
			<output>
				<port id="0" precision="FP32">
					<dim>1</dim>
					<dim>192</dim>
					<dim>1</dim>
					<dim>1</dim>
				</port>
			</output>
		</layer>
		<layer id="146" name="1868" type="Add" version="opset1">
			<data auto_broadcast="numpy"/>
			<rt_info>
				<attribute name="fused_names" version="0" value="1868, Concat_1778, Reshape_1779"/>
			</rt_info>
			<input>
				<port id="0" precision="FP32">
					<dim>1</dim>
					<dim>192</dim>
					<dim>56</dim>
					<dim>56</dim>
				</port>
				<port id="1" precision="FP32">
					<dim>1</dim>
					<dim>192</dim>
					<dim>1</dim>
					<dim>1</dim>
				</port>
			</input>
			<output>
				<port id="2" precision="FP32" names="1868">
					<dim>1</dim>
					<dim>192</dim>
					<dim>56</dim>
					<dim>56</dim>
				</port>
			</output>
		</layer>
		<layer id="147" name="982" type="Swish" version="opset4">
			<rt_info>
				<attribute name="fused_names" version="0" value="981, 982"/>
			</rt_info>
			<input>
				<port id="0" precision="FP32">
					<dim>1</dim>
					<dim>192</dim>
					<dim>56</dim>
					<dim>56</dim>
				</port>
			</input>
			<output>
				<port id="1" precision="FP32" names="982">
					<dim>1</dim>
					<dim>192</dim>
					<dim>56</dim>
					<dim>56</dim>
				</port>
			</output>
		</layer>
		<layer id="148" name="1872" type="Const" version="opset1">
			<data element_type="f32" shape="48, 192, 1, 1" offset="1218196" size="36864"/>
			<rt_info>
				<attribute name="fused_names" version="0" value="1872"/>
			</rt_info>
			<output>
				<port id="0" precision="FP32" names="1872">
					<dim>48</dim>
					<dim>192</dim>
					<dim>1</dim>
					<dim>1</dim>
				</port>
			</output>
		</layer>
		<layer id="149" name="Convolution_1809" type="Convolution" version="opset1">
			<data strides="1, 1" dilations="1, 1" pads_begin="0, 0" pads_end="0, 0" auto_pad="explicit"/>
			<rt_info>
				<attribute name="fused_names" version="0" value="Convolution_1809"/>
			</rt_info>
			<input>
				<port id="0" precision="FP32">
					<dim>1</dim>
					<dim>192</dim>
					<dim>56</dim>
					<dim>56</dim>
				</port>
				<port id="1" precision="FP32">
					<dim>48</dim>
					<dim>192</dim>
					<dim>1</dim>
					<dim>1</dim>
				</port>
			</input>
			<output>
				<port id="2" precision="FP32">
					<dim>1</dim>
					<dim>48</dim>
					<dim>56</dim>
					<dim>56</dim>
				</port>
			</output>
		</layer>
		<layer id="150" name="Reshape_1829" type="Const" version="opset1">
			<data element_type="f32" shape="1, 48, 1, 1" offset="1255060" size="192"/>
			<output>
				<port id="0" precision="FP32">
					<dim>1</dim>
					<dim>48</dim>
					<dim>1</dim>
					<dim>1</dim>
				</port>
			</output>
		</layer>
		<layer id="151" name="1871" type="Add" version="opset1">
			<data auto_broadcast="numpy"/>
			<rt_info>
				<attribute name="fused_names" version="0" value="1871, Concat_1828, Reshape_1829"/>
			</rt_info>
			<input>
				<port id="0" precision="FP32">
					<dim>1</dim>
					<dim>48</dim>
					<dim>56</dim>
					<dim>56</dim>
				</port>
				<port id="1" precision="FP32">
					<dim>1</dim>
					<dim>48</dim>
					<dim>1</dim>
					<dim>1</dim>
				</port>
			</input>
			<output>
				<port id="2" precision="FP32" names="1871">
					<dim>1</dim>
					<dim>48</dim>
					<dim>56</dim>
					<dim>56</dim>
				</port>
			</output>
		</layer>
		<layer id="152" name="985" type="Add" version="opset1">
			<data auto_broadcast="numpy"/>
			<rt_info>
				<attribute name="fused_names" version="0" value="985"/>
			</rt_info>
			<input>
				<port id="0" precision="FP32">
					<dim>1</dim>
					<dim>48</dim>
					<dim>56</dim>
					<dim>56</dim>
				</port>
				<port id="1" precision="FP32">
					<dim>1</dim>
					<dim>48</dim>
					<dim>56</dim>
					<dim>56</dim>
				</port>
			</input>
			<output>
				<port id="2" precision="FP32" names="985">
					<dim>1</dim>
					<dim>48</dim>
					<dim>56</dim>
					<dim>56</dim>
				</port>
			</output>
		</layer>
		<layer id="153" name="2208" type="Const" version="opset1">
			<data element_type="i64" shape="" offset="1255252" size="8"/>
			<rt_info>
				<attribute name="fused_names" version="0" value="2208"/>
			</rt_info>
			<output>
				<port id="0" precision="I64" names="2208"/>
			</output>
		</layer>
		<layer id="154" name="995" type="ShapeOf" version="opset3">
			<data output_type="i64"/>
			<rt_info>
				<attribute name="fused_names" version="0" value="992, 995"/>
			</rt_info>
			<input>
				<port id="0" precision="FP32">
					<dim>1</dim>
					<dim>48</dim>
					<dim>56</dim>
					<dim>56</dim>
				</port>
			</input>
			<output>
				<port id="1" precision="I64" names="992,995">
					<dim>4</dim>
				</port>
			</output>
		</layer>
		<layer id="155" name="996" type="Const" version="opset1">
			<data element_type="i64" shape="" offset="32" size="8"/>
			<rt_info>
				<attribute name="fused_names" version="0" value="996"/>
			</rt_info>
			<output>
				<port id="0" precision="I64" names="996"/>
			</output>
		</layer>
		<layer id="156" name="Constant_1864" type="Const" version="opset1">
			<data element_type="i64" shape="" offset="40" size="8"/>
			<rt_info>
				<attribute name="fused_names" version="0" value="Constant_1864"/>
			</rt_info>
			<output>
				<port id="0" precision="I64"/>
			</output>
		</layer>
		<layer id="157" name="997" type="Gather" version="opset8">
			<data batch_dims="0"/>
			<rt_info>
				<attribute name="fused_names" version="0" value="996, 997, Constant_1864"/>
			</rt_info>
			<input>
				<port id="0" precision="I64">
					<dim>4</dim>
				</port>
				<port id="1" precision="I64"/>
				<port id="2" precision="I64"/>
			</input>
			<output>
				<port id="3" precision="I64" names="997"/>
			</output>
		</layer>
		<layer id="158" name="1015" type="Subtract" version="opset1">
			<data auto_broadcast="numpy"/>
			<rt_info>
				<attribute name="fused_names" version="0" value="1015, 2208"/>
			</rt_info>
			<input>
				<port id="0" precision="I64"/>
				<port id="1" precision="I64"/>
			</input>
			<output>
				<port id="2" precision="I64" names="1015"/>
			</output>
		</layer>
		<layer id="159" name="1016" type="Const" version="opset1">
			<data element_type="i64" shape="" offset="48" size="8"/>
			<rt_info>
				<attribute name="fused_names" version="0" value="1016"/>
			</rt_info>
			<output>
				<port id="0" precision="I64" names="1016"/>
			</output>
		</layer>
		<layer id="160" name="1017" type="Divide" version="opset1">
			<data auto_broadcast="numpy" m_pythondiv="true"/>
			<rt_info>
				<attribute name="fused_names" version="0" value="1016, 1017, 1018, 1019"/>
			</rt_info>
			<input>
				<port id="0" precision="I64"/>
				<port id="1" precision="I64"/>
			</input>
			<output>
				<port id="2" precision="I64" names="1017,1018,1019"/>
			</output>
		</layer>
		<layer id="161" name="Constant_1895" type="Const" version="opset1">
			<data element_type="i64" shape="1" offset="40" size="8"/>
			<rt_info>
				<attribute name="fused_names" version="0" value="Constant_1895"/>
			</rt_info>
			<output>
				<port id="0" precision="I64">
					<dim>1</dim>
				</port>
			</output>
		</layer>
		<layer id="162" name="1039" type="Unsqueeze" version="opset1">
			<rt_info>
				<attribute name="fused_names" version="0" value="1039, Constant_1895"/>
			</rt_info>
			<input>
				<port id="0" precision="I64"/>
				<port id="1" precision="I64">
					<dim>1</dim>
				</port>
			</input>
			<output>
				<port id="2" precision="I64" names="1039">
					<dim>1</dim>
				</port>
			</output>
		</layer>
		<layer id="163" name="1020" type="Const" version="opset1">
			<data element_type="i64" shape="" offset="48" size="8"/>
			<rt_info>
				<attribute name="fused_names" version="0" value="1020"/>
			</rt_info>
			<output>
				<port id="0" precision="I64" names="1020"/>
			</output>
		</layer>
		<layer id="164" name="1021" type="Divide" version="opset1">
			<data auto_broadcast="numpy" m_pythondiv="true"/>
			<rt_info>
				<attribute name="fused_names" version="0" value="1020, 1021, 1022, 1023"/>
			</rt_info>
			<input>
				<port id="0" precision="I64"/>
				<port id="1" precision="I64"/>
			</input>
			<output>
				<port id="2" precision="I64" names="1021,1022,1023"/>
			</output>
		</layer>
		<layer id="165" name="1024" type="Subtract" version="opset1">
			<data auto_broadcast="numpy"/>
			<rt_info>
				<attribute name="fused_names" version="0" value="1024"/>
			</rt_info>
			<input>
				<port id="0" precision="I64"/>
				<port id="1" precision="I64"/>
			</input>
			<output>
				<port id="2" precision="I64" names="1024"/>
			</output>
		</layer>
		<layer id="166" name="Constant_1897" type="Const" version="opset1">
			<data element_type="i64" shape="1" offset="40" size="8"/>
			<rt_info>
				<attribute name="fused_names" version="0" value="Constant_1897"/>
			</rt_info>
			<output>
				<port id="0" precision="I64">
					<dim>1</dim>
				</port>
			</output>
		</layer>
		<layer id="167" name="1040" type="Unsqueeze" version="opset1">
			<rt_info>
				<attribute name="fused_names" version="0" value="1040, Constant_1897"/>
			</rt_info>
			<input>
				<port id="0" precision="I64"/>
				<port id="1" precision="I64">
					<dim>1</dim>
				</port>
			</input>
			<output>
				<port id="2" precision="I64" names="1040">
					<dim>1</dim>
				</port>
			</output>
		</layer>
		<layer id="168" name="2204" type="Const" version="opset1">
			<data element_type="i64" shape="" offset="1255252" size="8"/>
			<rt_info>
				<attribute name="fused_names" version="0" value="2204"/>
			</rt_info>
			<output>
				<port id="0" precision="I64" names="2204"/>
			</output>
		</layer>
		<layer id="169" name="993" type="Const" version="opset1">
			<data element_type="i64" shape="" offset="48" size="8"/>
			<rt_info>
				<attribute name="fused_names" version="0" value="993"/>
			</rt_info>
			<output>
				<port id="0" precision="I64" names="993"/>
			</output>
		</layer>
		<layer id="170" name="Constant_1860" type="Const" version="opset1">
			<data element_type="i64" shape="" offset="40" size="8"/>
			<rt_info>
				<attribute name="fused_names" version="0" value="Constant_1860"/>
			</rt_info>
			<output>
				<port id="0" precision="I64"/>
			</output>
		</layer>
		<layer id="171" name="994" type="Gather" version="opset8">
			<data batch_dims="0"/>
			<rt_info>
				<attribute name="fused_names" version="0" value="993, 994, Constant_1860"/>
			</rt_info>
			<input>
				<port id="0" precision="I64">
					<dim>4</dim>
				</port>
				<port id="1" precision="I64"/>
				<port id="2" precision="I64"/>
			</input>
			<output>
				<port id="3" precision="I64" names="994"/>
			</output>
		</layer>
		<layer id="172" name="1006" type="Subtract" version="opset1">
			<data auto_broadcast="numpy"/>
			<rt_info>
				<attribute name="fused_names" version="0" value="1006, 2204"/>
			</rt_info>
			<input>
				<port id="0" precision="I64"/>
				<port id="1" precision="I64"/>
			</input>
			<output>
				<port id="2" precision="I64" names="1006"/>
			</output>
		</layer>
		<layer id="173" name="1025" type="Const" version="opset1">
			<data element_type="i64" shape="" offset="48" size="8"/>
			<rt_info>
				<attribute name="fused_names" version="0" value="1025"/>
			</rt_info>
			<output>
				<port id="0" precision="I64" names="1025"/>
			</output>
		</layer>
		<layer id="174" name="1026" type="Divide" version="opset1">
			<data auto_broadcast="numpy" m_pythondiv="true"/>
			<rt_info>
				<attribute name="fused_names" version="0" value="1025, 1026, 1027, 1028"/>
			</rt_info>
			<input>
				<port id="0" precision="I64"/>
				<port id="1" precision="I64"/>
			</input>
			<output>
				<port id="2" precision="I64" names="1026,1027,1028"/>
			</output>
		</layer>
		<layer id="175" name="Constant_1899" type="Const" version="opset1">
			<data element_type="i64" shape="1" offset="40" size="8"/>
			<rt_info>
				<attribute name="fused_names" version="0" value="Constant_1899"/>
			</rt_info>
			<output>
				<port id="0" precision="I64">
					<dim>1</dim>
				</port>
			</output>
		</layer>
		<layer id="176" name="1041" type="Unsqueeze" version="opset1">
			<rt_info>
				<attribute name="fused_names" version="0" value="1041, Constant_1899"/>
			</rt_info>
			<input>
				<port id="0" precision="I64"/>
				<port id="1" precision="I64">
					<dim>1</dim>
				</port>
			</input>
			<output>
				<port id="2" precision="I64" names="1041">
					<dim>1</dim>
				</port>
			</output>
		</layer>
		<layer id="177" name="1029" type="Const" version="opset1">
			<data element_type="i64" shape="" offset="48" size="8"/>
			<rt_info>
				<attribute name="fused_names" version="0" value="1029"/>
			</rt_info>
			<output>
				<port id="0" precision="I64" names="1029"/>
			</output>
		</layer>
		<layer id="178" name="1030" type="Divide" version="opset1">
			<data auto_broadcast="numpy" m_pythondiv="true"/>
			<rt_info>
				<attribute name="fused_names" version="0" value="1029, 1030, 1031, 1032"/>
			</rt_info>
			<input>
				<port id="0" precision="I64"/>
				<port id="1" precision="I64"/>
			</input>
			<output>
				<port id="2" precision="I64" names="1030,1031,1032"/>
			</output>
		</layer>
		<layer id="179" name="1033" type="Subtract" version="opset1">
			<data auto_broadcast="numpy"/>
			<rt_info>
				<attribute name="fused_names" version="0" value="1033"/>
			</rt_info>
			<input>
				<port id="0" precision="I64"/>
				<port id="1" precision="I64"/>
			</input>
			<output>
				<port id="2" precision="I64" names="1033"/>
			</output>
		</layer>
		<layer id="180" name="Constant_1901" type="Const" version="opset1">
			<data element_type="i64" shape="1" offset="40" size="8"/>
			<rt_info>
				<attribute name="fused_names" version="0" value="Constant_1901"/>
			</rt_info>
			<output>
				<port id="0" precision="I64">
					<dim>1</dim>
				</port>
			</output>
		</layer>
		<layer id="181" name="1042" type="Unsqueeze" version="opset1">
			<rt_info>
				<attribute name="fused_names" version="0" value="1042, Constant_1901"/>
			</rt_info>
			<input>
				<port id="0" precision="I64"/>
				<port id="1" precision="I64">
					<dim>1</dim>
				</port>
			</input>
			<output>
				<port id="2" precision="I64" names="1042">
					<dim>1</dim>
				</port>
			</output>
		</layer>
		<layer id="182" name="1043" type="Concat" version="opset1">
			<data axis="0"/>
			<rt_info>
				<attribute name="fused_names" version="0" value="1043, 1051"/>
			</rt_info>
			<input>
				<port id="0" precision="I64">
					<dim>1</dim>
				</port>
				<port id="1" precision="I64">
					<dim>1</dim>
				</port>
				<port id="2" precision="I64">
					<dim>1</dim>
				</port>
				<port id="3" precision="I64">
					<dim>1</dim>
				</port>
			</input>
			<output>
				<port id="4" precision="I64" names="1043,1051">
					<dim>4</dim>
				</port>
			</output>
		</layer>
		<layer id="183" name="1052" type="Const" version="opset1">
			<data element_type="i64" shape="4" offset="56" size="32"/>
			<output>
				<port id="0" precision="I64" names="1052">
					<dim>4</dim>
				</port>
			</output>
		</layer>
		<layer id="184" name="1053" type="Concat" version="opset1">
			<data axis="0"/>
			<rt_info>
				<attribute name="fused_names" version="0" value="1045, 1046, 1050, 1052, 1053"/>
			</rt_info>
			<input>
				<port id="0" precision="I64">
					<dim>4</dim>
				</port>
				<port id="1" precision="I64">
					<dim>4</dim>
				</port>
			</input>
			<output>
				<port id="2" precision="I64" names="1053">
					<dim>8</dim>
				</port>
			</output>
		</layer>
		<layer id="185" name="1054" type="Const" version="opset1">
			<data element_type="i64" shape="2" offset="88" size="16"/>
			<rt_info>
				<attribute name="fused_names" version="0" value="1054"/>
			</rt_info>
			<output>
				<port id="0" precision="I64" names="1054">
					<dim>2</dim>
				</port>
			</output>
		</layer>
		<layer id="186" name="1055" type="Reshape" version="opset1">
			<data special_zero="true"/>
			<rt_info>
				<attribute name="fused_names" version="0" value="1054, 1055"/>
			</rt_info>
			<input>
				<port id="0" precision="I64">
					<dim>8</dim>
				</port>
				<port id="1" precision="I64">
					<dim>2</dim>
				</port>
			</input>
			<output>
				<port id="2" precision="I64" names="1055">
					<dim>4</dim>
					<dim>2</dim>
				</port>
			</output>
		</layer>
		<layer id="187" name="1057" type="Const" version="opset1">
			<data element_type="i64" shape="1" offset="104" size="8"/>
			<rt_info>
				<attribute name="fused_names" version="0" value="1056, 1057, 1058, 1059, 1060"/>
			</rt_info>
			<output>
				<port id="0" precision="I64" names="1057">
					<dim>1</dim>
				</port>
			</output>
		</layer>
		<layer id="188" name="1058" type="Const" version="opset1">
			<data element_type="i64" shape="1" offset="112" size="8"/>
			<rt_info>
				<attribute name="fused_names" version="0" value="1056, 1057, 1058, 1059, 1060"/>
			</rt_info>
			<output>
				<port id="0" precision="I64" names="1058">
					<dim>1</dim>
				</port>
			</output>
		</layer>
		<layer id="189" name="1059" type="Const" version="opset1">
			<data element_type="i64" shape="1" offset="104" size="8"/>
			<rt_info>
				<attribute name="fused_names" version="0" value="1056, 1057, 1058, 1059, 1060"/>
			</rt_info>
			<output>
				<port id="0" precision="I64" names="1059">
					<dim>1</dim>
				</port>
			</output>
		</layer>
		<layer id="190" name="1060" type="StridedSlice" version="opset1">
			<data begin_mask="0" end_mask="0" new_axis_mask="" shrink_axis_mask="" ellipsis_mask=""/>
			<rt_info>
				<attribute name="fused_names" version="0" value="1056, 1057, 1058, 1059, 1060"/>
			</rt_info>
			<input>
				<port id="0" precision="I64">
					<dim>4</dim>
					<dim>2</dim>
				</port>
				<port id="1" precision="I64">
					<dim>1</dim>
				</port>
				<port id="2" precision="I64">
					<dim>1</dim>
				</port>
				<port id="3" precision="I64">
					<dim>1</dim>
				</port>
			</input>
			<output>
				<port id="4" precision="I64" names="1060">
					<dim>4</dim>
					<dim>2</dim>
				</port>
			</output>
		</layer>
		<layer id="191" name="Constant_1946" type="Const" version="opset1">
			<data element_type="i64" shape="2" offset="120" size="16"/>
			<rt_info>
				<attribute name="fused_names" version="0" value="Constant_1946"/>
			</rt_info>
			<output>
				<port id="0" precision="I64">
					<dim>2</dim>
				</port>
			</output>
		</layer>
		<layer id="192" name="1061" type="Transpose" version="opset1">
			<rt_info>
				<attribute name="fused_names" version="0" value="1061, Constant_1946"/>
			</rt_info>
			<input>
				<port id="0" precision="I64">
					<dim>4</dim>
					<dim>2</dim>
				</port>
				<port id="1" precision="I64">
					<dim>2</dim>
				</port>
			</input>
			<output>
				<port id="2" precision="I64" names="1061">
					<dim>2</dim>
					<dim>4</dim>
				</port>
			</output>
		</layer>
		<layer id="193" name="1062" type="Const" version="opset1">
			<data element_type="i64" shape="1" offset="104" size="8"/>
			<rt_info>
				<attribute name="fused_names" version="0" value="1062"/>
			</rt_info>
			<output>
				<port id="0" precision="I64" names="1062">
					<dim>1</dim>
				</port>
			</output>
		</layer>
		<layer id="194" name="1063" type="Reshape" version="opset1">
			<data special_zero="true"/>
			<rt_info>
				<attribute name="fused_names" version="0" value="1062, 1063, 1064"/>
			</rt_info>
			<input>
				<port id="0" precision="I64">
					<dim>2</dim>
					<dim>4</dim>
				</port>
				<port id="1" precision="I64">
					<dim>1</dim>
				</port>
			</input>
			<output>
				<port id="2" precision="I64" names="1063,1064">
					<dim>8</dim>
				</port>
			</output>
		</layer>
		<layer id="195" name="Constant_1957" type="Const" version="opset1">
			<data element_type="i64" shape="" offset="40" size="8"/>
			<rt_info>
				<attribute name="fused_names" version="0" value="Constant_1957"/>
			</rt_info>
			<output>
				<port id="0" precision="I64"/>
			</output>
		</layer>
		<layer id="196" name="Split_1958" type="Split" version="opset1">
			<data num_splits="2"/>
			<rt_info>
				<attribute name="fused_names" version="0" value="Constant_1957, Split_1958"/>
			</rt_info>
			<input>
				<port id="0" precision="I64">
					<dim>8</dim>
				</port>
				<port id="1" precision="I64"/>
			</input>
			<output>
				<port id="2" precision="I64">
					<dim>4</dim>
				</port>
				<port id="3" precision="I64">
					<dim>4</dim>
				</port>
			</output>
		</layer>
		<layer id="197" name="1065" type="Const" version="opset1">
			<data element_type="f32" shape="" offset="136" size="4"/>
			<rt_info>
				<attribute name="fused_names" version="0" value="1065"/>
			</rt_info>
			<output>
				<port id="0" precision="FP32" names="1065"/>
			</output>
		</layer>
		<layer id="198" name="1066" type="Pad" version="opset1">
			<data pad_mode="constant"/>
			<rt_info>
				<attribute name="fused_names" version="0" value="1066"/>
			</rt_info>
			<input>
				<port id="0" precision="FP32">
					<dim>1</dim>
					<dim>48</dim>
					<dim>56</dim>
					<dim>56</dim>
				</port>
				<port id="1" precision="I64">
					<dim>4</dim>
				</port>
				<port id="2" precision="I64">
					<dim>4</dim>
				</port>
				<port id="3" precision="FP32"/>
			</input>
			<output>
				<port id="4" precision="FP32" names="1066">
					<dim>1</dim>
					<dim>48</dim>
					<dim>57</dim>
					<dim>57</dim>
				</port>
			</output>
		</layer>
		<layer id="199" name="1875" type="Const" version="opset1">
			<data element_type="f32" shape="192, 48, 3, 3" offset="1255260" size="331776"/>
			<rt_info>
				<attribute name="fused_names" version="0" value="1875"/>
			</rt_info>
			<output>
				<port id="0" precision="FP32" names="1875">
					<dim>192</dim>
					<dim>48</dim>
					<dim>3</dim>
					<dim>3</dim>
				</port>
			</output>
		</layer>
		<layer id="200" name="Convolution_2334" type="Convolution" version="opset1">
			<data strides="2, 2" dilations="1, 1" pads_begin="0, 0" pads_end="0, 0" auto_pad="explicit"/>
			<rt_info>
				<attribute name="fused_names" version="0" value="Convolution_2334"/>
			</rt_info>
			<input>
				<port id="0" precision="FP32">
					<dim>1</dim>
					<dim>48</dim>
					<dim>57</dim>
					<dim>57</dim>
				</port>
				<port id="1" precision="FP32">
					<dim>192</dim>
					<dim>48</dim>
					<dim>3</dim>
					<dim>3</dim>
				</port>
			</input>
			<output>
				<port id="2" precision="FP32">
					<dim>1</dim>
					<dim>192</dim>
					<dim>28</dim>
					<dim>28</dim>
				</port>
			</output>
		</layer>
		<layer id="201" name="Reshape_2354" type="Const" version="opset1">
			<data element_type="f32" shape="1, 192, 1, 1" offset="1587036" size="768"/>
			<output>
				<port id="0" precision="FP32">
					<dim>1</dim>
					<dim>192</dim>
					<dim>1</dim>
					<dim>1</dim>
				</port>
			</output>
		</layer>
		<layer id="202" name="1874" type="Add" version="opset1">
			<data auto_broadcast="numpy"/>
			<rt_info>
				<attribute name="fused_names" version="0" value="1874, Concat_2353, Reshape_2354"/>
			</rt_info>
			<input>
				<port id="0" precision="FP32">
					<dim>1</dim>
					<dim>192</dim>
					<dim>28</dim>
					<dim>28</dim>
				</port>
				<port id="1" precision="FP32">
					<dim>1</dim>
					<dim>192</dim>
					<dim>1</dim>
					<dim>1</dim>
				</port>
			</input>
			<output>
				<port id="2" precision="FP32" names="1874">
					<dim>1</dim>
					<dim>192</dim>
					<dim>28</dim>
					<dim>28</dim>
				</port>
			</output>
		</layer>
		<layer id="203" name="1070" type="Swish" version="opset4">
			<rt_info>
				<attribute name="fused_names" version="0" value="1069, 1070"/>
			</rt_info>
			<input>
				<port id="0" precision="FP32">
					<dim>1</dim>
					<dim>192</dim>
					<dim>28</dim>
					<dim>28</dim>
				</port>
			</input>
			<output>
				<port id="1" precision="FP32" names="1070">
					<dim>1</dim>
					<dim>192</dim>
					<dim>28</dim>
					<dim>28</dim>
				</port>
			</output>
		</layer>
		<layer id="204" name="1878" type="Const" version="opset1">
			<data element_type="f32" shape="64, 192, 1, 1" offset="1587804" size="49152"/>
			<rt_info>
				<attribute name="fused_names" version="0" value="1878"/>
			</rt_info>
			<output>
				<port id="0" precision="FP32" names="1878">
					<dim>64</dim>
					<dim>192</dim>
					<dim>1</dim>
					<dim>1</dim>
				</port>
			</output>
		</layer>
		<layer id="205" name="Convolution_2384" type="Convolution" version="opset1">
			<data strides="1, 1" dilations="1, 1" pads_begin="0, 0" pads_end="0, 0" auto_pad="explicit"/>
			<rt_info>
				<attribute name="fused_names" version="0" value="Convolution_2384"/>
			</rt_info>
			<input>
				<port id="0" precision="FP32">
					<dim>1</dim>
					<dim>192</dim>
					<dim>28</dim>
					<dim>28</dim>
				</port>
				<port id="1" precision="FP32">
					<dim>64</dim>
					<dim>192</dim>
					<dim>1</dim>
					<dim>1</dim>
				</port>
			</input>
			<output>
				<port id="2" precision="FP32">
					<dim>1</dim>
					<dim>64</dim>
					<dim>28</dim>
					<dim>28</dim>
				</port>
			</output>
		</layer>
		<layer id="206" name="Reshape_2404" type="Const" version="opset1">
			<data element_type="f32" shape="1, 64, 1, 1" offset="1636956" size="256"/>
			<output>
				<port id="0" precision="FP32">
					<dim>1</dim>
					<dim>64</dim>
					<dim>1</dim>
					<dim>1</dim>
				</port>
			</output>
		</layer>
		<layer id="207" name="1877" type="Add" version="opset1">
			<data auto_broadcast="numpy"/>
			<rt_info>
				<attribute name="fused_names" version="0" value="1877, Concat_2403, Reshape_2404"/>
			</rt_info>
			<input>
				<port id="0" precision="FP32">
					<dim>1</dim>
					<dim>64</dim>
					<dim>28</dim>
					<dim>28</dim>
				</port>
				<port id="1" precision="FP32">
					<dim>1</dim>
					<dim>64</dim>
					<dim>1</dim>
					<dim>1</dim>
				</port>
			</input>
			<output>
				<port id="2" precision="FP32" names="1877">
					<dim>1</dim>
					<dim>64</dim>
					<dim>28</dim>
					<dim>28</dim>
				</port>
			</output>
		</layer>
		<layer id="208" name="1881" type="Const" version="opset1">
			<data element_type="f32" shape="256, 64, 3, 3" offset="1637212" size="589824"/>
			<rt_info>
				<attribute name="fused_names" version="0" value="1881"/>
			</rt_info>
			<output>
				<port id="0" precision="FP32" names="1881">
					<dim>256</dim>
					<dim>64</dim>
					<dim>3</dim>
					<dim>3</dim>
				</port>
			</output>
		</layer>
		<layer id="209" name="Convolution_2432" type="Convolution" version="opset1">
			<data strides="1, 1" dilations="1, 1" pads_begin="1, 1" pads_end="1, 1" auto_pad="explicit"/>
			<rt_info>
				<attribute name="fused_names" version="0" value="Convolution_2432"/>
			</rt_info>
			<input>
				<port id="0" precision="FP32">
					<dim>1</dim>
					<dim>64</dim>
					<dim>28</dim>
					<dim>28</dim>
				</port>
				<port id="1" precision="FP32">
					<dim>256</dim>
					<dim>64</dim>
					<dim>3</dim>
					<dim>3</dim>
				</port>
			</input>
			<output>
				<port id="2" precision="FP32">
					<dim>1</dim>
					<dim>256</dim>
					<dim>28</dim>
					<dim>28</dim>
				</port>
			</output>
		</layer>
		<layer id="210" name="Reshape_2452" type="Const" version="opset1">
			<data element_type="f32" shape="1, 256, 1, 1" offset="2227036" size="1024"/>
			<output>
				<port id="0" precision="FP32">
					<dim>1</dim>
					<dim>256</dim>
					<dim>1</dim>
					<dim>1</dim>
				</port>
			</output>
		</layer>
		<layer id="211" name="1880" type="Add" version="opset1">
			<data auto_broadcast="numpy"/>
			<rt_info>
				<attribute name="fused_names" version="0" value="1880, Concat_2451, Reshape_2452"/>
			</rt_info>
			<input>
				<port id="0" precision="FP32">
					<dim>1</dim>
					<dim>256</dim>
					<dim>28</dim>
					<dim>28</dim>
				</port>
				<port id="1" precision="FP32">
					<dim>1</dim>
					<dim>256</dim>
					<dim>1</dim>
					<dim>1</dim>
				</port>
			</input>
			<output>
				<port id="2" precision="FP32" names="1880">
					<dim>1</dim>
					<dim>256</dim>
					<dim>28</dim>
					<dim>28</dim>
				</port>
			</output>
		</layer>
		<layer id="212" name="1076" type="Swish" version="opset4">
			<rt_info>
				<attribute name="fused_names" version="0" value="1075, 1076"/>
			</rt_info>
			<input>
				<port id="0" precision="FP32">
					<dim>1</dim>
					<dim>256</dim>
					<dim>28</dim>
					<dim>28</dim>
				</port>
			</input>
			<output>
				<port id="1" precision="FP32" names="1076">
					<dim>1</dim>
					<dim>256</dim>
					<dim>28</dim>
					<dim>28</dim>
				</port>
			</output>
		</layer>
		<layer id="213" name="1884" type="Const" version="opset1">
			<data element_type="f32" shape="64, 256, 1, 1" offset="2228060" size="65536"/>
			<rt_info>
				<attribute name="fused_names" version="0" value="1884"/>
			</rt_info>
			<output>
				<port id="0" precision="FP32" names="1884">
					<dim>64</dim>
					<dim>256</dim>
					<dim>1</dim>
					<dim>1</dim>
				</port>
			</output>
		</layer>
		<layer id="214" name="Convolution_2482" type="Convolution" version="opset1">
			<data strides="1, 1" dilations="1, 1" pads_begin="0, 0" pads_end="0, 0" auto_pad="explicit"/>
			<rt_info>
				<attribute name="fused_names" version="0" value="Convolution_2482"/>
			</rt_info>
			<input>
				<port id="0" precision="FP32">
					<dim>1</dim>
					<dim>256</dim>
					<dim>28</dim>
					<dim>28</dim>
				</port>
				<port id="1" precision="FP32">
					<dim>64</dim>
					<dim>256</dim>
					<dim>1</dim>
					<dim>1</dim>
				</port>
			</input>
			<output>
				<port id="2" precision="FP32">
					<dim>1</dim>
					<dim>64</dim>
					<dim>28</dim>
					<dim>28</dim>
				</port>
			</output>
		</layer>
		<layer id="215" name="Reshape_2502" type="Const" version="opset1">
			<data element_type="f32" shape="1, 64, 1, 1" offset="2293596" size="256"/>
			<output>
				<port id="0" precision="FP32">
					<dim>1</dim>
					<dim>64</dim>
					<dim>1</dim>
					<dim>1</dim>
				</port>
			</output>
		</layer>
		<layer id="216" name="1883" type="Add" version="opset1">
			<data auto_broadcast="numpy"/>
			<rt_info>
				<attribute name="fused_names" version="0" value="1883, Concat_2501, Reshape_2502"/>
			</rt_info>
			<input>
				<port id="0" precision="FP32">
					<dim>1</dim>
					<dim>64</dim>
					<dim>28</dim>
					<dim>28</dim>
				</port>
				<port id="1" precision="FP32">
					<dim>1</dim>
					<dim>64</dim>
					<dim>1</dim>
					<dim>1</dim>
				</port>
			</input>
			<output>
				<port id="2" precision="FP32" names="1883">
					<dim>1</dim>
					<dim>64</dim>
					<dim>28</dim>
					<dim>28</dim>
				</port>
			</output>
		</layer>
		<layer id="217" name="1079" type="Add" version="opset1">
			<data auto_broadcast="numpy"/>
			<rt_info>
				<attribute name="fused_names" version="0" value="1079"/>
			</rt_info>
			<input>
				<port id="0" precision="FP32">
					<dim>1</dim>
					<dim>64</dim>
					<dim>28</dim>
					<dim>28</dim>
				</port>
				<port id="1" precision="FP32">
					<dim>1</dim>
					<dim>64</dim>
					<dim>28</dim>
					<dim>28</dim>
				</port>
			</input>
			<output>
				<port id="2" precision="FP32" names="1079">
					<dim>1</dim>
					<dim>64</dim>
					<dim>28</dim>
					<dim>28</dim>
				</port>
			</output>
		</layer>
		<layer id="218" name="1887" type="Const" version="opset1">
			<data element_type="f32" shape="256, 64, 3, 3" offset="2293852" size="589824"/>
			<rt_info>
				<attribute name="fused_names" version="0" value="1887"/>
			</rt_info>
			<output>
				<port id="0" precision="FP32" names="1887">
					<dim>256</dim>
					<dim>64</dim>
					<dim>3</dim>
					<dim>3</dim>
				</port>
			</output>
		</layer>
		<layer id="219" name="Convolution_2531" type="Convolution" version="opset1">
			<data strides="1, 1" dilations="1, 1" pads_begin="1, 1" pads_end="1, 1" auto_pad="explicit"/>
			<rt_info>
				<attribute name="fused_names" version="0" value="Convolution_2531"/>
			</rt_info>
			<input>
				<port id="0" precision="FP32">
					<dim>1</dim>
					<dim>64</dim>
					<dim>28</dim>
					<dim>28</dim>
				</port>
				<port id="1" precision="FP32">
					<dim>256</dim>
					<dim>64</dim>
					<dim>3</dim>
					<dim>3</dim>
				</port>
			</input>
			<output>
				<port id="2" precision="FP32">
					<dim>1</dim>
					<dim>256</dim>
					<dim>28</dim>
					<dim>28</dim>
				</port>
			</output>
		</layer>
		<layer id="220" name="Reshape_2551" type="Const" version="opset1">
			<data element_type="f32" shape="1, 256, 1, 1" offset="2883676" size="1024"/>
			<output>
				<port id="0" precision="FP32">
					<dim>1</dim>
					<dim>256</dim>
					<dim>1</dim>
					<dim>1</dim>
				</port>
			</output>
		</layer>
		<layer id="221" name="1886" type="Add" version="opset1">
			<data auto_broadcast="numpy"/>
			<rt_info>
				<attribute name="fused_names" version="0" value="1886, Concat_2550, Reshape_2551"/>
			</rt_info>
			<input>
				<port id="0" precision="FP32">
					<dim>1</dim>
					<dim>256</dim>
					<dim>28</dim>
					<dim>28</dim>
				</port>
				<port id="1" precision="FP32">
					<dim>1</dim>
					<dim>256</dim>
					<dim>1</dim>
					<dim>1</dim>
				</port>
			</input>
			<output>
				<port id="2" precision="FP32" names="1886">
					<dim>1</dim>
					<dim>256</dim>
					<dim>28</dim>
					<dim>28</dim>
				</port>
			</output>
		</layer>
		<layer id="222" name="1083" type="Swish" version="opset4">
			<rt_info>
				<attribute name="fused_names" version="0" value="1082, 1083"/>
			</rt_info>
			<input>
				<port id="0" precision="FP32">
					<dim>1</dim>
					<dim>256</dim>
					<dim>28</dim>
					<dim>28</dim>
				</port>
			</input>
			<output>
				<port id="1" precision="FP32" names="1083">
					<dim>1</dim>
					<dim>256</dim>
					<dim>28</dim>
					<dim>28</dim>
				</port>
			</output>
		</layer>
		<layer id="223" name="1890" type="Const" version="opset1">
			<data element_type="f32" shape="64, 256, 1, 1" offset="2884700" size="65536"/>
			<rt_info>
				<attribute name="fused_names" version="0" value="1890"/>
			</rt_info>
			<output>
				<port id="0" precision="FP32" names="1890">
					<dim>64</dim>
					<dim>256</dim>
					<dim>1</dim>
					<dim>1</dim>
				</port>
			</output>
		</layer>
		<layer id="224" name="Convolution_2581" type="Convolution" version="opset1">
			<data strides="1, 1" dilations="1, 1" pads_begin="0, 0" pads_end="0, 0" auto_pad="explicit"/>
			<rt_info>
				<attribute name="fused_names" version="0" value="Convolution_2581"/>
			</rt_info>
			<input>
				<port id="0" precision="FP32">
					<dim>1</dim>
					<dim>256</dim>
					<dim>28</dim>
					<dim>28</dim>
				</port>
				<port id="1" precision="FP32">
					<dim>64</dim>
					<dim>256</dim>
					<dim>1</dim>
					<dim>1</dim>
				</port>
			</input>
			<output>
				<port id="2" precision="FP32">
					<dim>1</dim>
					<dim>64</dim>
					<dim>28</dim>
					<dim>28</dim>
				</port>
			</output>
		</layer>
		<layer id="225" name="Reshape_2601" type="Const" version="opset1">
			<data element_type="f32" shape="1, 64, 1, 1" offset="2950236" size="256"/>
			<output>
				<port id="0" precision="FP32">
					<dim>1</dim>
					<dim>64</dim>
					<dim>1</dim>
					<dim>1</dim>
				</port>
			</output>
		</layer>
		<layer id="226" name="1889" type="Add" version="opset1">
			<data auto_broadcast="numpy"/>
			<rt_info>
				<attribute name="fused_names" version="0" value="1889, Concat_2600, Reshape_2601"/>
			</rt_info>
			<input>
				<port id="0" precision="FP32">
					<dim>1</dim>
					<dim>64</dim>
					<dim>28</dim>
					<dim>28</dim>
				</port>
				<port id="1" precision="FP32">
					<dim>1</dim>
					<dim>64</dim>
					<dim>1</dim>
					<dim>1</dim>
				</port>
			</input>
			<output>
				<port id="2" precision="FP32" names="1889">
					<dim>1</dim>
					<dim>64</dim>
					<dim>28</dim>
					<dim>28</dim>
				</port>
			</output>
		</layer>
		<layer id="227" name="1086" type="Add" version="opset1">
			<data auto_broadcast="numpy"/>
			<rt_info>
				<attribute name="fused_names" version="0" value="1086"/>
			</rt_info>
			<input>
				<port id="0" precision="FP32">
					<dim>1</dim>
					<dim>64</dim>
					<dim>28</dim>
					<dim>28</dim>
				</port>
				<port id="1" precision="FP32">
					<dim>1</dim>
					<dim>64</dim>
					<dim>28</dim>
					<dim>28</dim>
				</port>
			</input>
			<output>
				<port id="2" precision="FP32" names="1086">
					<dim>1</dim>
					<dim>64</dim>
					<dim>28</dim>
					<dim>28</dim>
				</port>
			</output>
		</layer>
		<layer id="228" name="1893" type="Const" version="opset1">
			<data element_type="f32" shape="256, 64, 3, 3" offset="2950492" size="589824"/>
			<rt_info>
				<attribute name="fused_names" version="0" value="1893"/>
			</rt_info>
			<output>
				<port id="0" precision="FP32" names="1893">
					<dim>256</dim>
					<dim>64</dim>
					<dim>3</dim>
					<dim>3</dim>
				</port>
			</output>
		</layer>
		<layer id="229" name="Convolution_2630" type="Convolution" version="opset1">
			<data strides="1, 1" dilations="1, 1" pads_begin="1, 1" pads_end="1, 1" auto_pad="explicit"/>
			<rt_info>
				<attribute name="fused_names" version="0" value="Convolution_2630"/>
			</rt_info>
			<input>
				<port id="0" precision="FP32">
					<dim>1</dim>
					<dim>64</dim>
					<dim>28</dim>
					<dim>28</dim>
				</port>
				<port id="1" precision="FP32">
					<dim>256</dim>
					<dim>64</dim>
					<dim>3</dim>
					<dim>3</dim>
				</port>
			</input>
			<output>
				<port id="2" precision="FP32">
					<dim>1</dim>
					<dim>256</dim>
					<dim>28</dim>
					<dim>28</dim>
				</port>
			</output>
		</layer>
		<layer id="230" name="Reshape_2650" type="Const" version="opset1">
			<data element_type="f32" shape="1, 256, 1, 1" offset="3540316" size="1024"/>
			<output>
				<port id="0" precision="FP32">
					<dim>1</dim>
					<dim>256</dim>
					<dim>1</dim>
					<dim>1</dim>
				</port>
			</output>
		</layer>
		<layer id="231" name="1892" type="Add" version="opset1">
			<data auto_broadcast="numpy"/>
			<rt_info>
				<attribute name="fused_names" version="0" value="1892, Concat_2649, Reshape_2650"/>
			</rt_info>
			<input>
				<port id="0" precision="FP32">
					<dim>1</dim>
					<dim>256</dim>
					<dim>28</dim>
					<dim>28</dim>
				</port>
				<port id="1" precision="FP32">
					<dim>1</dim>
					<dim>256</dim>
					<dim>1</dim>
					<dim>1</dim>
				</port>
			</input>
			<output>
				<port id="2" precision="FP32" names="1892">
					<dim>1</dim>
					<dim>256</dim>
					<dim>28</dim>
					<dim>28</dim>
				</port>
			</output>
		</layer>
		<layer id="232" name="1090" type="Swish" version="opset4">
			<rt_info>
				<attribute name="fused_names" version="0" value="1089, 1090"/>
			</rt_info>
			<input>
				<port id="0" precision="FP32">
					<dim>1</dim>
					<dim>256</dim>
					<dim>28</dim>
					<dim>28</dim>
				</port>
			</input>
			<output>
				<port id="1" precision="FP32" names="1090">
					<dim>1</dim>
					<dim>256</dim>
					<dim>28</dim>
					<dim>28</dim>
				</port>
			</output>
		</layer>
		<layer id="233" name="1896" type="Const" version="opset1">
			<data element_type="f32" shape="64, 256, 1, 1" offset="3541340" size="65536"/>
			<rt_info>
				<attribute name="fused_names" version="0" value="1896"/>
			</rt_info>
			<output>
				<port id="0" precision="FP32" names="1896">
					<dim>64</dim>
					<dim>256</dim>
					<dim>1</dim>
					<dim>1</dim>
				</port>
			</output>
		</layer>
		<layer id="234" name="Convolution_2680" type="Convolution" version="opset1">
			<data strides="1, 1" dilations="1, 1" pads_begin="0, 0" pads_end="0, 0" auto_pad="explicit"/>
			<rt_info>
				<attribute name="fused_names" version="0" value="Convolution_2680"/>
			</rt_info>
			<input>
				<port id="0" precision="FP32">
					<dim>1</dim>
					<dim>256</dim>
					<dim>28</dim>
					<dim>28</dim>
				</port>
				<port id="1" precision="FP32">
					<dim>64</dim>
					<dim>256</dim>
					<dim>1</dim>
					<dim>1</dim>
				</port>
			</input>
			<output>
				<port id="2" precision="FP32">
					<dim>1</dim>
					<dim>64</dim>
					<dim>28</dim>
					<dim>28</dim>
				</port>
			</output>
		</layer>
		<layer id="235" name="Reshape_2700" type="Const" version="opset1">
			<data element_type="f32" shape="1, 64, 1, 1" offset="3606876" size="256"/>
			<output>
				<port id="0" precision="FP32">
					<dim>1</dim>
					<dim>64</dim>
					<dim>1</dim>
					<dim>1</dim>
				</port>
			</output>
		</layer>
		<layer id="236" name="1895" type="Add" version="opset1">
			<data auto_broadcast="numpy"/>
			<rt_info>
				<attribute name="fused_names" version="0" value="1895, Concat_2699, Reshape_2700"/>
			</rt_info>
			<input>
				<port id="0" precision="FP32">
					<dim>1</dim>
					<dim>64</dim>
					<dim>28</dim>
					<dim>28</dim>
				</port>
				<port id="1" precision="FP32">
					<dim>1</dim>
					<dim>64</dim>
					<dim>1</dim>
					<dim>1</dim>
				</port>
			</input>
			<output>
				<port id="2" precision="FP32" names="1895">
					<dim>1</dim>
					<dim>64</dim>
					<dim>28</dim>
					<dim>28</dim>
				</port>
			</output>
		</layer>
		<layer id="237" name="1093" type="Add" version="opset1">
			<data auto_broadcast="numpy"/>
			<rt_info>
				<attribute name="fused_names" version="0" value="1093"/>
			</rt_info>
			<input>
				<port id="0" precision="FP32">
					<dim>1</dim>
					<dim>64</dim>
					<dim>28</dim>
					<dim>28</dim>
				</port>
				<port id="1" precision="FP32">
					<dim>1</dim>
					<dim>64</dim>
					<dim>28</dim>
					<dim>28</dim>
				</port>
			</input>
			<output>
				<port id="2" precision="FP32" names="1093">
					<dim>1</dim>
					<dim>64</dim>
					<dim>28</dim>
					<dim>28</dim>
				</port>
			</output>
		</layer>
		<layer id="238" name="1899" type="Const" version="opset1">
			<data element_type="f32" shape="256, 64, 1, 1" offset="3607132" size="65536"/>
			<rt_info>
				<attribute name="fused_names" version="0" value="1899"/>
			</rt_info>
			<output>
				<port id="0" precision="FP32" names="1899">
					<dim>256</dim>
					<dim>64</dim>
					<dim>1</dim>
					<dim>1</dim>
				</port>
			</output>
		</layer>
		<layer id="239" name="Convolution_2729" type="Convolution" version="opset1">
			<data strides="1, 1" dilations="1, 1" pads_begin="0, 0" pads_end="0, 0" auto_pad="explicit"/>
			<rt_info>
				<attribute name="fused_names" version="0" value="Convolution_2729"/>
			</rt_info>
			<input>
				<port id="0" precision="FP32">
					<dim>1</dim>
					<dim>64</dim>
					<dim>28</dim>
					<dim>28</dim>
				</port>
				<port id="1" precision="FP32">
					<dim>256</dim>
					<dim>64</dim>
					<dim>1</dim>
					<dim>1</dim>
				</port>
			</input>
			<output>
				<port id="2" precision="FP32">
					<dim>1</dim>
					<dim>256</dim>
					<dim>28</dim>
					<dim>28</dim>
				</port>
			</output>
		</layer>
		<layer id="240" name="Reshape_2749" type="Const" version="opset1">
			<data element_type="f32" shape="1, 256, 1, 1" offset="3672668" size="1024"/>
			<output>
				<port id="0" precision="FP32">
					<dim>1</dim>
					<dim>256</dim>
					<dim>1</dim>
					<dim>1</dim>
				</port>
			</output>
		</layer>
		<layer id="241" name="1898" type="Add" version="opset1">
			<data auto_broadcast="numpy"/>
			<rt_info>
				<attribute name="fused_names" version="0" value="1898, Concat_2748, Reshape_2749"/>
			</rt_info>
			<input>
				<port id="0" precision="FP32">
					<dim>1</dim>
					<dim>256</dim>
					<dim>28</dim>
					<dim>28</dim>
				</port>
				<port id="1" precision="FP32">
					<dim>1</dim>
					<dim>256</dim>
					<dim>1</dim>
					<dim>1</dim>
				</port>
			</input>
			<output>
				<port id="2" precision="FP32" names="1898">
					<dim>1</dim>
					<dim>256</dim>
					<dim>28</dim>
					<dim>28</dim>
				</port>
			</output>
		</layer>
		<layer id="242" name="1097" type="Swish" version="opset4">
			<rt_info>
				<attribute name="fused_names" version="0" value="1096, 1097"/>
			</rt_info>
			<input>
				<port id="0" precision="FP32">
					<dim>1</dim>
					<dim>256</dim>
					<dim>28</dim>
					<dim>28</dim>
				</port>
			</input>
			<output>
				<port id="1" precision="FP32" names="1097">
					<dim>1</dim>
					<dim>256</dim>
					<dim>28</dim>
					<dim>28</dim>
				</port>
			</output>
		</layer>
		<layer id="243" name="2221" type="Const" version="opset1">
			<data element_type="i64" shape="" offset="3673692" size="8"/>
			<rt_info>
				<attribute name="fused_names" version="0" value="2221"/>
			</rt_info>
			<output>
				<port id="0" precision="I64" names="2221"/>
			</output>
		</layer>
		<layer id="244" name="1107" type="ShapeOf" version="opset3">
			<data output_type="i64"/>
			<rt_info>
				<attribute name="fused_names" version="0" value="1104, 1107"/>
			</rt_info>
			<input>
				<port id="0" precision="FP32">
					<dim>1</dim>
					<dim>256</dim>
					<dim>28</dim>
					<dim>28</dim>
				</port>
			</input>
			<output>
				<port id="1" precision="I64" names="1104,1107">
					<dim>4</dim>
				</port>
			</output>
		</layer>
		<layer id="245" name="1108" type="Const" version="opset1">
			<data element_type="i64" shape="" offset="32" size="8"/>
			<rt_info>
				<attribute name="fused_names" version="0" value="1108"/>
			</rt_info>
			<output>
				<port id="0" precision="I64" names="1108"/>
			</output>
		</layer>
		<layer id="246" name="Constant_2785" type="Const" version="opset1">
			<data element_type="i64" shape="" offset="40" size="8"/>
			<rt_info>
				<attribute name="fused_names" version="0" value="Constant_2785"/>
			</rt_info>
			<output>
				<port id="0" precision="I64"/>
			</output>
		</layer>
		<layer id="247" name="1109" type="Gather" version="opset8">
			<data batch_dims="0"/>
			<rt_info>
				<attribute name="fused_names" version="0" value="1108, 1109, Constant_2785"/>
			</rt_info>
			<input>
				<port id="0" precision="I64">
					<dim>4</dim>
				</port>
				<port id="1" precision="I64"/>
				<port id="2" precision="I64"/>
			</input>
			<output>
				<port id="3" precision="I64" names="1109"/>
			</output>
		</layer>
		<layer id="248" name="1127" type="Subtract" version="opset1">
			<data auto_broadcast="numpy"/>
			<rt_info>
				<attribute name="fused_names" version="0" value="1127, 2221"/>
			</rt_info>
			<input>
				<port id="0" precision="I64"/>
				<port id="1" precision="I64"/>
			</input>
			<output>
				<port id="2" precision="I64" names="1127"/>
			</output>
		</layer>
		<layer id="249" name="1128" type="Const" version="opset1">
			<data element_type="i64" shape="" offset="48" size="8"/>
			<rt_info>
				<attribute name="fused_names" version="0" value="1128"/>
			</rt_info>
			<output>
				<port id="0" precision="I64" names="1128"/>
			</output>
		</layer>
		<layer id="250" name="1129" type="Divide" version="opset1">
			<data auto_broadcast="numpy" m_pythondiv="true"/>
			<rt_info>
				<attribute name="fused_names" version="0" value="1128, 1129, 1130, 1131"/>
			</rt_info>
			<input>
				<port id="0" precision="I64"/>
				<port id="1" precision="I64"/>
			</input>
			<output>
				<port id="2" precision="I64" names="1129,1130,1131"/>
			</output>
		</layer>
		<layer id="251" name="Constant_2816" type="Const" version="opset1">
			<data element_type="i64" shape="1" offset="40" size="8"/>
			<rt_info>
				<attribute name="fused_names" version="0" value="Constant_2816"/>
			</rt_info>
			<output>
				<port id="0" precision="I64">
					<dim>1</dim>
				</port>
			</output>
		</layer>
		<layer id="252" name="1151" type="Unsqueeze" version="opset1">
			<rt_info>
				<attribute name="fused_names" version="0" value="1151, Constant_2816"/>
			</rt_info>
			<input>
				<port id="0" precision="I64"/>
				<port id="1" precision="I64">
					<dim>1</dim>
				</port>
			</input>
			<output>
				<port id="2" precision="I64" names="1151">
					<dim>1</dim>
				</port>
			</output>
		</layer>
		<layer id="253" name="1132" type="Const" version="opset1">
			<data element_type="i64" shape="" offset="48" size="8"/>
			<rt_info>
				<attribute name="fused_names" version="0" value="1132"/>
			</rt_info>
			<output>
				<port id="0" precision="I64" names="1132"/>
			</output>
		</layer>
		<layer id="254" name="1133" type="Divide" version="opset1">
			<data auto_broadcast="numpy" m_pythondiv="true"/>
			<rt_info>
				<attribute name="fused_names" version="0" value="1132, 1133, 1134, 1135"/>
			</rt_info>
			<input>
				<port id="0" precision="I64"/>
				<port id="1" precision="I64"/>
			</input>
			<output>
				<port id="2" precision="I64" names="1133,1134,1135"/>
			</output>
		</layer>
		<layer id="255" name="1136" type="Subtract" version="opset1">
			<data auto_broadcast="numpy"/>
			<rt_info>
				<attribute name="fused_names" version="0" value="1136"/>
			</rt_info>
			<input>
				<port id="0" precision="I64"/>
				<port id="1" precision="I64"/>
			</input>
			<output>
				<port id="2" precision="I64" names="1136"/>
			</output>
		</layer>
		<layer id="256" name="Constant_2818" type="Const" version="opset1">
			<data element_type="i64" shape="1" offset="40" size="8"/>
			<rt_info>
				<attribute name="fused_names" version="0" value="Constant_2818"/>
			</rt_info>
			<output>
				<port id="0" precision="I64">
					<dim>1</dim>
				</port>
			</output>
		</layer>
		<layer id="257" name="1152" type="Unsqueeze" version="opset1">
			<rt_info>
				<attribute name="fused_names" version="0" value="1152, Constant_2818"/>
			</rt_info>
			<input>
				<port id="0" precision="I64"/>
				<port id="1" precision="I64">
					<dim>1</dim>
				</port>
			</input>
			<output>
				<port id="2" precision="I64" names="1152">
					<dim>1</dim>
				</port>
			</output>
		</layer>
		<layer id="258" name="2217" type="Const" version="opset1">
			<data element_type="i64" shape="" offset="3673692" size="8"/>
			<rt_info>
				<attribute name="fused_names" version="0" value="2217"/>
			</rt_info>
			<output>
				<port id="0" precision="I64" names="2217"/>
			</output>
		</layer>
		<layer id="259" name="1105" type="Const" version="opset1">
			<data element_type="i64" shape="" offset="48" size="8"/>
			<rt_info>
				<attribute name="fused_names" version="0" value="1105"/>
			</rt_info>
			<output>
				<port id="0" precision="I64" names="1105"/>
			</output>
		</layer>
		<layer id="260" name="Constant_2781" type="Const" version="opset1">
			<data element_type="i64" shape="" offset="40" size="8"/>
			<rt_info>
				<attribute name="fused_names" version="0" value="Constant_2781"/>
			</rt_info>
			<output>
				<port id="0" precision="I64"/>
			</output>
		</layer>
		<layer id="261" name="1106" type="Gather" version="opset8">
			<data batch_dims="0"/>
			<rt_info>
				<attribute name="fused_names" version="0" value="1105, 1106, Constant_2781"/>
			</rt_info>
			<input>
				<port id="0" precision="I64">
					<dim>4</dim>
				</port>
				<port id="1" precision="I64"/>
				<port id="2" precision="I64"/>
			</input>
			<output>
				<port id="3" precision="I64" names="1106"/>
			</output>
		</layer>
		<layer id="262" name="1118" type="Subtract" version="opset1">
			<data auto_broadcast="numpy"/>
			<rt_info>
				<attribute name="fused_names" version="0" value="1118, 2217"/>
			</rt_info>
			<input>
				<port id="0" precision="I64"/>
				<port id="1" precision="I64"/>
			</input>
			<output>
				<port id="2" precision="I64" names="1118"/>
			</output>
		</layer>
		<layer id="263" name="1137" type="Const" version="opset1">
			<data element_type="i64" shape="" offset="48" size="8"/>
			<rt_info>
				<attribute name="fused_names" version="0" value="1137"/>
			</rt_info>
			<output>
				<port id="0" precision="I64" names="1137"/>
			</output>
		</layer>
		<layer id="264" name="1138" type="Divide" version="opset1">
			<data auto_broadcast="numpy" m_pythondiv="true"/>
			<rt_info>
				<attribute name="fused_names" version="0" value="1137, 1138, 1139, 1140"/>
			</rt_info>
			<input>
				<port id="0" precision="I64"/>
				<port id="1" precision="I64"/>
			</input>
			<output>
				<port id="2" precision="I64" names="1138,1139,1140"/>
			</output>
		</layer>
		<layer id="265" name="Constant_2820" type="Const" version="opset1">
			<data element_type="i64" shape="1" offset="40" size="8"/>
			<rt_info>
				<attribute name="fused_names" version="0" value="Constant_2820"/>
			</rt_info>
			<output>
				<port id="0" precision="I64">
					<dim>1</dim>
				</port>
			</output>
		</layer>
		<layer id="266" name="1153" type="Unsqueeze" version="opset1">
			<rt_info>
				<attribute name="fused_names" version="0" value="1153, Constant_2820"/>
			</rt_info>
			<input>
				<port id="0" precision="I64"/>
				<port id="1" precision="I64">
					<dim>1</dim>
				</port>
			</input>
			<output>
				<port id="2" precision="I64" names="1153">
					<dim>1</dim>
				</port>
			</output>
		</layer>
		<layer id="267" name="1141" type="Const" version="opset1">
			<data element_type="i64" shape="" offset="48" size="8"/>
			<rt_info>
				<attribute name="fused_names" version="0" value="1141"/>
			</rt_info>
			<output>
				<port id="0" precision="I64" names="1141"/>
			</output>
		</layer>
		<layer id="268" name="1142" type="Divide" version="opset1">
			<data auto_broadcast="numpy" m_pythondiv="true"/>
			<rt_info>
				<attribute name="fused_names" version="0" value="1141, 1142, 1143, 1144"/>
			</rt_info>
			<input>
				<port id="0" precision="I64"/>
				<port id="1" precision="I64"/>
			</input>
			<output>
				<port id="2" precision="I64" names="1142,1143,1144"/>
			</output>
		</layer>
		<layer id="269" name="1145" type="Subtract" version="opset1">
			<data auto_broadcast="numpy"/>
			<rt_info>
				<attribute name="fused_names" version="0" value="1145"/>
			</rt_info>
			<input>
				<port id="0" precision="I64"/>
				<port id="1" precision="I64"/>
			</input>
			<output>
				<port id="2" precision="I64" names="1145"/>
			</output>
		</layer>
		<layer id="270" name="Constant_2822" type="Const" version="opset1">
			<data element_type="i64" shape="1" offset="40" size="8"/>
			<rt_info>
				<attribute name="fused_names" version="0" value="Constant_2822"/>
			</rt_info>
			<output>
				<port id="0" precision="I64">
					<dim>1</dim>
				</port>
			</output>
		</layer>
		<layer id="271" name="1154" type="Unsqueeze" version="opset1">
			<rt_info>
				<attribute name="fused_names" version="0" value="1154, Constant_2822"/>
			</rt_info>
			<input>
				<port id="0" precision="I64"/>
				<port id="1" precision="I64">
					<dim>1</dim>
				</port>
			</input>
			<output>
				<port id="2" precision="I64" names="1154">
					<dim>1</dim>
				</port>
			</output>
		</layer>
		<layer id="272" name="1155" type="Concat" version="opset1">
			<data axis="0"/>
			<rt_info>
				<attribute name="fused_names" version="0" value="1155, 1163"/>
			</rt_info>
			<input>
				<port id="0" precision="I64">
					<dim>1</dim>
				</port>
				<port id="1" precision="I64">
					<dim>1</dim>
				</port>
				<port id="2" precision="I64">
					<dim>1</dim>
				</port>
				<port id="3" precision="I64">
					<dim>1</dim>
				</port>
			</input>
			<output>
				<port id="4" precision="I64" names="1155,1163">
					<dim>4</dim>
				</port>
			</output>
		</layer>
		<layer id="273" name="1164" type="Const" version="opset1">
			<data element_type="i64" shape="4" offset="56" size="32"/>
			<output>
				<port id="0" precision="I64" names="1164">
					<dim>4</dim>
				</port>
			</output>
		</layer>
		<layer id="274" name="1165" type="Concat" version="opset1">
			<data axis="0"/>
			<rt_info>
				<attribute name="fused_names" version="0" value="1157, 1158, 1162, 1164, 1165"/>
			</rt_info>
			<input>
				<port id="0" precision="I64">
					<dim>4</dim>
				</port>
				<port id="1" precision="I64">
					<dim>4</dim>
				</port>
			</input>
			<output>
				<port id="2" precision="I64" names="1165">
					<dim>8</dim>
				</port>
			</output>
		</layer>
		<layer id="275" name="1166" type="Const" version="opset1">
			<data element_type="i64" shape="2" offset="88" size="16"/>
			<rt_info>
				<attribute name="fused_names" version="0" value="1166"/>
			</rt_info>
			<output>
				<port id="0" precision="I64" names="1166">
					<dim>2</dim>
				</port>
			</output>
		</layer>
		<layer id="276" name="1167" type="Reshape" version="opset1">
			<data special_zero="true"/>
			<rt_info>
				<attribute name="fused_names" version="0" value="1166, 1167"/>
			</rt_info>
			<input>
				<port id="0" precision="I64">
					<dim>8</dim>
				</port>
				<port id="1" precision="I64">
					<dim>2</dim>
				</port>
			</input>
			<output>
				<port id="2" precision="I64" names="1167">
					<dim>4</dim>
					<dim>2</dim>
				</port>
			</output>
		</layer>
		<layer id="277" name="1169" type="Const" version="opset1">
			<data element_type="i64" shape="1" offset="104" size="8"/>
			<rt_info>
				<attribute name="fused_names" version="0" value="1168, 1169, 1170, 1171, 1172"/>
			</rt_info>
			<output>
				<port id="0" precision="I64" names="1169">
					<dim>1</dim>
				</port>
			</output>
		</layer>
		<layer id="278" name="1170" type="Const" version="opset1">
			<data element_type="i64" shape="1" offset="112" size="8"/>
			<rt_info>
				<attribute name="fused_names" version="0" value="1168, 1169, 1170, 1171, 1172"/>
			</rt_info>
			<output>
				<port id="0" precision="I64" names="1170">
					<dim>1</dim>
				</port>
			</output>
		</layer>
		<layer id="279" name="1171" type="Const" version="opset1">
			<data element_type="i64" shape="1" offset="104" size="8"/>
			<rt_info>
				<attribute name="fused_names" version="0" value="1168, 1169, 1170, 1171, 1172"/>
			</rt_info>
			<output>
				<port id="0" precision="I64" names="1171">
					<dim>1</dim>
				</port>
			</output>
		</layer>
		<layer id="280" name="1172" type="StridedSlice" version="opset1">
			<data begin_mask="0" end_mask="0" new_axis_mask="" shrink_axis_mask="" ellipsis_mask=""/>
			<rt_info>
				<attribute name="fused_names" version="0" value="1168, 1169, 1170, 1171, 1172"/>
			</rt_info>
			<input>
				<port id="0" precision="I64">
					<dim>4</dim>
					<dim>2</dim>
				</port>
				<port id="1" precision="I64">
					<dim>1</dim>
				</port>
				<port id="2" precision="I64">
					<dim>1</dim>
				</port>
				<port id="3" precision="I64">
					<dim>1</dim>
				</port>
			</input>
			<output>
				<port id="4" precision="I64" names="1172">
					<dim>4</dim>
					<dim>2</dim>
				</port>
			</output>
		</layer>
		<layer id="281" name="Constant_2867" type="Const" version="opset1">
			<data element_type="i64" shape="2" offset="120" size="16"/>
			<rt_info>
				<attribute name="fused_names" version="0" value="Constant_2867"/>
			</rt_info>
			<output>
				<port id="0" precision="I64">
					<dim>2</dim>
				</port>
			</output>
		</layer>
		<layer id="282" name="1173" type="Transpose" version="opset1">
			<rt_info>
				<attribute name="fused_names" version="0" value="1173, Constant_2867"/>
			</rt_info>
			<input>
				<port id="0" precision="I64">
					<dim>4</dim>
					<dim>2</dim>
				</port>
				<port id="1" precision="I64">
					<dim>2</dim>
				</port>
			</input>
			<output>
				<port id="2" precision="I64" names="1173">
					<dim>2</dim>
					<dim>4</dim>
				</port>
			</output>
		</layer>
		<layer id="283" name="1174" type="Const" version="opset1">
			<data element_type="i64" shape="1" offset="104" size="8"/>
			<rt_info>
				<attribute name="fused_names" version="0" value="1174"/>
			</rt_info>
			<output>
				<port id="0" precision="I64" names="1174">
					<dim>1</dim>
				</port>
			</output>
		</layer>
		<layer id="284" name="1175" type="Reshape" version="opset1">
			<data special_zero="true"/>
			<rt_info>
				<attribute name="fused_names" version="0" value="1174, 1175, 1176"/>
			</rt_info>
			<input>
				<port id="0" precision="I64">
					<dim>2</dim>
					<dim>4</dim>
				</port>
				<port id="1" precision="I64">
					<dim>1</dim>
				</port>
			</input>
			<output>
				<port id="2" precision="I64" names="1175,1176">
					<dim>8</dim>
				</port>
			</output>
		</layer>
		<layer id="285" name="Constant_2878" type="Const" version="opset1">
			<data element_type="i64" shape="" offset="40" size="8"/>
			<rt_info>
				<attribute name="fused_names" version="0" value="Constant_2878"/>
			</rt_info>
			<output>
				<port id="0" precision="I64"/>
			</output>
		</layer>
		<layer id="286" name="Split_2879" type="Split" version="opset1">
			<data num_splits="2"/>
			<rt_info>
				<attribute name="fused_names" version="0" value="Constant_2878, Split_2879"/>
			</rt_info>
			<input>
				<port id="0" precision="I64">
					<dim>8</dim>
				</port>
				<port id="1" precision="I64"/>
			</input>
			<output>
				<port id="2" precision="I64">
					<dim>4</dim>
				</port>
				<port id="3" precision="I64">
					<dim>4</dim>
				</port>
			</output>
		</layer>
		<layer id="287" name="1177" type="Const" version="opset1">
			<data element_type="f32" shape="" offset="136" size="4"/>
			<rt_info>
				<attribute name="fused_names" version="0" value="1177"/>
			</rt_info>
			<output>
				<port id="0" precision="FP32" names="1177"/>
			</output>
		</layer>
		<layer id="288" name="1178" type="Pad" version="opset1">
			<data pad_mode="constant"/>
			<rt_info>
				<attribute name="fused_names" version="0" value="1178"/>
			</rt_info>
			<input>
				<port id="0" precision="FP32">
					<dim>1</dim>
					<dim>256</dim>
					<dim>28</dim>
					<dim>28</dim>
				</port>
				<port id="1" precision="I64">
					<dim>4</dim>
				</port>
				<port id="2" precision="I64">
					<dim>4</dim>
				</port>
				<port id="3" precision="FP32"/>
			</input>
			<output>
				<port id="4" precision="FP32" names="1178">
					<dim>1</dim>
					<dim>256</dim>
					<dim>29</dim>
					<dim>29</dim>
				</port>
			</output>
		</layer>
		<layer id="289" name="Reshape_3262" type="Const" version="opset1">
			<data element_type="f32" shape="256, 1, 1, 3, 3" offset="3673700" size="9216"/>
			<output>
				<port id="0" precision="FP32">
					<dim>256</dim>
					<dim>1</dim>
					<dim>1</dim>
					<dim>3</dim>
					<dim>3</dim>
				</port>
			</output>
		</layer>
		<layer id="290" name="GroupConvolution_3328" type="GroupConvolution" version="opset1">
			<data strides="2, 2" pads_begin="0, 0" pads_end="0, 0" dilations="1, 1" auto_pad="explicit"/>
			<rt_info>
				<attribute name="fused_names" version="0" value="GroupConvolution_3328, Reshape_3262"/>
			</rt_info>
			<input>
				<port id="0" precision="FP32">
					<dim>1</dim>
					<dim>256</dim>
					<dim>29</dim>
					<dim>29</dim>
				</port>
				<port id="1" precision="FP32">
					<dim>256</dim>
					<dim>1</dim>
					<dim>1</dim>
					<dim>3</dim>
					<dim>3</dim>
				</port>
			</input>
			<output>
				<port id="2" precision="FP32">
					<dim>1</dim>
					<dim>256</dim>
					<dim>14</dim>
					<dim>14</dim>
				</port>
			</output>
		</layer>
		<layer id="291" name="Reshape_3348" type="Const" version="opset1">
			<data element_type="f32" shape="1, 256, 1, 1" offset="3682916" size="1024"/>
			<output>
				<port id="0" precision="FP32">
					<dim>1</dim>
					<dim>256</dim>
					<dim>1</dim>
					<dim>1</dim>
				</port>
			</output>
		</layer>
		<layer id="292" name="1901" type="Add" version="opset1">
			<data auto_broadcast="numpy"/>
			<rt_info>
				<attribute name="fused_names" version="0" value="1901, Concat_3347, Reshape_3348"/>
			</rt_info>
			<input>
				<port id="0" precision="FP32">
					<dim>1</dim>
					<dim>256</dim>
					<dim>14</dim>
					<dim>14</dim>
				</port>
				<port id="1" precision="FP32">
					<dim>1</dim>
					<dim>256</dim>
					<dim>1</dim>
					<dim>1</dim>
				</port>
			</input>
			<output>
				<port id="2" precision="FP32" names="1901">
					<dim>1</dim>
					<dim>256</dim>
					<dim>14</dim>
					<dim>14</dim>
				</port>
			</output>
		</layer>
		<layer id="293" name="1182" type="Swish" version="opset4">
			<rt_info>
				<attribute name="fused_names" version="0" value="1181, 1182"/>
			</rt_info>
			<input>
				<port id="0" precision="FP32">
					<dim>1</dim>
					<dim>256</dim>
					<dim>14</dim>
					<dim>14</dim>
				</port>
			</input>
			<output>
				<port id="1" precision="FP32" names="1182">
					<dim>1</dim>
					<dim>256</dim>
					<dim>14</dim>
					<dim>14</dim>
				</port>
			</output>
		</layer>
		<layer id="294" name="Constant_3378" type="Const" version="opset1">
			<data element_type="i64" shape="2" offset="3683940" size="16"/>
			<rt_info>
				<attribute name="fused_names" version="0" value="Constant_3378"/>
			</rt_info>
			<output>
				<port id="0" precision="I64">
					<dim>2</dim>
				</port>
			</output>
		</layer>
		<layer id="295" name="1183" type="ReduceMean" version="opset1">
			<data keep_dims="true"/>
			<rt_info>
				<attribute name="fused_names" version="0" value="1183"/>
			</rt_info>
			<input>
				<port id="0" precision="FP32">
					<dim>1</dim>
					<dim>256</dim>
					<dim>14</dim>
					<dim>14</dim>
				</port>
				<port id="1" precision="I64">
					<dim>2</dim>
				</port>
			</input>
			<output>
				<port id="2" precision="FP32" names="1183">
					<dim>1</dim>
					<dim>256</dim>
					<dim>1</dim>
					<dim>1</dim>
				</port>
			</output>
		</layer>
		<layer id="296" name="model.blocks.3.0.se.conv_reduce.weight" type="Const" version="opset1">
			<data element_type="f32" shape="16, 256, 1, 1" offset="3683956" size="16384"/>
			<rt_info>
				<attribute name="fused_names" version="0" value="model.blocks.3.0.se.conv_reduce.weight"/>
			</rt_info>
			<output>
				<port id="0" precision="FP32" names="model.blocks.3.0.se.conv_reduce.weight">
					<dim>16</dim>
					<dim>256</dim>
					<dim>1</dim>
					<dim>1</dim>
				</port>
			</output>
		</layer>
		<layer id="297" name="Convolution_3380" type="Convolution" version="opset1">
			<data strides="1, 1" dilations="1, 1" pads_begin="0, 0" pads_end="0, 0" auto_pad="explicit"/>
			<rt_info>
				<attribute name="fused_names" version="0" value="Convolution_3380"/>
			</rt_info>
			<input>
				<port id="0" precision="FP32">
					<dim>1</dim>
					<dim>256</dim>
					<dim>1</dim>
					<dim>1</dim>
				</port>
				<port id="1" precision="FP32">
					<dim>16</dim>
					<dim>256</dim>
					<dim>1</dim>
					<dim>1</dim>
				</port>
			</input>
			<output>
				<port id="2" precision="FP32">
					<dim>1</dim>
					<dim>16</dim>
					<dim>1</dim>
					<dim>1</dim>
				</port>
			</output>
		</layer>
		<layer id="298" name="Reshape_3400" type="Const" version="opset1">
			<data element_type="f32" shape="1, 16, 1, 1" offset="3700340" size="64"/>
			<output>
				<port id="0" precision="FP32">
					<dim>1</dim>
					<dim>16</dim>
					<dim>1</dim>
					<dim>1</dim>
				</port>
			</output>
		</layer>
		<layer id="299" name="1184" type="Add" version="opset1">
			<data auto_broadcast="numpy"/>
			<rt_info>
				<attribute name="fused_names" version="0" value="1184, Concat_3399, Reshape_3400"/>
			</rt_info>
			<input>
				<port id="0" precision="FP32">
					<dim>1</dim>
					<dim>16</dim>
					<dim>1</dim>
					<dim>1</dim>
				</port>
				<port id="1" precision="FP32">
					<dim>1</dim>
					<dim>16</dim>
					<dim>1</dim>
					<dim>1</dim>
				</port>
			</input>
			<output>
				<port id="2" precision="FP32" names="1184">
					<dim>1</dim>
					<dim>16</dim>
					<dim>1</dim>
					<dim>1</dim>
				</port>
			</output>
		</layer>
		<layer id="300" name="1186" type="Swish" version="opset4">
			<rt_info>
				<attribute name="fused_names" version="0" value="1185, 1186"/>
			</rt_info>
			<input>
				<port id="0" precision="FP32">
					<dim>1</dim>
					<dim>16</dim>
					<dim>1</dim>
					<dim>1</dim>
				</port>
			</input>
			<output>
				<port id="1" precision="FP32" names="1186">
					<dim>1</dim>
					<dim>16</dim>
					<dim>1</dim>
					<dim>1</dim>
				</port>
			</output>
		</layer>
		<layer id="301" name="model.blocks.3.0.se.conv_expand.weight" type="Const" version="opset1">
			<data element_type="f32" shape="256, 16, 1, 1" offset="3700404" size="16384"/>
			<rt_info>
				<attribute name="fused_names" version="0" value="model.blocks.3.0.se.conv_expand.weight"/>
			</rt_info>
			<output>
				<port id="0" precision="FP32" names="model.blocks.3.0.se.conv_expand.weight">
					<dim>256</dim>
					<dim>16</dim>
					<dim>1</dim>
					<dim>1</dim>
				</port>
			</output>
		</layer>
		<layer id="302" name="Convolution_3430" type="Convolution" version="opset1">
			<data strides="1, 1" dilations="1, 1" pads_begin="0, 0" pads_end="0, 0" auto_pad="explicit"/>
			<rt_info>
				<attribute name="fused_names" version="0" value="Convolution_3430"/>
			</rt_info>
			<input>
				<port id="0" precision="FP32">
					<dim>1</dim>
					<dim>16</dim>
					<dim>1</dim>
					<dim>1</dim>
				</port>
				<port id="1" precision="FP32">
					<dim>256</dim>
					<dim>16</dim>
					<dim>1</dim>
					<dim>1</dim>
				</port>
			</input>
			<output>
				<port id="2" precision="FP32">
					<dim>1</dim>
					<dim>256</dim>
					<dim>1</dim>
					<dim>1</dim>
				</port>
			</output>
		</layer>
		<layer id="303" name="Reshape_3450" type="Const" version="opset1">
			<data element_type="f32" shape="1, 256, 1, 1" offset="3716788" size="1024"/>
			<output>
				<port id="0" precision="FP32">
					<dim>1</dim>
					<dim>256</dim>
					<dim>1</dim>
					<dim>1</dim>
				</port>
			</output>
		</layer>
		<layer id="304" name="1187" type="Add" version="opset1">
			<data auto_broadcast="numpy"/>
			<rt_info>
				<attribute name="fused_names" version="0" value="1187, Concat_3449, Reshape_3450"/>
			</rt_info>
			<input>
				<port id="0" precision="FP32">
					<dim>1</dim>
					<dim>256</dim>
					<dim>1</dim>
					<dim>1</dim>
				</port>
				<port id="1" precision="FP32">
					<dim>1</dim>
					<dim>256</dim>
					<dim>1</dim>
					<dim>1</dim>
				</port>
			</input>
			<output>
				<port id="2" precision="FP32" names="1187">
					<dim>1</dim>
					<dim>256</dim>
					<dim>1</dim>
					<dim>1</dim>
				</port>
			</output>
		</layer>
		<layer id="305" name="1188" type="Sigmoid" version="opset1">
			<rt_info>
				<attribute name="fused_names" version="0" value="1188"/>
			</rt_info>
			<input>
				<port id="0" precision="FP32">
					<dim>1</dim>
					<dim>256</dim>
					<dim>1</dim>
					<dim>1</dim>
				</port>
			</input>
			<output>
				<port id="1" precision="FP32" names="1188">
					<dim>1</dim>
					<dim>256</dim>
					<dim>1</dim>
					<dim>1</dim>
				</port>
			</output>
		</layer>
		<layer id="306" name="1189" type="Multiply" version="opset1">
			<data auto_broadcast="numpy"/>
			<rt_info>
				<attribute name="fused_names" version="0" value="1189"/>
			</rt_info>
			<input>
				<port id="0" precision="FP32">
					<dim>1</dim>
					<dim>256</dim>
					<dim>14</dim>
					<dim>14</dim>
				</port>
				<port id="1" precision="FP32">
					<dim>1</dim>
					<dim>256</dim>
					<dim>1</dim>
					<dim>1</dim>
				</port>
			</input>
			<output>
				<port id="2" precision="FP32" names="1189">
					<dim>1</dim>
					<dim>256</dim>
					<dim>14</dim>
					<dim>14</dim>
				</port>
			</output>
		</layer>
		<layer id="307" name="1905" type="Const" version="opset1">
			<data element_type="f32" shape="128, 256, 1, 1" offset="3717812" size="131072"/>
			<rt_info>
				<attribute name="fused_names" version="0" value="1905"/>
			</rt_info>
			<output>
				<port id="0" precision="FP32" names="1905">
					<dim>128</dim>
					<dim>256</dim>
					<dim>1</dim>
					<dim>1</dim>
				</port>
			</output>
		</layer>
		<layer id="308" name="Convolution_3480" type="Convolution" version="opset1">
			<data strides="1, 1" dilations="1, 1" pads_begin="0, 0" pads_end="0, 0" auto_pad="explicit"/>
			<rt_info>
				<attribute name="fused_names" version="0" value="Convolution_3480"/>
			</rt_info>
			<input>
				<port id="0" precision="FP32">
					<dim>1</dim>
					<dim>256</dim>
					<dim>14</dim>
					<dim>14</dim>
				</port>
				<port id="1" precision="FP32">
					<dim>128</dim>
					<dim>256</dim>
					<dim>1</dim>
					<dim>1</dim>
				</port>
			</input>
			<output>
				<port id="2" precision="FP32">
					<dim>1</dim>
					<dim>128</dim>
					<dim>14</dim>
					<dim>14</dim>
				</port>
			</output>
		</layer>
		<layer id="309" name="Reshape_3500" type="Const" version="opset1">
			<data element_type="f32" shape="1, 128, 1, 1" offset="3848884" size="512"/>
			<output>
				<port id="0" precision="FP32">
					<dim>1</dim>
					<dim>128</dim>
					<dim>1</dim>
					<dim>1</dim>
				</port>
			</output>
		</layer>
		<layer id="310" name="1904" type="Add" version="opset1">
			<data auto_broadcast="numpy"/>
			<rt_info>
				<attribute name="fused_names" version="0" value="1904, Concat_3499, Reshape_3500"/>
			</rt_info>
			<input>
				<port id="0" precision="FP32">
					<dim>1</dim>
					<dim>128</dim>
					<dim>14</dim>
					<dim>14</dim>
				</port>
				<port id="1" precision="FP32">
					<dim>1</dim>
					<dim>128</dim>
					<dim>1</dim>
					<dim>1</dim>
				</port>
			</input>
			<output>
				<port id="2" precision="FP32" names="1904">
					<dim>1</dim>
					<dim>128</dim>
					<dim>14</dim>
					<dim>14</dim>
				</port>
			</output>
		</layer>
		<layer id="311" name="1908" type="Const" version="opset1">
			<data element_type="f32" shape="512, 128, 1, 1" offset="3849396" size="262144"/>
			<rt_info>
				<attribute name="fused_names" version="0" value="1908"/>
			</rt_info>
			<output>
				<port id="0" precision="FP32" names="1908">
					<dim>512</dim>
					<dim>128</dim>
					<dim>1</dim>
					<dim>1</dim>
				</port>
			</output>
		</layer>
		<layer id="312" name="Convolution_3528" type="Convolution" version="opset1">
			<data strides="1, 1" dilations="1, 1" pads_begin="0, 0" pads_end="0, 0" auto_pad="explicit"/>
			<rt_info>
				<attribute name="fused_names" version="0" value="Convolution_3528"/>
			</rt_info>
			<input>
				<port id="0" precision="FP32">
					<dim>1</dim>
					<dim>128</dim>
					<dim>14</dim>
					<dim>14</dim>
				</port>
				<port id="1" precision="FP32">
					<dim>512</dim>
					<dim>128</dim>
					<dim>1</dim>
					<dim>1</dim>
				</port>
			</input>
			<output>
				<port id="2" precision="FP32">
					<dim>1</dim>
					<dim>512</dim>
					<dim>14</dim>
					<dim>14</dim>
				</port>
			</output>
		</layer>
		<layer id="313" name="Reshape_3548" type="Const" version="opset1">
			<data element_type="f32" shape="1, 512, 1, 1" offset="4111540" size="2048"/>
			<output>
				<port id="0" precision="FP32">
					<dim>1</dim>
					<dim>512</dim>
					<dim>1</dim>
					<dim>1</dim>
				</port>
			</output>
		</layer>
		<layer id="314" name="1907" type="Add" version="opset1">
			<data auto_broadcast="numpy"/>
			<rt_info>
				<attribute name="fused_names" version="0" value="1907, Concat_3547, Reshape_3548"/>
			</rt_info>
			<input>
				<port id="0" precision="FP32">
					<dim>1</dim>
					<dim>512</dim>
					<dim>14</dim>
					<dim>14</dim>
				</port>
				<port id="1" precision="FP32">
					<dim>1</dim>
					<dim>512</dim>
					<dim>1</dim>
					<dim>1</dim>
				</port>
			</input>
			<output>
				<port id="2" precision="FP32" names="1907">
					<dim>1</dim>
					<dim>512</dim>
					<dim>14</dim>
					<dim>14</dim>
				</port>
			</output>
		</layer>
		<layer id="315" name="1195" type="Swish" version="opset4">
			<rt_info>
				<attribute name="fused_names" version="0" value="1194, 1195"/>
			</rt_info>
			<input>
				<port id="0" precision="FP32">
					<dim>1</dim>
					<dim>512</dim>
					<dim>14</dim>
					<dim>14</dim>
				</port>
			</input>
			<output>
				<port id="1" precision="FP32" names="1195">
					<dim>1</dim>
					<dim>512</dim>
					<dim>14</dim>
					<dim>14</dim>
				</port>
			</output>
		</layer>
		<layer id="316" name="Reshape_3585" type="Const" version="opset1">
			<data element_type="f32" shape="512, 1, 1, 3, 3" offset="4113588" size="18432"/>
			<output>
				<port id="0" precision="FP32">
					<dim>512</dim>
					<dim>1</dim>
					<dim>1</dim>
					<dim>3</dim>
					<dim>3</dim>
				</port>
			</output>
		</layer>
		<layer id="317" name="GroupConvolution_3651" type="GroupConvolution" version="opset1">
			<data strides="1, 1" pads_begin="1, 1" pads_end="1, 1" dilations="1, 1" auto_pad="explicit"/>
			<rt_info>
				<attribute name="fused_names" version="0" value="GroupConvolution_3651, Reshape_3585"/>
			</rt_info>
			<input>
				<port id="0" precision="FP32">
					<dim>1</dim>
					<dim>512</dim>
					<dim>14</dim>
					<dim>14</dim>
				</port>
				<port id="1" precision="FP32">
					<dim>512</dim>
					<dim>1</dim>
					<dim>1</dim>
					<dim>3</dim>
					<dim>3</dim>
				</port>
			</input>
			<output>
				<port id="2" precision="FP32">
					<dim>1</dim>
					<dim>512</dim>
					<dim>14</dim>
					<dim>14</dim>
				</port>
			</output>
		</layer>
		<layer id="318" name="Reshape_3671" type="Const" version="opset1">
			<data element_type="f32" shape="1, 512, 1, 1" offset="4132020" size="2048"/>
			<output>
				<port id="0" precision="FP32">
					<dim>1</dim>
					<dim>512</dim>
					<dim>1</dim>
					<dim>1</dim>
				</port>
			</output>
		</layer>
		<layer id="319" name="1910" type="Add" version="opset1">
			<data auto_broadcast="numpy"/>
			<rt_info>
				<attribute name="fused_names" version="0" value="1910, Concat_3670, Reshape_3671"/>
			</rt_info>
			<input>
				<port id="0" precision="FP32">
					<dim>1</dim>
					<dim>512</dim>
					<dim>14</dim>
					<dim>14</dim>
				</port>
				<port id="1" precision="FP32">
					<dim>1</dim>
					<dim>512</dim>
					<dim>1</dim>
					<dim>1</dim>
				</port>
			</input>
			<output>
				<port id="2" precision="FP32" names="1910">
					<dim>1</dim>
					<dim>512</dim>
					<dim>14</dim>
					<dim>14</dim>
				</port>
			</output>
		</layer>
		<layer id="320" name="1199" type="Swish" version="opset4">
			<rt_info>
				<attribute name="fused_names" version="0" value="1198, 1199"/>
			</rt_info>
			<input>
				<port id="0" precision="FP32">
					<dim>1</dim>
					<dim>512</dim>
					<dim>14</dim>
					<dim>14</dim>
				</port>
			</input>
			<output>
				<port id="1" precision="FP32" names="1199">
					<dim>1</dim>
					<dim>512</dim>
					<dim>14</dim>
					<dim>14</dim>
				</port>
			</output>
		</layer>
		<layer id="321" name="Constant_3701" type="Const" version="opset1">
			<data element_type="i64" shape="2" offset="3683940" size="16"/>
			<rt_info>
				<attribute name="fused_names" version="0" value="Constant_3701"/>
			</rt_info>
			<output>
				<port id="0" precision="I64">
					<dim>2</dim>
				</port>
			</output>
		</layer>
		<layer id="322" name="1200" type="ReduceMean" version="opset1">
			<data keep_dims="true"/>
			<rt_info>
				<attribute name="fused_names" version="0" value="1200"/>
			</rt_info>
			<input>
				<port id="0" precision="FP32">
					<dim>1</dim>
					<dim>512</dim>
					<dim>14</dim>
					<dim>14</dim>
				</port>
				<port id="1" precision="I64">
					<dim>2</dim>
				</port>
			</input>
			<output>
				<port id="2" precision="FP32" names="1200">
					<dim>1</dim>
					<dim>512</dim>
					<dim>1</dim>
					<dim>1</dim>
				</port>
			</output>
		</layer>
		<layer id="323" name="model.blocks.3.1.se.conv_reduce.weight" type="Const" version="opset1">
			<data element_type="f32" shape="32, 512, 1, 1" offset="4134068" size="65536"/>
			<rt_info>
				<attribute name="fused_names" version="0" value="model.blocks.3.1.se.conv_reduce.weight"/>
			</rt_info>
			<output>
				<port id="0" precision="FP32" names="model.blocks.3.1.se.conv_reduce.weight">
					<dim>32</dim>
					<dim>512</dim>
					<dim>1</dim>
					<dim>1</dim>
				</port>
			</output>
		</layer>
		<layer id="324" name="Convolution_3703" type="Convolution" version="opset1">
			<data strides="1, 1" dilations="1, 1" pads_begin="0, 0" pads_end="0, 0" auto_pad="explicit"/>
			<rt_info>
				<attribute name="fused_names" version="0" value="Convolution_3703"/>
			</rt_info>
			<input>
				<port id="0" precision="FP32">
					<dim>1</dim>
					<dim>512</dim>
					<dim>1</dim>
					<dim>1</dim>
				</port>
				<port id="1" precision="FP32">
					<dim>32</dim>
					<dim>512</dim>
					<dim>1</dim>
					<dim>1</dim>
				</port>
			</input>
			<output>
				<port id="2" precision="FP32">
					<dim>1</dim>
					<dim>32</dim>
					<dim>1</dim>
					<dim>1</dim>
				</port>
			</output>
		</layer>
		<layer id="325" name="Reshape_3723" type="Const" version="opset1">
			<data element_type="f32" shape="1, 32, 1, 1" offset="4199604" size="128"/>
			<output>
				<port id="0" precision="FP32">
					<dim>1</dim>
					<dim>32</dim>
					<dim>1</dim>
					<dim>1</dim>
				</port>
			</output>
		</layer>
		<layer id="326" name="1201" type="Add" version="opset1">
			<data auto_broadcast="numpy"/>
			<rt_info>
				<attribute name="fused_names" version="0" value="1201, Concat_3722, Reshape_3723"/>
			</rt_info>
			<input>
				<port id="0" precision="FP32">
					<dim>1</dim>
					<dim>32</dim>
					<dim>1</dim>
					<dim>1</dim>
				</port>
				<port id="1" precision="FP32">
					<dim>1</dim>
					<dim>32</dim>
					<dim>1</dim>
					<dim>1</dim>
				</port>
			</input>
			<output>
				<port id="2" precision="FP32" names="1201">
					<dim>1</dim>
					<dim>32</dim>
					<dim>1</dim>
					<dim>1</dim>
				</port>
			</output>
		</layer>
		<layer id="327" name="1203" type="Swish" version="opset4">
			<rt_info>
				<attribute name="fused_names" version="0" value="1202, 1203"/>
			</rt_info>
			<input>
				<port id="0" precision="FP32">
					<dim>1</dim>
					<dim>32</dim>
					<dim>1</dim>
					<dim>1</dim>
				</port>
			</input>
			<output>
				<port id="1" precision="FP32" names="1203">
					<dim>1</dim>
					<dim>32</dim>
					<dim>1</dim>
					<dim>1</dim>
				</port>
			</output>
		</layer>
		<layer id="328" name="model.blocks.3.1.se.conv_expand.weight" type="Const" version="opset1">
			<data element_type="f32" shape="512, 32, 1, 1" offset="4199732" size="65536"/>
			<rt_info>
				<attribute name="fused_names" version="0" value="model.blocks.3.1.se.conv_expand.weight"/>
			</rt_info>
			<output>
				<port id="0" precision="FP32" names="model.blocks.3.1.se.conv_expand.weight">
					<dim>512</dim>
					<dim>32</dim>
					<dim>1</dim>
					<dim>1</dim>
				</port>
			</output>
		</layer>
		<layer id="329" name="Convolution_3753" type="Convolution" version="opset1">
			<data strides="1, 1" dilations="1, 1" pads_begin="0, 0" pads_end="0, 0" auto_pad="explicit"/>
			<rt_info>
				<attribute name="fused_names" version="0" value="Convolution_3753"/>
			</rt_info>
			<input>
				<port id="0" precision="FP32">
					<dim>1</dim>
					<dim>32</dim>
					<dim>1</dim>
					<dim>1</dim>
				</port>
				<port id="1" precision="FP32">
					<dim>512</dim>
					<dim>32</dim>
					<dim>1</dim>
					<dim>1</dim>
				</port>
			</input>
			<output>
				<port id="2" precision="FP32">
					<dim>1</dim>
					<dim>512</dim>
					<dim>1</dim>
					<dim>1</dim>
				</port>
			</output>
		</layer>
		<layer id="330" name="Reshape_3773" type="Const" version="opset1">
			<data element_type="f32" shape="1, 512, 1, 1" offset="4265268" size="2048"/>
			<output>
				<port id="0" precision="FP32">
					<dim>1</dim>
					<dim>512</dim>
					<dim>1</dim>
					<dim>1</dim>
				</port>
			</output>
		</layer>
		<layer id="331" name="1204" type="Add" version="opset1">
			<data auto_broadcast="numpy"/>
			<rt_info>
				<attribute name="fused_names" version="0" value="1204, Concat_3772, Reshape_3773"/>
			</rt_info>
			<input>
				<port id="0" precision="FP32">
					<dim>1</dim>
					<dim>512</dim>
					<dim>1</dim>
					<dim>1</dim>
				</port>
				<port id="1" precision="FP32">
					<dim>1</dim>
					<dim>512</dim>
					<dim>1</dim>
					<dim>1</dim>
				</port>
			</input>
			<output>
				<port id="2" precision="FP32" names="1204">
					<dim>1</dim>
					<dim>512</dim>
					<dim>1</dim>
					<dim>1</dim>
				</port>
			</output>
		</layer>
		<layer id="332" name="1205" type="Sigmoid" version="opset1">
			<rt_info>
				<attribute name="fused_names" version="0" value="1205"/>
			</rt_info>
			<input>
				<port id="0" precision="FP32">
					<dim>1</dim>
					<dim>512</dim>
					<dim>1</dim>
					<dim>1</dim>
				</port>
			</input>
			<output>
				<port id="1" precision="FP32" names="1205">
					<dim>1</dim>
					<dim>512</dim>
					<dim>1</dim>
					<dim>1</dim>
				</port>
			</output>
		</layer>
		<layer id="333" name="1206" type="Multiply" version="opset1">
			<data auto_broadcast="numpy"/>
			<rt_info>
				<attribute name="fused_names" version="0" value="1206"/>
			</rt_info>
			<input>
				<port id="0" precision="FP32">
					<dim>1</dim>
					<dim>512</dim>
					<dim>14</dim>
					<dim>14</dim>
				</port>
				<port id="1" precision="FP32">
					<dim>1</dim>
					<dim>512</dim>
					<dim>1</dim>
					<dim>1</dim>
				</port>
			</input>
			<output>
				<port id="2" precision="FP32" names="1206">
					<dim>1</dim>
					<dim>512</dim>
					<dim>14</dim>
					<dim>14</dim>
				</port>
			</output>
		</layer>
		<layer id="334" name="1914" type="Const" version="opset1">
			<data element_type="f32" shape="128, 512, 1, 1" offset="4267316" size="262144"/>
			<rt_info>
				<attribute name="fused_names" version="0" value="1914"/>
			</rt_info>
			<output>
				<port id="0" precision="FP32" names="1914">
					<dim>128</dim>
					<dim>512</dim>
					<dim>1</dim>
					<dim>1</dim>
				</port>
			</output>
		</layer>
		<layer id="335" name="Convolution_3803" type="Convolution" version="opset1">
			<data strides="1, 1" dilations="1, 1" pads_begin="0, 0" pads_end="0, 0" auto_pad="explicit"/>
			<rt_info>
				<attribute name="fused_names" version="0" value="Convolution_3803"/>
			</rt_info>
			<input>
				<port id="0" precision="FP32">
					<dim>1</dim>
					<dim>512</dim>
					<dim>14</dim>
					<dim>14</dim>
				</port>
				<port id="1" precision="FP32">
					<dim>128</dim>
					<dim>512</dim>
					<dim>1</dim>
					<dim>1</dim>
				</port>
			</input>
			<output>
				<port id="2" precision="FP32">
					<dim>1</dim>
					<dim>128</dim>
					<dim>14</dim>
					<dim>14</dim>
				</port>
			</output>
		</layer>
		<layer id="336" name="Reshape_3823" type="Const" version="opset1">
			<data element_type="f32" shape="1, 128, 1, 1" offset="4529460" size="512"/>
			<output>
				<port id="0" precision="FP32">
					<dim>1</dim>
					<dim>128</dim>
					<dim>1</dim>
					<dim>1</dim>
				</port>
			</output>
		</layer>
		<layer id="337" name="1913" type="Add" version="opset1">
			<data auto_broadcast="numpy"/>
			<rt_info>
				<attribute name="fused_names" version="0" value="1913, Concat_3822, Reshape_3823"/>
			</rt_info>
			<input>
				<port id="0" precision="FP32">
					<dim>1</dim>
					<dim>128</dim>
					<dim>14</dim>
					<dim>14</dim>
				</port>
				<port id="1" precision="FP32">
					<dim>1</dim>
					<dim>128</dim>
					<dim>1</dim>
					<dim>1</dim>
				</port>
			</input>
			<output>
				<port id="2" precision="FP32" names="1913">
					<dim>1</dim>
					<dim>128</dim>
					<dim>14</dim>
					<dim>14</dim>
				</port>
			</output>
		</layer>
		<layer id="338" name="1209" type="Add" version="opset1">
			<data auto_broadcast="numpy"/>
			<rt_info>
				<attribute name="fused_names" version="0" value="1209"/>
			</rt_info>
			<input>
				<port id="0" precision="FP32">
					<dim>1</dim>
					<dim>128</dim>
					<dim>14</dim>
					<dim>14</dim>
				</port>
				<port id="1" precision="FP32">
					<dim>1</dim>
					<dim>128</dim>
					<dim>14</dim>
					<dim>14</dim>
				</port>
			</input>
			<output>
				<port id="2" precision="FP32" names="1209">
					<dim>1</dim>
					<dim>128</dim>
					<dim>14</dim>
					<dim>14</dim>
				</port>
			</output>
		</layer>
		<layer id="339" name="1917" type="Const" version="opset1">
			<data element_type="f32" shape="512, 128, 1, 1" offset="4529972" size="262144"/>
			<rt_info>
				<attribute name="fused_names" version="0" value="1917"/>
			</rt_info>
			<output>
				<port id="0" precision="FP32" names="1917">
					<dim>512</dim>
					<dim>128</dim>
					<dim>1</dim>
					<dim>1</dim>
				</port>
			</output>
		</layer>
		<layer id="340" name="Convolution_3852" type="Convolution" version="opset1">
			<data strides="1, 1" dilations="1, 1" pads_begin="0, 0" pads_end="0, 0" auto_pad="explicit"/>
			<rt_info>
				<attribute name="fused_names" version="0" value="Convolution_3852"/>
			</rt_info>
			<input>
				<port id="0" precision="FP32">
					<dim>1</dim>
					<dim>128</dim>
					<dim>14</dim>
					<dim>14</dim>
				</port>
				<port id="1" precision="FP32">
					<dim>512</dim>
					<dim>128</dim>
					<dim>1</dim>
					<dim>1</dim>
				</port>
			</input>
			<output>
…
		<edge from-layer="583" from-port="1" to-layer="584" to-port="1"/>
		<edge from-layer="584" from-port="2" to-layer="586" to-port="0"/>
		<edge from-layer="585" from-port="0" to-layer="586" to-port="1"/>
		<edge from-layer="586" from-port="2" to-layer="588" to-port="0"/>
		<edge from-layer="587" from-port="0" to-layer="588" to-port="1"/>
		<edge from-layer="588" from-port="2" to-layer="589" to-port="0"/>
		<edge from-layer="589" from-port="2" to-layer="591" to-port="0"/>
		<edge from-layer="589" from-port="2" to-layer="617" to-port="1"/>
		<edge from-layer="590" from-port="0" to-layer="591" to-port="1"/>
		<edge from-layer="591" from-port="2" to-layer="593" to-port="0"/>
		<edge from-layer="592" from-port="0" to-layer="593" to-port="1"/>
		<edge from-layer="593" from-port="2" to-layer="594" to-port="0"/>
		<edge from-layer="594" from-port="1" to-layer="596" to-port="0"/>
		<edge from-layer="595" from-port="0" to-layer="596" to-port="1"/>
		<edge from-layer="596" from-port="2" to-layer="598" to-port="0"/>
		<edge from-layer="597" from-port="0" to-layer="598" to-port="1"/>
		<edge from-layer="598" from-port="2" to-layer="599" to-port="0"/>
		<edge from-layer="599" from-port="1" to-layer="612" to-port="0"/>
		<edge from-layer="599" from-port="1" to-layer="601" to-port="0"/>
		<edge from-layer="600" from-port="0" to-layer="601" to-port="1"/>
		<edge from-layer="601" from-port="2" to-layer="603" to-port="0"/>
		<edge from-layer="602" from-port="0" to-layer="603" to-port="1"/>
		<edge from-layer="603" from-port="2" to-layer="605" to-port="0"/>
		<edge from-layer="604" from-port="0" to-layer="605" to-port="1"/>
		<edge from-layer="605" from-port="2" to-layer="606" to-port="0"/>
		<edge from-layer="606" from-port="1" to-layer="608" to-port="0"/>
		<edge from-layer="607" from-port="0" to-layer="608" to-port="1"/>
		<edge from-layer="608" from-port="2" to-layer="610" to-port="0"/>
		<edge from-layer="609" from-port="0" to-layer="610" to-port="1"/>
		<edge from-layer="610" from-port="2" to-layer="611" to-port="0"/>
		<edge from-layer="611" from-port="1" to-layer="612" to-port="1"/>
		<edge from-layer="612" from-port="2" to-layer="614" to-port="0"/>
		<edge from-layer="613" from-port="0" to-layer="614" to-port="1"/>
		<edge from-layer="614" from-port="2" to-layer="616" to-port="0"/>
		<edge from-layer="615" from-port="0" to-layer="616" to-port="1"/>
		<edge from-layer="616" from-port="2" to-layer="617" to-port="0"/>
		<edge from-layer="617" from-port="2" to-layer="645" to-port="1"/>
		<edge from-layer="617" from-port="2" to-layer="619" to-port="0"/>
		<edge from-layer="618" from-port="0" to-layer="619" to-port="1"/>
		<edge from-layer="619" from-port="2" to-layer="621" to-port="0"/>
		<edge from-layer="620" from-port="0" to-layer="621" to-port="1"/>
		<edge from-layer="621" from-port="2" to-layer="622" to-port="0"/>
		<edge from-layer="622" from-port="1" to-layer="624" to-port="0"/>
		<edge from-layer="623" from-port="0" to-layer="624" to-port="1"/>
		<edge from-layer="624" from-port="2" to-layer="626" to-port="0"/>
		<edge from-layer="625" from-port="0" to-layer="626" to-port="1"/>
		<edge from-layer="626" from-port="2" to-layer="627" to-port="0"/>
		<edge from-layer="627" from-port="1" to-layer="629" to-port="0"/>
		<edge from-layer="627" from-port="1" to-layer="640" to-port="0"/>
		<edge from-layer="628" from-port="0" to-layer="629" to-port="1"/>
		<edge from-layer="629" from-port="2" to-layer="631" to-port="0"/>
		<edge from-layer="630" from-port="0" to-layer="631" to-port="1"/>
		<edge from-layer="631" from-port="2" to-layer="633" to-port="0"/>
		<edge from-layer="632" from-port="0" to-layer="633" to-port="1"/>
		<edge from-layer="633" from-port="2" to-layer="634" to-port="0"/>
		<edge from-layer="634" from-port="1" to-layer="636" to-port="0"/>
		<edge from-layer="635" from-port="0" to-layer="636" to-port="1"/>
		<edge from-layer="636" from-port="2" to-layer="638" to-port="0"/>
		<edge from-layer="637" from-port="0" to-layer="638" to-port="1"/>
		<edge from-layer="638" from-port="2" to-layer="639" to-port="0"/>
		<edge from-layer="639" from-port="1" to-layer="640" to-port="1"/>
		<edge from-layer="640" from-port="2" to-layer="642" to-port="0"/>
		<edge from-layer="641" from-port="0" to-layer="642" to-port="1"/>
		<edge from-layer="642" from-port="2" to-layer="644" to-port="0"/>
		<edge from-layer="643" from-port="0" to-layer="644" to-port="1"/>
		<edge from-layer="644" from-port="2" to-layer="645" to-port="0"/>
		<edge from-layer="645" from-port="2" to-layer="647" to-port="0"/>
		<edge from-layer="645" from-port="2" to-layer="673" to-port="1"/>
		<edge from-layer="646" from-port="0" to-layer="647" to-port="1"/>
		<edge from-layer="647" from-port="2" to-layer="649" to-port="0"/>
		<edge from-layer="648" from-port="0" to-layer="649" to-port="1"/>
		<edge from-layer="649" from-port="2" to-layer="650" to-port="0"/>
		<edge from-layer="650" from-port="1" to-layer="652" to-port="0"/>
		<edge from-layer="651" from-port="0" to-layer="652" to-port="1"/>
		<edge from-layer="652" from-port="2" to-layer="654" to-port="0"/>
		<edge from-layer="653" from-port="0" to-layer="654" to-port="1"/>
		<edge from-layer="654" from-port="2" to-layer="655" to-port="0"/>
		<edge from-layer="655" from-port="1" to-layer="657" to-port="0"/>
		<edge from-layer="655" from-port="1" to-layer="668" to-port="0"/>
		<edge from-layer="656" from-port="0" to-layer="657" to-port="1"/>
		<edge from-layer="657" from-port="2" to-layer="659" to-port="0"/>
		<edge from-layer="658" from-port="0" to-layer="659" to-port="1"/>
		<edge from-layer="659" from-port="2" to-layer="661" to-port="0"/>
		<edge from-layer="660" from-port="0" to-layer="661" to-port="1"/>
		<edge from-layer="661" from-port="2" to-layer="662" to-port="0"/>
		<edge from-layer="662" from-port="1" to-layer="664" to-port="0"/>
		<edge from-layer="663" from-port="0" to-layer="664" to-port="1"/>
		<edge from-layer="664" from-port="2" to-layer="666" to-port="0"/>
		<edge from-layer="665" from-port="0" to-layer="666" to-port="1"/>
		<edge from-layer="666" from-port="2" to-layer="667" to-port="0"/>
		<edge from-layer="667" from-port="1" to-layer="668" to-port="1"/>
		<edge from-layer="668" from-port="2" to-layer="670" to-port="0"/>
		<edge from-layer="669" from-port="0" to-layer="670" to-port="1"/>
		<edge from-layer="670" from-port="2" to-layer="672" to-port="0"/>
		<edge from-layer="671" from-port="0" to-layer="672" to-port="1"/>
		<edge from-layer="672" from-port="2" to-layer="673" to-port="0"/>
		<edge from-layer="673" from-port="2" to-layer="675" to-port="0"/>
		<edge from-layer="673" from-port="2" to-layer="701" to-port="1"/>
		<edge from-layer="674" from-port="0" to-layer="675" to-port="1"/>
		<edge from-layer="675" from-port="2" to-layer="677" to-port="0"/>
		<edge from-layer="676" from-port="0" to-layer="677" to-port="1"/>
		<edge from-layer="677" from-port="2" to-layer="678" to-port="0"/>
		<edge from-layer="678" from-port="1" to-layer="680" to-port="0"/>
		<edge from-layer="679" from-port="0" to-layer="680" to-port="1"/>
		<edge from-layer="680" from-port="2" to-layer="682" to-port="0"/>
		<edge from-layer="681" from-port="0" to-layer="682" to-port="1"/>
		<edge from-layer="682" from-port="2" to-layer="683" to-port="0"/>
		<edge from-layer="683" from-port="1" to-layer="696" to-port="0"/>
		<edge from-layer="683" from-port="1" to-layer="685" to-port="0"/>
		<edge from-layer="684" from-port="0" to-layer="685" to-port="1"/>
		<edge from-layer="685" from-port="2" to-layer="687" to-port="0"/>
		<edge from-layer="686" from-port="0" to-layer="687" to-port="1"/>
		<edge from-layer="687" from-port="2" to-layer="689" to-port="0"/>
		<edge from-layer="688" from-port="0" to-layer="689" to-port="1"/>
		<edge from-layer="689" from-port="2" to-layer="690" to-port="0"/>
		<edge from-layer="690" from-port="1" to-layer="692" to-port="0"/>
		<edge from-layer="691" from-port="0" to-layer="692" to-port="1"/>
		<edge from-layer="692" from-port="2" to-layer="694" to-port="0"/>
		<edge from-layer="693" from-port="0" to-layer="694" to-port="1"/>
		<edge from-layer="694" from-port="2" to-layer="695" to-port="0"/>
		<edge from-layer="695" from-port="1" to-layer="696" to-port="1"/>
		<edge from-layer="696" from-port="2" to-layer="698" to-port="0"/>
		<edge from-layer="697" from-port="0" to-layer="698" to-port="1"/>
		<edge from-layer="698" from-port="2" to-layer="700" to-port="0"/>
		<edge from-layer="699" from-port="0" to-layer="700" to-port="1"/>
		<edge from-layer="700" from-port="2" to-layer="701" to-port="0"/>
		<edge from-layer="701" from-port="2" to-layer="703" to-port="0"/>
		<edge from-layer="702" from-port="0" to-layer="703" to-port="1"/>
		<edge from-layer="703" from-port="2" to-layer="705" to-port="0"/>
		<edge from-layer="704" from-port="0" to-layer="705" to-port="1"/>
		<edge from-layer="705" from-port="2" to-layer="706" to-port="0"/>
		<edge from-layer="706" from-port="1" to-layer="752" to-port="0"/>
		<edge from-layer="706" from-port="1" to-layer="708" to-port="0"/>
		<edge from-layer="707" from-port="0" to-layer="712" to-port="0"/>
		<edge from-layer="708" from-port="1" to-layer="711" to-port="0"/>
		<edge from-layer="708" from-port="1" to-layer="725" to-port="0"/>
		<edge from-layer="709" from-port="0" to-layer="711" to-port="1"/>
		<edge from-layer="710" from-port="0" to-layer="711" to-port="2"/>
		<edge from-layer="711" from-port="3" to-layer="712" to-port="1"/>
		<edge from-layer="712" from-port="2" to-layer="714" to-port="0"/>
		<edge from-layer="712" from-port="2" to-layer="718" to-port="0"/>
		<edge from-layer="712" from-port="2" to-layer="719" to-port="0"/>
		<edge from-layer="713" from-port="0" to-layer="714" to-port="1"/>
		<edge from-layer="714" from-port="2" to-layer="716" to-port="0"/>
		<edge from-layer="715" from-port="0" to-layer="716" to-port="1"/>
		<edge from-layer="716" from-port="2" to-layer="736" to-port="0"/>
		<edge from-layer="717" from-port="0" to-layer="718" to-port="1"/>
		<edge from-layer="718" from-port="2" to-layer="719" to-port="1"/>
		<edge from-layer="719" from-port="2" to-layer="721" to-port="0"/>
		<edge from-layer="720" from-port="0" to-layer="721" to-port="1"/>
		<edge from-layer="721" from-port="2" to-layer="736" to-port="1"/>
		<edge from-layer="722" from-port="0" to-layer="726" to-port="0"/>
		<edge from-layer="723" from-port="0" to-layer="725" to-port="1"/>
		<edge from-layer="724" from-port="0" to-layer="725" to-port="2"/>
		<edge from-layer="725" from-port="3" to-layer="726" to-port="1"/>
		<edge from-layer="726" from-port="2" to-layer="732" to-port="0"/>
		<edge from-layer="726" from-port="2" to-layer="733" to-port="0"/>
		<edge from-layer="726" from-port="2" to-layer="728" to-port="0"/>
		<edge from-layer="727" from-port="0" to-layer="728" to-port="1"/>
		<edge from-layer="728" from-port="2" to-layer="730" to-port="0"/>
		<edge from-layer="729" from-port="0" to-layer="730" to-port="1"/>
		<edge from-layer="730" from-port="2" to-layer="736" to-port="2"/>
		<edge from-layer="731" from-port="0" to-layer="732" to-port="1"/>
		<edge from-layer="732" from-port="2" to-layer="733" to-port="1"/>
		<edge from-layer="733" from-port="2" to-layer="735" to-port="0"/>
		<edge from-layer="734" from-port="0" to-layer="735" to-port="1"/>
		<edge from-layer="735" from-port="2" to-layer="736" to-port="3"/>
		<edge from-layer="736" from-port="4" to-layer="738" to-port="0"/>
		<edge from-layer="737" from-port="0" to-layer="738" to-port="1"/>
		<edge from-layer="738" from-port="2" to-layer="740" to-port="0"/>
		<edge from-layer="739" from-port="0" to-layer="740" to-port="1"/>
		<edge from-layer="740" from-port="2" to-layer="744" to-port="0"/>
		<edge from-layer="741" from-port="0" to-layer="744" to-port="1"/>
		<edge from-layer="742" from-port="0" to-layer="744" to-port="2"/>
		<edge from-layer="743" from-port="0" to-layer="744" to-port="3"/>
		<edge from-layer="744" from-port="4" to-layer="746" to-port="0"/>
		<edge from-layer="745" from-port="0" to-layer="746" to-port="1"/>
		<edge from-layer="746" from-port="2" to-layer="748" to-port="0"/>
		<edge from-layer="747" from-port="0" to-layer="748" to-port="1"/>
		<edge from-layer="748" from-port="2" to-layer="750" to-port="0"/>
		<edge from-layer="749" from-port="0" to-layer="750" to-port="1"/>
		<edge from-layer="750" from-port="2" to-layer="752" to-port="1"/>
		<edge from-layer="750" from-port="3" to-layer="752" to-port="2"/>
		<edge from-layer="751" from-port="0" to-layer="752" to-port="3"/>
		<edge from-layer="752" from-port="4" to-layer="754" to-port="0"/>
		<edge from-layer="753" from-port="0" to-layer="754" to-port="1"/>
		<edge from-layer="754" from-port="2" to-layer="756" to-port="0"/>
		<edge from-layer="755" from-port="0" to-layer="756" to-port="1"/>
		<edge from-layer="756" from-port="2" to-layer="757" to-port="0"/>
		<edge from-layer="757" from-port="1" to-layer="759" to-port="0"/>
		<edge from-layer="757" from-port="1" to-layer="770" to-port="0"/>
		<edge from-layer="758" from-port="0" to-layer="759" to-port="1"/>
		<edge from-layer="759" from-port="2" to-layer="761" to-port="0"/>
		<edge from-layer="760" from-port="0" to-layer="761" to-port="1"/>
		<edge from-layer="761" from-port="2" to-layer="763" to-port="0"/>
		<edge from-layer="762" from-port="0" to-layer="763" to-port="1"/>
		<edge from-layer="763" from-port="2" to-layer="764" to-port="0"/>
		<edge from-layer="764" from-port="1" to-layer="766" to-port="0"/>
		<edge from-layer="765" from-port="0" to-layer="766" to-port="1"/>
		<edge from-layer="766" from-port="2" to-layer="768" to-port="0"/>
		<edge from-layer="767" from-port="0" to-layer="768" to-port="1"/>
		<edge from-layer="768" from-port="2" to-layer="769" to-port="0"/>
		<edge from-layer="769" from-port="1" to-layer="770" to-port="1"/>
		<edge from-layer="770" from-port="2" to-layer="772" to-port="0"/>
		<edge from-layer="771" from-port="0" to-layer="772" to-port="1"/>
		<edge from-layer="772" from-port="2" to-layer="774" to-port="0"/>
		<edge from-layer="773" from-port="0" to-layer="774" to-port="1"/>
		<edge from-layer="774" from-port="2" to-layer="802" to-port="1"/>
		<edge from-layer="774" from-port="2" to-layer="776" to-port="0"/>
		<edge from-layer="775" from-port="0" to-layer="776" to-port="1"/>
		<edge from-layer="776" from-port="2" to-layer="778" to-port="0"/>
		<edge from-layer="777" from-port="0" to-layer="778" to-port="1"/>
		<edge from-layer="778" from-port="2" to-layer="779" to-port="0"/>
		<edge from-layer="779" from-port="1" to-layer="781" to-port="0"/>
		<edge from-layer="780" from-port="0" to-layer="781" to-port="1"/>
		<edge from-layer="781" from-port="2" to-layer="783" to-port="0"/>
		<edge from-layer="782" from-port="0" to-layer="783" to-port="1"/>
		<edge from-layer="783" from-port="2" to-layer="784" to-port="0"/>
		<edge from-layer="784" from-port="1" to-layer="786" to-port="0"/>
		<edge from-layer="784" from-port="1" to-layer="797" to-port="0"/>
		<edge from-layer="785" from-port="0" to-layer="786" to-port="1"/>
		<edge from-layer="786" from-port="2" to-layer="788" to-port="0"/>
		<edge from-layer="787" from-port="0" to-layer="788" to-port="1"/>
		<edge from-layer="788" from-port="2" to-layer="790" to-port="0"/>
		<edge from-layer="789" from-port="0" to-layer="790" to-port="1"/>
		<edge from-layer="790" from-port="2" to-layer="791" to-port="0"/>
		<edge from-layer="791" from-port="1" to-layer="793" to-port="0"/>
		<edge from-layer="792" from-port="0" to-layer="793" to-port="1"/>
		<edge from-layer="793" from-port="2" to-layer="795" to-port="0"/>
		<edge from-layer="794" from-port="0" to-layer="795" to-port="1"/>
		<edge from-layer="795" from-port="2" to-layer="796" to-port="0"/>
		<edge from-layer="796" from-port="1" to-layer="797" to-port="1"/>
		<edge from-layer="797" from-port="2" to-layer="799" to-port="0"/>
		<edge from-layer="798" from-port="0" to-layer="799" to-port="1"/>
		<edge from-layer="799" from-port="2" to-layer="801" to-port="0"/>
		<edge from-layer="800" from-port="0" to-layer="801" to-port="1"/>
		<edge from-layer="801" from-port="2" to-layer="802" to-port="0"/>
		<edge from-layer="802" from-port="2" to-layer="804" to-port="0"/>
		<edge from-layer="802" from-port="2" to-layer="830" to-port="1"/>
		<edge from-layer="803" from-port="0" to-layer="804" to-port="1"/>
		<edge from-layer="804" from-port="2" to-layer="806" to-port="0"/>
		<edge from-layer="805" from-port="0" to-layer="806" to-port="1"/>
		<edge from-layer="806" from-port="2" to-layer="807" to-port="0"/>
		<edge from-layer="807" from-port="1" to-layer="809" to-port="0"/>
		<edge from-layer="808" from-port="0" to-layer="809" to-port="1"/>
		<edge from-layer="809" from-port="2" to-layer="811" to-port="0"/>
		<edge from-layer="810" from-port="0" to-layer="811" to-port="1"/>
		<edge from-layer="811" from-port="2" to-layer="812" to-port="0"/>
		<edge from-layer="812" from-port="1" to-layer="814" to-port="0"/>
		<edge from-layer="812" from-port="1" to-layer="825" to-port="0"/>
		<edge from-layer="813" from-port="0" to-layer="814" to-port="1"/>
		<edge from-layer="814" from-port="2" to-layer="816" to-port="0"/>
		<edge from-layer="815" from-port="0" to-layer="816" to-port="1"/>
		<edge from-layer="816" from-port="2" to-layer="818" to-port="0"/>
		<edge from-layer="817" from-port="0" to-layer="818" to-port="1"/>
		<edge from-layer="818" from-port="2" to-layer="819" to-port="0"/>
		<edge from-layer="819" from-port="1" to-layer="821" to-port="0"/>
		<edge from-layer="820" from-port="0" to-layer="821" to-port="1"/>
		<edge from-layer="821" from-port="2" to-layer="823" to-port="0"/>
		<edge from-layer="822" from-port="0" to-layer="823" to-port="1"/>
		<edge from-layer="823" from-port="2" to-layer="824" to-port="0"/>
		<edge from-layer="824" from-port="1" to-layer="825" to-port="1"/>
		<edge from-layer="825" from-port="2" to-layer="827" to-port="0"/>
		<edge from-layer="826" from-port="0" to-layer="827" to-port="1"/>
		<edge from-layer="827" from-port="2" to-layer="829" to-port="0"/>
		<edge from-layer="828" from-port="0" to-layer="829" to-port="1"/>
		<edge from-layer="829" from-port="2" to-layer="830" to-port="0"/>
		<edge from-layer="830" from-port="2" to-layer="858" to-port="1"/>
		<edge from-layer="830" from-port="2" to-layer="832" to-port="0"/>
		<edge from-layer="831" from-port="0" to-layer="832" to-port="1"/>
		<edge from-layer="832" from-port="2" to-layer="834" to-port="0"/>
		<edge from-layer="833" from-port="0" to-layer="834" to-port="1"/>
		<edge from-layer="834" from-port="2" to-layer="835" to-port="0"/>
		<edge from-layer="835" from-port="1" to-layer="837" to-port="0"/>
		<edge from-layer="836" from-port="0" to-layer="837" to-port="1"/>
		<edge from-layer="837" from-port="2" to-layer="839" to-port="0"/>
		<edge from-layer="838" from-port="0" to-layer="839" to-port="1"/>
		<edge from-layer="839" from-port="2" to-layer="840" to-port="0"/>
		<edge from-layer="840" from-port="1" to-layer="842" to-port="0"/>
		<edge from-layer="840" from-port="1" to-layer="853" to-port="0"/>
		<edge from-layer="841" from-port="0" to-layer="842" to-port="1"/>
		<edge from-layer="842" from-port="2" to-layer="844" to-port="0"/>
		<edge from-layer="843" from-port="0" to-layer="844" to-port="1"/>
		<edge from-layer="844" from-port="2" to-layer="846" to-port="0"/>
		<edge from-layer="845" from-port="0" to-layer="846" to-port="1"/>
		<edge from-layer="846" from-port="2" to-layer="847" to-port="0"/>
		<edge from-layer="847" from-port="1" to-layer="849" to-port="0"/>
		<edge from-layer="848" from-port="0" to-layer="849" to-port="1"/>
		<edge from-layer="849" from-port="2" to-layer="851" to-port="0"/>
		<edge from-layer="850" from-port="0" to-layer="851" to-port="1"/>
		<edge from-layer="851" from-port="2" to-layer="852" to-port="0"/>
		<edge from-layer="852" from-port="1" to-layer="853" to-port="1"/>
		<edge from-layer="853" from-port="2" to-layer="855" to-port="0"/>
		<edge from-layer="854" from-port="0" to-layer="855" to-port="1"/>
		<edge from-layer="855" from-port="2" to-layer="857" to-port="0"/>
		<edge from-layer="856" from-port="0" to-layer="857" to-port="1"/>
		<edge from-layer="857" from-port="2" to-layer="858" to-port="0"/>
		<edge from-layer="858" from-port="2" to-layer="860" to-port="0"/>
		<edge from-layer="858" from-port="2" to-layer="886" to-port="1"/>
		<edge from-layer="859" from-port="0" to-layer="860" to-port="1"/>
		<edge from-layer="860" from-port="2" to-layer="862" to-port="0"/>
		<edge from-layer="861" from-port="0" to-layer="862" to-port="1"/>
		<edge from-layer="862" from-port="2" to-layer="863" to-port="0"/>
		<edge from-layer="863" from-port="1" to-layer="865" to-port="0"/>
		<edge from-layer="864" from-port="0" to-layer="865" to-port="1"/>
		<edge from-layer="865" from-port="2" to-layer="867" to-port="0"/>
		<edge from-layer="866" from-port="0" to-layer="867" to-port="1"/>
		<edge from-layer="867" from-port="2" to-layer="868" to-port="0"/>
		<edge from-layer="868" from-port="1" to-layer="870" to-port="0"/>
		<edge from-layer="868" from-port="1" to-layer="881" to-port="0"/>
		<edge from-layer="869" from-port="0" to-layer="870" to-port="1"/>
		<edge from-layer="870" from-port="2" to-layer="872" to-port="0"/>
		<edge from-layer="871" from-port="0" to-layer="872" to-port="1"/>
		<edge from-layer="872" from-port="2" to-layer="874" to-port="0"/>
		<edge from-layer="873" from-port="0" to-layer="874" to-port="1"/>
		<edge from-layer="874" from-port="2" to-layer="875" to-port="0"/>
		<edge from-layer="875" from-port="1" to-layer="877" to-port="0"/>
		<edge from-layer="876" from-port="0" to-layer="877" to-port="1"/>
		<edge from-layer="877" from-port="2" to-layer="879" to-port="0"/>
		<edge from-layer="878" from-port="0" to-layer="879" to-port="1"/>
		<edge from-layer="879" from-port="2" to-layer="880" to-port="0"/>
		<edge from-layer="880" from-port="1" to-layer="881" to-port="1"/>
		<edge from-layer="881" from-port="2" to-layer="883" to-port="0"/>
		<edge from-layer="882" from-port="0" to-layer="883" to-port="1"/>
		<edge from-layer="883" from-port="2" to-layer="885" to-port="0"/>
		<edge from-layer="884" from-port="0" to-layer="885" to-port="1"/>
		<edge from-layer="885" from-port="2" to-layer="886" to-port="0"/>
		<edge from-layer="886" from-port="2" to-layer="914" to-port="1"/>
		<edge from-layer="886" from-port="2" to-layer="888" to-port="0"/>
		<edge from-layer="887" from-port="0" to-layer="888" to-port="1"/>
		<edge from-layer="888" from-port="2" to-layer="890" to-port="0"/>
		<edge from-layer="889" from-port="0" to-layer="890" to-port="1"/>
		<edge from-layer="890" from-port="2" to-layer="891" to-port="0"/>
		<edge from-layer="891" from-port="1" to-layer="893" to-port="0"/>
		<edge from-layer="892" from-port="0" to-layer="893" to-port="1"/>
		<edge from-layer="893" from-port="2" to-layer="895" to-port="0"/>
		<edge from-layer="894" from-port="0" to-layer="895" to-port="1"/>
		<edge from-layer="895" from-port="2" to-layer="896" to-port="0"/>
		<edge from-layer="896" from-port="1" to-layer="898" to-port="0"/>
		<edge from-layer="896" from-port="1" to-layer="909" to-port="0"/>
		<edge from-layer="897" from-port="0" to-layer="898" to-port="1"/>
		<edge from-layer="898" from-port="2" to-layer="900" to-port="0"/>
		<edge from-layer="899" from-port="0" to-layer="900" to-port="1"/>
		<edge from-layer="900" from-port="2" to-layer="902" to-port="0"/>
		<edge from-layer="901" from-port="0" to-layer="902" to-port="1"/>
		<edge from-layer="902" from-port="2" to-layer="903" to-port="0"/>
		<edge from-layer="903" from-port="1" to-layer="905" to-port="0"/>
		<edge from-layer="904" from-port="0" to-layer="905" to-port="1"/>
		<edge from-layer="905" from-port="2" to-layer="907" to-port="0"/>
		<edge from-layer="906" from-port="0" to-layer="907" to-port="1"/>
		<edge from-layer="907" from-port="2" to-layer="908" to-port="0"/>
		<edge from-layer="908" from-port="1" to-layer="909" to-port="1"/>
		<edge from-layer="909" from-port="2" to-layer="911" to-port="0"/>
		<edge from-layer="910" from-port="0" to-layer="911" to-port="1"/>
		<edge from-layer="911" from-port="2" to-layer="913" to-port="0"/>
		<edge from-layer="912" from-port="0" to-layer="913" to-port="1"/>
		<edge from-layer="913" from-port="2" to-layer="914" to-port="0"/>
		<edge from-layer="914" from-port="2" to-layer="916" to-port="0"/>
		<edge from-layer="914" from-port="2" to-layer="942" to-port="1"/>
		<edge from-layer="915" from-port="0" to-layer="916" to-port="1"/>
		<edge from-layer="916" from-port="2" to-layer="918" to-port="0"/>
		<edge from-layer="917" from-port="0" to-layer="918" to-port="1"/>
		<edge from-layer="918" from-port="2" to-layer="919" to-port="0"/>
		<edge from-layer="919" from-port="1" to-layer="921" to-port="0"/>
		<edge from-layer="920" from-port="0" to-layer="921" to-port="1"/>
		<edge from-layer="921" from-port="2" to-layer="923" to-port="0"/>
		<edge from-layer="922" from-port="0" to-layer="923" to-port="1"/>
		<edge from-layer="923" from-port="2" to-layer="924" to-port="0"/>
		<edge from-layer="924" from-port="1" to-layer="926" to-port="0"/>
		<edge from-layer="924" from-port="1" to-layer="937" to-port="0"/>
		<edge from-layer="925" from-port="0" to-layer="926" to-port="1"/>
		<edge from-layer="926" from-port="2" to-layer="928" to-port="0"/>
		<edge from-layer="927" from-port="0" to-layer="928" to-port="1"/>
		<edge from-layer="928" from-port="2" to-layer="930" to-port="0"/>
		<edge from-layer="929" from-port="0" to-layer="930" to-port="1"/>
		<edge from-layer="930" from-port="2" to-layer="931" to-port="0"/>
		<edge from-layer="931" from-port="1" to-layer="933" to-port="0"/>
		<edge from-layer="932" from-port="0" to-layer="933" to-port="1"/>
		<edge from-layer="933" from-port="2" to-layer="935" to-port="0"/>
		<edge from-layer="934" from-port="0" to-layer="935" to-port="1"/>
		<edge from-layer="935" from-port="2" to-layer="936" to-port="0"/>
		<edge from-layer="936" from-port="1" to-layer="937" to-port="1"/>
		<edge from-layer="937" from-port="2" to-layer="939" to-port="0"/>
		<edge from-layer="938" from-port="0" to-layer="939" to-port="1"/>
		<edge from-layer="939" from-port="2" to-layer="941" to-port="0"/>
		<edge from-layer="940" from-port="0" to-layer="941" to-port="1"/>
		<edge from-layer="941" from-port="2" to-layer="942" to-port="0"/>
		<edge from-layer="942" from-port="2" to-layer="944" to-port="0"/>
		<edge from-layer="942" from-port="2" to-layer="970" to-port="1"/>
		<edge from-layer="943" from-port="0" to-layer="944" to-port="1"/>
		<edge from-layer="944" from-port="2" to-layer="946" to-port="0"/>
		<edge from-layer="945" from-port="0" to-layer="946" to-port="1"/>
		<edge from-layer="946" from-port="2" to-layer="947" to-port="0"/>
		<edge from-layer="947" from-port="1" to-layer="949" to-port="0"/>
		<edge from-layer="948" from-port="0" to-layer="949" to-port="1"/>
		<edge from-layer="949" from-port="2" to-layer="951" to-port="0"/>
		<edge from-layer="950" from-port="0" to-layer="951" to-port="1"/>
		<edge from-layer="951" from-port="2" to-layer="952" to-port="0"/>
		<edge from-layer="952" from-port="1" to-layer="954" to-port="0"/>
		<edge from-layer="952" from-port="1" to-layer="965" to-port="0"/>
		<edge from-layer="953" from-port="0" to-layer="954" to-port="1"/>
		<edge from-layer="954" from-port="2" to-layer="956" to-port="0"/>
		<edge from-layer="955" from-port="0" to-layer="956" to-port="1"/>
		<edge from-layer="956" from-port="2" to-layer="958" to-port="0"/>
		<edge from-layer="957" from-port="0" to-layer="958" to-port="1"/>
		<edge from-layer="958" from-port="2" to-layer="959" to-port="0"/>
		<edge from-layer="959" from-port="1" to-layer="961" to-port="0"/>
		<edge from-layer="960" from-port="0" to-layer="961" to-port="1"/>
		<edge from-layer="961" from-port="2" to-layer="963" to-port="0"/>
		<edge from-layer="962" from-port="0" to-layer="963" to-port="1"/>
		<edge from-layer="963" from-port="2" to-layer="964" to-port="0"/>
		<edge from-layer="964" from-port="1" to-layer="965" to-port="1"/>
		<edge from-layer="965" from-port="2" to-layer="967" to-port="0"/>
		<edge from-layer="966" from-port="0" to-layer="967" to-port="1"/>
		<edge from-layer="967" from-port="2" to-layer="969" to-port="0"/>
		<edge from-layer="968" from-port="0" to-layer="969" to-port="1"/>
		<edge from-layer="969" from-port="2" to-layer="970" to-port="0"/>
		<edge from-layer="970" from-port="2" to-layer="972" to-port="0"/>
		<edge from-layer="970" from-port="2" to-layer="998" to-port="1"/>
		<edge from-layer="971" from-port="0" to-layer="972" to-port="1"/>
		<edge from-layer="972" from-port="2" to-layer="974" to-port="0"/>
		<edge from-layer="973" from-port="0" to-layer="974" to-port="1"/>
		<edge from-layer="974" from-port="2" to-layer="975" to-port="0"/>
		<edge from-layer="975" from-port="1" to-layer="977" to-port="0"/>
		<edge from-layer="976" from-port="0" to-layer="977" to-port="1"/>
		<edge from-layer="977" from-port="2" to-layer="979" to-port="0"/>
		<edge from-layer="978" from-port="0" to-layer="979" to-port="1"/>
		<edge from-layer="979" from-port="2" to-layer="980" to-port="0"/>
		<edge from-layer="980" from-port="1" to-layer="982" to-port="0"/>
		<edge from-layer="980" from-port="1" to-layer="993" to-port="0"/>
		<edge from-layer="981" from-port="0" to-layer="982" to-port="1"/>
		<edge from-layer="982" from-port="2" to-layer="984" to-port="0"/>
		<edge from-layer="983" from-port="0" to-layer="984" to-port="1"/>
		<edge from-layer="984" from-port="2" to-layer="986" to-port="0"/>
		<edge from-layer="985" from-port="0" to-layer="986" to-port="1"/>
		<edge from-layer="986" from-port="2" to-layer="987" to-port="0"/>
		<edge from-layer="987" from-port="1" to-layer="989" to-port="0"/>
		<edge from-layer="988" from-port="0" to-layer="989" to-port="1"/>
		<edge from-layer="989" from-port="2" to-layer="991" to-port="0"/>
		<edge from-layer="990" from-port="0" to-layer="991" to-port="1"/>
		<edge from-layer="991" from-port="2" to-layer="992" to-port="0"/>
		<edge from-layer="992" from-port="1" to-layer="993" to-port="1"/>
		<edge from-layer="993" from-port="2" to-layer="995" to-port="0"/>
		<edge from-layer="994" from-port="0" to-layer="995" to-port="1"/>
		<edge from-layer="995" from-port="2" to-layer="997" to-port="0"/>
		<edge from-layer="996" from-port="0" to-layer="997" to-port="1"/>
		<edge from-layer="997" from-port="2" to-layer="998" to-port="0"/>
		<edge from-layer="998" from-port="2" to-layer="1000" to-port="0"/>
		<edge from-layer="998" from-port="2" to-layer="1026" to-port="1"/>
		<edge from-layer="999" from-port="0" to-layer="1000" to-port="1"/>
		<edge from-layer="1000" from-port="2" to-layer="1002" to-port="0"/>
		<edge from-layer="1001" from-port="0" to-layer="1002" to-port="1"/>
		<edge from-layer="1002" from-port="2" to-layer="1003" to-port="0"/>
		<edge from-layer="1003" from-port="1" to-layer="1005" to-port="0"/>
		<edge from-layer="1004" from-port="0" to-layer="1005" to-port="1"/>
		<edge from-layer="1005" from-port="2" to-layer="1007" to-port="0"/>
		<edge from-layer="1006" from-port="0" to-layer="1007" to-port="1"/>
		<edge from-layer="1007" from-port="2" to-layer="1008" to-port="0"/>
		<edge from-layer="1008" from-port="1" to-layer="1021" to-port="0"/>
		<edge from-layer="1008" from-port="1" to-layer="1010" to-port="0"/>
		<edge from-layer="1009" from-port="0" to-layer="1010" to-port="1"/>
		<edge from-layer="1010" from-port="2" to-layer="1012" to-port="0"/>
		<edge from-layer="1011" from-port="0" to-layer="1012" to-port="1"/>
		<edge from-layer="1012" from-port="2" to-layer="1014" to-port="0"/>
		<edge from-layer="1013" from-port="0" to-layer="1014" to-port="1"/>
		<edge from-layer="1014" from-port="2" to-layer="1015" to-port="0"/>
		<edge from-layer="1015" from-port="1" to-layer="1017" to-port="0"/>
		<edge from-layer="1016" from-port="0" to-layer="1017" to-port="1"/>
		<edge from-layer="1017" from-port="2" to-layer="1019" to-port="0"/>
		<edge from-layer="1018" from-port="0" to-layer="1019" to-port="1"/>
		<edge from-layer="1019" from-port="2" to-layer="1020" to-port="0"/>
		<edge from-layer="1020" from-port="1" to-layer="1021" to-port="1"/>
		<edge from-layer="1021" from-port="2" to-layer="1023" to-port="0"/>
		<edge from-layer="1022" from-port="0" to-layer="1023" to-port="1"/>
		<edge from-layer="1023" from-port="2" to-layer="1025" to-port="0"/>
		<edge from-layer="1024" from-port="0" to-layer="1025" to-port="1"/>
		<edge from-layer="1025" from-port="2" to-layer="1026" to-port="0"/>
		<edge from-layer="1026" from-port="2" to-layer="1028" to-port="0"/>
		<edge from-layer="1026" from-port="2" to-layer="1054" to-port="1"/>
		<edge from-layer="1027" from-port="0" to-layer="1028" to-port="1"/>
		<edge from-layer="1028" from-port="2" to-layer="1030" to-port="0"/>
		<edge from-layer="1029" from-port="0" to-layer="1030" to-port="1"/>
		<edge from-layer="1030" from-port="2" to-layer="1031" to-port="0"/>
		<edge from-layer="1031" from-port="1" to-layer="1033" to-port="0"/>
		<edge from-layer="1032" from-port="0" to-layer="1033" to-port="1"/>
		<edge from-layer="1033" from-port="2" to-layer="1035" to-port="0"/>
		<edge from-layer="1034" from-port="0" to-layer="1035" to-port="1"/>
		<edge from-layer="1035" from-port="2" to-layer="1036" to-port="0"/>
		<edge from-layer="1036" from-port="1" to-layer="1038" to-port="0"/>
		<edge from-layer="1036" from-port="1" to-layer="1049" to-port="0"/>
		<edge from-layer="1037" from-port="0" to-layer="1038" to-port="1"/>
		<edge from-layer="1038" from-port="2" to-layer="1040" to-port="0"/>
		<edge from-layer="1039" from-port="0" to-layer="1040" to-port="1"/>
		<edge from-layer="1040" from-port="2" to-layer="1042" to-port="0"/>
		<edge from-layer="1041" from-port="0" to-layer="1042" to-port="1"/>
		<edge from-layer="1042" from-port="2" to-layer="1043" to-port="0"/>
		<edge from-layer="1043" from-port="1" to-layer="1045" to-port="0"/>
		<edge from-layer="1044" from-port="0" to-layer="1045" to-port="1"/>
		<edge from-layer="1045" from-port="2" to-layer="1047" to-port="0"/>
		<edge from-layer="1046" from-port="0" to-layer="1047" to-port="1"/>
		<edge from-layer="1047" from-port="2" to-layer="1048" to-port="0"/>
		<edge from-layer="1048" from-port="1" to-layer="1049" to-port="1"/>
		<edge from-layer="1049" from-port="2" to-layer="1051" to-port="0"/>
		<edge from-layer="1050" from-port="0" to-layer="1051" to-port="1"/>
		<edge from-layer="1051" from-port="2" to-layer="1053" to-port="0"/>
		<edge from-layer="1052" from-port="0" to-layer="1053" to-port="1"/>
		<edge from-layer="1053" from-port="2" to-layer="1054" to-port="0"/>
		<edge from-layer="1054" from-port="2" to-layer="1056" to-port="0"/>
		<edge from-layer="1054" from-port="2" to-layer="1082" to-port="1"/>
		<edge from-layer="1055" from-port="0" to-layer="1056" to-port="1"/>
		<edge from-layer="1056" from-port="2" to-layer="1058" to-port="0"/>
		<edge from-layer="1057" from-port="0" to-layer="1058" to-port="1"/>
		<edge from-layer="1058" from-port="2" to-layer="1059" to-port="0"/>
		<edge from-layer="1059" from-port="1" to-layer="1061" to-port="0"/>
		<edge from-layer="1060" from-port="0" to-layer="1061" to-port="1"/>
		<edge from-layer="1061" from-port="2" to-layer="1063" to-port="0"/>
		<edge from-layer="1062" from-port="0" to-layer="1063" to-port="1"/>
		<edge from-layer="1063" from-port="2" to-layer="1064" to-port="0"/>
		<edge from-layer="1064" from-port="1" to-layer="1066" to-port="0"/>
		<edge from-layer="1064" from-port="1" to-layer="1077" to-port="0"/>
		<edge from-layer="1065" from-port="0" to-layer="1066" to-port="1"/>
		<edge from-layer="1066" from-port="2" to-layer="1068" to-port="0"/>
		<edge from-layer="1067" from-port="0" to-layer="1068" to-port="1"/>
		<edge from-layer="1068" from-port="2" to-layer="1070" to-port="0"/>
		<edge from-layer="1069" from-port="0" to-layer="1070" to-port="1"/>
		<edge from-layer="1070" from-port="2" to-layer="1071" to-port="0"/>
		<edge from-layer="1071" from-port="1" to-layer="1073" to-port="0"/>
		<edge from-layer="1072" from-port="0" to-layer="1073" to-port="1"/>
		<edge from-layer="1073" from-port="2" to-layer="1075" to-port="0"/>
		<edge from-layer="1074" from-port="0" to-layer="1075" to-port="1"/>
		<edge from-layer="1075" from-port="2" to-layer="1076" to-port="0"/>
		<edge from-layer="1076" from-port="1" to-layer="1077" to-port="1"/>
		<edge from-layer="1077" from-port="2" to-layer="1079" to-port="0"/>
		<edge from-layer="1078" from-port="0" to-layer="1079" to-port="1"/>
		<edge from-layer="1079" from-port="2" to-layer="1081" to-port="0"/>
		<edge from-layer="1080" from-port="0" to-layer="1081" to-port="1"/>
		<edge from-layer="1081" from-port="2" to-layer="1082" to-port="0"/>
		<edge from-layer="1082" from-port="2" to-layer="1084" to-port="0"/>
		<edge from-layer="1082" from-port="2" to-layer="1110" to-port="1"/>
		<edge from-layer="1083" from-port="0" to-layer="1084" to-port="1"/>
		<edge from-layer="1084" from-port="2" to-layer="1086" to-port="0"/>
		<edge from-layer="1085" from-port="0" to-layer="1086" to-port="1"/>
		<edge from-layer="1086" from-port="2" to-layer="1087" to-port="0"/>
		<edge from-layer="1087" from-port="1" to-layer="1089" to-port="0"/>
		<edge from-layer="1088" from-port="0" to-layer="1089" to-port="1"/>
		<edge from-layer="1089" from-port="2" to-layer="1091" to-port="0"/>
		<edge from-layer="1090" from-port="0" to-layer="1091" to-port="1"/>
		<edge from-layer="1091" from-port="2" to-layer="1092" to-port="0"/>
		<edge from-layer="1092" from-port="1" to-layer="1105" to-port="0"/>
		<edge from-layer="1092" from-port="1" to-layer="1094" to-port="0"/>
		<edge from-layer="1093" from-port="0" to-layer="1094" to-port="1"/>
		<edge from-layer="1094" from-port="2" to-layer="1096" to-port="0"/>
		<edge from-layer="1095" from-port="0" to-layer="1096" to-port="1"/>
		<edge from-layer="1096" from-port="2" to-layer="1098" to-port="0"/>
		<edge from-layer="1097" from-port="0" to-layer="1098" to-port="1"/>
		<edge from-layer="1098" from-port="2" to-layer="1099" to-port="0"/>
		<edge from-layer="1099" from-port="1" to-layer="1101" to-port="0"/>
		<edge from-layer="1100" from-port="0" to-layer="1101" to-port="1"/>
		<edge from-layer="1101" from-port="2" to-layer="1103" to-port="0"/>
		<edge from-layer="1102" from-port="0" to-layer="1103" to-port="1"/>
		<edge from-layer="1103" from-port="2" to-layer="1104" to-port="0"/>
		<edge from-layer="1104" from-port="1" to-layer="1105" to-port="1"/>
		<edge from-layer="1105" from-port="2" to-layer="1107" to-port="0"/>
		<edge from-layer="1106" from-port="0" to-layer="1107" to-port="1"/>
		<edge from-layer="1107" from-port="2" to-layer="1109" to-port="0"/>
		<edge from-layer="1108" from-port="0" to-layer="1109" to-port="1"/>
		<edge from-layer="1109" from-port="2" to-layer="1110" to-port="0"/>
		<edge from-layer="1110" from-port="2" to-layer="1112" to-port="0"/>
		<edge from-layer="1110" from-port="2" to-layer="1138" to-port="1"/>
		<edge from-layer="1111" from-port="0" to-layer="1112" to-port="1"/>
		<edge from-layer="1112" from-port="2" to-layer="1114" to-port="0"/>
		<edge from-layer="1113" from-port="0" to-layer="1114" to-port="1"/>
		<edge from-layer="1114" from-port="2" to-layer="1115" to-port="0"/>
		<edge from-layer="1115" from-port="1" to-layer="1117" to-port="0"/>
		<edge from-layer="1116" from-port="0" to-layer="1117" to-port="1"/>
		<edge from-layer="1117" from-port="2" to-layer="1119" to-port="0"/>
		<edge from-layer="1118" from-port="0" to-layer="1119" to-port="1"/>
		<edge from-layer="1119" from-port="2" to-layer="1120" to-port="0"/>
		<edge from-layer="1120" from-port="1" to-layer="1122" to-port="0"/>
		<edge from-layer="1120" from-port="1" to-layer="1133" to-port="0"/>
		<edge from-layer="1121" from-port="0" to-layer="1122" to-port="1"/>
		<edge from-layer="1122" from-port="2" to-layer="1124" to-port="0"/>
		<edge from-layer="1123" from-port="0" to-layer="1124" to-port="1"/>
		<edge from-layer="1124" from-port="2" to-layer="1126" to-port="0"/>
		<edge from-layer="1125" from-port="0" to-layer="1126" to-port="1"/>
		<edge from-layer="1126" from-port="2" to-layer="1127" to-port="0"/>
		<edge from-layer="1127" from-port="1" to-layer="1129" to-port="0"/>
		<edge from-layer="1128" from-port="0" to-layer="1129" to-port="1"/>
		<edge from-layer="1129" from-port="2" to-layer="1131" to-port="0"/>
		<edge from-layer="1130" from-port="0" to-layer="1131" to-port="1"/>
		<edge from-layer="1131" from-port="2" to-layer="1132" to-port="0"/>
		<edge from-layer="1132" from-port="1" to-layer="1133" to-port="1"/>
		<edge from-layer="1133" from-port="2" to-layer="1135" to-port="0"/>
		<edge from-layer="1134" from-port="0" to-layer="1135" to-port="1"/>
		<edge from-layer="1135" from-port="2" to-layer="1137" to-port="0"/>
		<edge from-layer="1136" from-port="0" to-layer="1137" to-port="1"/>
		<edge from-layer="1137" from-port="2" to-layer="1138" to-port="0"/>
		<edge from-layer="1138" from-port="2" to-layer="1140" to-port="0"/>
		<edge from-layer="1138" from-port="2" to-layer="1166" to-port="1"/>
		<edge from-layer="1139" from-port="0" to-layer="1140" to-port="1"/>
		<edge from-layer="1140" from-port="2" to-layer="1142" to-port="0"/>
		<edge from-layer="1141" from-port="0" to-layer="1142" to-port="1"/>
		<edge from-layer="1142" from-port="2" to-layer="1143" to-port="0"/>
		<edge from-layer="1143" from-port="1" to-layer="1145" to-port="0"/>
		<edge from-layer="1144" from-port="0" to-layer="1145" to-port="1"/>
		<edge from-layer="1145" from-port="2" to-layer="1147" to-port="0"/>
		<edge from-layer="1146" from-port="0" to-layer="1147" to-port="1"/>
		<edge from-layer="1147" from-port="2" to-layer="1148" to-port="0"/>
		<edge from-layer="1148" from-port="1" to-layer="1150" to-port="0"/>
		<edge from-layer="1148" from-port="1" to-layer="1161" to-port="0"/>
		<edge from-layer="1149" from-port="0" to-layer="1150" to-port="1"/>
		<edge from-layer="1150" from-port="2" to-layer="1152" to-port="0"/>
		<edge from-layer="1151" from-port="0" to-layer="1152" to-port="1"/>
		<edge from-layer="1152" from-port="2" to-layer="1154" to-port="0"/>
		<edge from-layer="1153" from-port="0" to-layer="1154" to-port="1"/>
		<edge from-layer="1154" from-port="2" to-layer="1155" to-port="0"/>
		<edge from-layer="1155" from-port="1" to-layer="1157" to-port="0"/>
		<edge from-layer="1156" from-port="0" to-layer="1157" to-port="1"/>
		<edge from-layer="1157" from-port="2" to-layer="1159" to-port="0"/>
		<edge from-layer="1158" from-port="0" to-layer="1159" to-port="1"/>
		<edge from-layer="1159" from-port="2" to-layer="1160" to-port="0"/>
		<edge from-layer="1160" from-port="1" to-layer="1161" to-port="1"/>
		<edge from-layer="1161" from-port="2" to-layer="1163" to-port="0"/>
		<edge from-layer="1162" from-port="0" to-layer="1163" to-port="1"/>
		<edge from-layer="1163" from-port="2" to-layer="1165" to-port="0"/>
		<edge from-layer="1164" from-port="0" to-layer="1165" to-port="1"/>
		<edge from-layer="1165" from-port="2" to-layer="1166" to-port="0"/>
		<edge from-layer="1166" from-port="2" to-layer="1168" to-port="0"/>
		<edge from-layer="1167" from-port="0" to-layer="1168" to-port="1"/>
		<edge from-layer="1168" from-port="2" to-layer="1170" to-port="0"/>
		<edge from-layer="1169" from-port="0" to-layer="1170" to-port="1"/>
		<edge from-layer="1170" from-port="2" to-layer="1171" to-port="0"/>
		<edge from-layer="1171" from-port="1" to-layer="1173" to-port="0"/>
		<edge from-layer="1171" from-port="1" to-layer="1174" to-port="0"/>
		<edge from-layer="1171" from-port="1" to-layer="1214" to-port="0"/>
		<edge from-layer="1171" from-port="1" to-layer="1211" to-port="0"/>
		<edge from-layer="1172" from-port="0" to-layer="1173" to-port="1"/>
		<edge from-layer="1173" from-port="2" to-layer="1188" to-port="0"/>
		<edge from-layer="1174" from-port="1" to-layer="1206" to-port="0"/>
		<edge from-layer="1174" from-port="1" to-layer="1183" to-port="0"/>
		<edge from-layer="1174" from-port="1" to-layer="1177" to-port="0"/>
		<edge from-layer="1174" from-port="1" to-layer="1217" to-port="0"/>
		<edge from-layer="1174" from-port="1" to-layer="1180" to-port="0"/>
		<edge from-layer="1175" from-port="0" to-layer="1177" to-port="1"/>
		<edge from-layer="1176" from-port="0" to-layer="1177" to-port="2"/>
		<edge from-layer="1177" from-port="3" to-layer="1187" to-port="0"/>
		<edge from-layer="1178" from-port="0" to-layer="1180" to-port="1"/>
		<edge from-layer="1179" from-port="0" to-layer="1180" to-port="2"/>
		<edge from-layer="1180" from-port="3" to-layer="1184" to-port="0"/>
		<edge from-layer="1181" from-port="0" to-layer="1183" to-port="1"/>
		<edge from-layer="1182" from-port="0" to-layer="1183" to-port="2"/>
		<edge from-layer="1183" from-port="3" to-layer="1184" to-port="1"/>
		<edge from-layer="1184" from-port="2" to-layer="1186" to-port="0"/>
		<edge from-layer="1185" from-port="0" to-layer="1186" to-port="1"/>
		<edge from-layer="1186" from-port="2" to-layer="1187" to-port="1"/>
		<edge from-layer="1187" from-port="2" to-layer="1188" to-port="1"/>
		<edge from-layer="1188" from-port="2" to-layer="1193" to-port="0"/>
		<edge from-layer="1188" from-port="2" to-layer="1197" to-port="0"/>
		<edge from-layer="1188" from-port="2" to-layer="1190" to-port="0"/>
		<edge from-layer="1189" from-port="0" to-layer="1190" to-port="1"/>
		<edge from-layer="1190" from-port="2" to-layer="1192" to-port="0"/>
		<edge from-layer="1190" from-port="2" to-layer="1198" to-port="1"/>
		<edge from-layer="1191" from-port="0" to-layer="1192" to-port="1"/>
		<edge from-layer="1192" from-port="2" to-layer="1193" to-port="1"/>
		<edge from-layer="1193" from-port="2" to-layer="1195" to-port="0"/>
		<edge from-layer="1194" from-port="0" to-layer="1195" to-port="1"/>
		<edge from-layer="1195" from-port="2" to-layer="1203" to-port="0"/>
		<edge from-layer="1196" from-port="0" to-layer="1197" to-port="1"/>
		<edge from-layer="1197" from-port="2" to-layer="1198" to-port="0"/>
		<edge from-layer="1198" from-port="2" to-layer="1200" to-port="0"/>
		<edge from-layer="1199" from-port="0" to-layer="1200" to-port="1"/>
		<edge from-layer="1200" from-port="2" to-layer="1202" to-port="0"/>
		<edge from-layer="1201" from-port="0" to-layer="1202" to-port="1"/>
		<edge from-layer="1202" from-port="2" to-layer="1203" to-port="1"/>
		<edge from-layer="1203" from-port="2" to-layer="1207" to-port="0"/>
		<edge from-layer="1204" from-port="0" to-layer="1206" to-port="1"/>
		<edge from-layer="1205" from-port="0" to-layer="1206" to-port="2"/>
		<edge from-layer="1206" from-port="3" to-layer="1207" to-port="1"/>
		<edge from-layer="1207" from-port="2" to-layer="1208" to-port="0"/>
		<edge from-layer="1208" from-port="1" to-layer="1209" to-port="0"/>
		<edge from-layer="1210" from-port="0" to-layer="1211" to-port="1"/>
		<edge from-layer="1211" from-port="2" to-layer="1212" to-port="0"/>
		<edge from-layer="1213" from-port="0" to-layer="1214" to-port="1"/>
		<edge from-layer="1214" from-port="2" to-layer="1220" to-port="0"/>
		<edge from-layer="1215" from-port="0" to-layer="1217" to-port="1"/>
		<edge from-layer="1216" from-port="0" to-layer="1217" to-port="2"/>
		<edge from-layer="1217" from-port="3" to-layer="1219" to-port="0"/>
		<edge from-layer="1218" from-port="0" to-layer="1219" to-port="1"/>
		<edge from-layer="1219" from-port="2" to-layer="1220" to-port="1"/>
		<edge from-layer="1220" from-port="2" to-layer="1222" to-port="0"/>
		<edge from-layer="1221" from-port="0" to-layer="1222" to-port="1"/>
		<edge from-layer="1222" from-port="2" to-layer="1224" to-port="0"/>
		<edge from-layer="1223" from-port="0" to-layer="1224" to-port="1"/>
		<edge from-layer="1224" from-port="2" to-layer="1225" to-port="0"/>
		<edge from-layer="1225" from-port="1" to-layer="1226" to-port="0"/>
	</edges>
	<meta_data>
		<MO_version value="2022.1.0-7019-cdb9bec7210-releases/2022/1"/>
		<Runtime_version value="2022.1.0-7019-cdb9bec7210-releases/2022/1"/>
		<legacy_path value="False"/>
		<cli_parameters>
			<caffe_parser_path value="DIR"/>
			<compress_fp16 value="False"/>
			<data_type value="FP32"/>
			<disable_nhwc_to_nchw value="False"/>
			<disable_omitting_optional value="False"/>
			<disable_resnet_optimization value="False"/>
			<disable_weights_compression value="False"/>
			<enable_concat_optimization value="False"/>
			<enable_flattening_nested_params value="False"/>
			<enable_ssd_gluoncv value="False"/>
			<extensions value="DIR"/>
			<framework value="onnx"/>
			<freeze_placeholder_with_value value="{}"/>
			<input_model value="DIR/model.onnx"/>
			<input_model_is_text value="False"/>
			<k value="DIR/CustomLayersMapping.xml"/>
			<layout value="()"/>
			<layout_values value="{}"/>
			<legacy_mxnet_model value="False"/>
			<log_level value="ERROR"/>
			<mean_scale_values value="[(array([123.675, 116.28 , 103.53 ]), array([58.395, 57.12 , 57.375]))]"/>
			<mean_values value="[123.675, 116.28, 103.53]"/>
			<model_name value="model"/>
			<output_dir value="DIR"/>
			<placeholder_data_types value="{}"/>
			<progress value="False"/>
			<remove_memory value="False"/>
			<remove_output_softmax value="False"/>
			<reverse_input_channels value="True"/>
			<save_params_from_nd value="False"/>
			<scale_values value="[58.395, 57.12, 57.375]"/>
			<silent value="False"/>
			<source_layout value="()"/>
			<static_shape value="False"/>
			<stream_output value="False"/>
			<target_layout value="()"/>
			<transform value=""/>
			<use_legacy_frontend value="False"/>
			<use_new_frontend value="False"/>
			<unset unset_cli_parameters="batch, counts, disable_fusing, finegrain_fusing, input, input_checkpoint, input_meta_graph, input_proto, input_shape, input_symbol, mean_file, mean_file_offsets, nd_prefix_name, output, placeholder_shapes, pretrained_model_name, saved_model_dir, saved_model_tags, scale, tensorboard_logdir, tensorflow_custom_layer_libraries, tensorflow_custom_operations_config_update, tensorflow_object_detection_api_pipeline_config, tensorflow_use_custom_operations_config, transformations_config"/>
		</cli_parameters>
	</meta_data>
</net>
